Results/FCNN_encoder_confounder_free_plots/trained_model_fold5.pth (torch, 600778 bytes, 34 tensors)

encoder.0.weight f4 [256, 371]
000000 d1 f3 db 3d bc f2 24 bd 63 a5 25 3c 04 0b 32 bd
       0.10739864 -0.040270552 0.010110232 -0.043467537
000010 0b b5 34 bd 8b 83 e4 3c 13 0f 0d bd c5 08 11 bd
       -0.04411797 0.027894756 -0.034438204 -0.035408754
000020 a8 15 64 bd 27 d0 c7 3c 37 73 70 3c c1 4e 15 3d
       -0.055684716 0.024391247 0.014675907 0.03645206
000030 ba b5 fd 3c cd dd c2 3d 53 f5 77 bd eb c3 88 bc
       0.030970443 0.095149614 -0.060536694 -0.016694983
000040 9a f8 1f bd 9f 22 dd bc 7b f0 0b bd 60 2d 2e bd
       -0.039055444 -0.026994048 -0.034164887 -0.04252374
000050 27 bb ab 3b 9a dc d8 3c 4c dd e8 3d d3 73 37 3d
       0.005240816 0.026472379 0.11370334 0.044788193
000060 ac 6c 24 bd 93 48 06 3c 67 1c ca bc 10 08 a0 3c
       -0.0401427 0.008196014 -0.024671746 0.019535094
000070 e5 52 0e 3d 71 3a 15 bd f8 2e 29 3d 22 f4 e9 bc
       0.034747023 -0.036432687 0.04130456 -0.028558794
000080 2f 9c 14 bc 0a 2d 8a 3c d5 db 03 bc 54 56 35 3d
       -0.00907044 0.01686718 -0.0080480175 0.044271782
000090 7c 09 b4 3c a4 4b f6 3c 87 59 72 3c e0 d6 d6 bb
       0.021977179 0.030065365 0.014791853 -0.006556377
0000a0 93 f9 d0 3c eb 11 e0 3d e2 87 b0 bb 17 61 ef 3c
       0.025509631 0.109409176 -0.0053872922 0.0292211
0000b0 20 0b 80 3c cf de b5 3c d7 ce bd bd 2a 58 f2 bc
       0.015630305 0.02220097 -0.09267967 -0.029583056
0000c0 12 26 52 bc 6c 5f f2 3c 13 11 95 3d 67 4f 71 3d
       -0.0128264595 0.029586516 0.07278647 0.058913615
0000d0 6e 24 a0 bc bb b2 a0 3d 82 ca 84 bc dd b6 91 bd
       -0.019548621 0.0784659 -0.016209844 -0.071149565
0000e0 b3 c3 c1 bc e9 f3 b6 bc 09 67 0e 3b 2b d8 54 3d
       -0.023652887 -0.022333102 0.0021728894 0.051963966
0000f0 a3 fc fe bb 5e 1d 0a bc 1b aa bf ba fd 77 52 3d
       -0.0077815815 -0.008429853 -0.0014622839 0.05138396
000100 a8 b5 85 3b 0e d9 54 bd 7f 9f 80 3c ae eb c8 bc
       0.004080493 -0.051964812 0.015701054 -0.024526443
000110 e6 36 22 bd 4b 8c 8e 3b 77 74 60 bc 23 05 52 bd
       -0.039603136 0.0043502203 -0.013699642 -0.05127443
000120 99 ea 2d 3d 2f b1 45 3d 89 fa 52 bd 2f 8e c6 3c
       0.042460058 0.04826468 -0.05150846 0.02423772
000130 70 8f 08 3d 8f 72 35 3d e2 9f bf 3d 0a 1f 45 3d
       0.033339918 0.044298705 0.09356667 0.048125304
000140 5d db 9b 3d e9 b5 35 bc 76 44 b5 3c 43 93 78 3d
       0.076101996 -0.011090734 0.022127371 0.060687315
000150 32 e3 80 3d ec b6 85 bd a2 a2 86 bb e5 74 e9 3c
       0.06293334 -0.0652903 -0.004108743 0.028498122
000160 0b 81 e5 3d 81 7d 6c 3d 82 6d 91 bd 23 5f 82 3d
       0.112062536 0.057736877 -0.07100965 0.06365802
000170 99 a8 27 3d ad 85 06 bd 4c 9e 27 3d c1 a1 3c 3d
       0.04093227 -0.032842327 0.040922448 0.046052698
000180 4e 40 39 bc bf 17 b4 3d 24 d3 95 bd a4 9a 86 bd
       -0.011306835 0.08793592 -0.073156625 -0.06572464
000190 ac 02 b5 bd 75 d4 62 3c 3b 1c 34 bd 59 8d 2b 3d
       -0.088384 0.013844599 -0.043972235 0.041882847
0001a0 84 1b 90 3d d7 8f 77 3c 14 1c 72 bb 52 83 e8 3c
       0.07036498 0.015109978 -0.0036943005 0.02838293
0001b0 46 c7 88 3d c5 31 0a bc 8e b0 82 bc d6 90 2d 3d
       0.066786334 -0.008434718 -0.015953328 0.042374454
0001c0 a8 58 23 bd 96 f9 e7 3c 94 8d bc bd 76 28 46 bd
       -0.03987947 0.028317254 -0.092066914 -0.04837843
0001d0 66 17 c7 3c 6d 77 02 bc d9 72 27 3d 05 fb 2b 3b
       0.02430315 -0.007963044 0.04088101 0.0026242149
0001e0 fa f3 9e 3c 13 1c 86 bc 97 c2 e0 3c 92 5e 02 3d
       0.019403446 -0.016370809 0.027436538 0.03182847
0001f0 c1 d3 08 3c 71 41 4f bc 51 05 0d 3d 0e c3 03 3d
       0.008351267 -0.01264988 0.0344289 0.03216844
000200 8b 6e ec 3c b5 43 7f 3d 6e 58 00 3d 88 9b 28 3d
       0.028861305 0.06232043 0.031334333 0.04116395
000210 67 0d 86 bd cd 65 9c 3d ef 4e 08 3d 23 cd 2f 3d
       -0.06545525 0.076366045 0.033278402 0.042920243
000220 da 1d 0b bd c6 3d 4f 3d f9 a9 b5 3a df b9 2c bd
       -0.033964016 0.05059602 0.001385986 -0.042169448
000230 84 eb cb bd 31 c5 8c 3c 11 06 d2 3b d6 47 14 bd
       -0.099570304 0.017183872 0.0064094146 -0.03620132
000240 31 f0 45 3c e4 63 56 3b c9 32 29 bd 5d cb 29 3c
       0.012081192 0.0032713348 -0.041308198 0.010363427
000250 ba 86 be 3c a0 41 e6 3c 06 f7 fc bc f8 5d 14 3b
       0.023257602 0.028107464 -0.030879509 0.0022639018
000260 c3 37 3b 3d 3b 1e 3b 3d 83 2f 5c 3d 20 9a a7 3d
       0.045707475 0.045683127 0.05375625 0.08183694
000270 87 52 85 3d 1a ce dd bb a6 5b a5 bc fa 62 cb 3d
       0.065098815 -0.006768954 -0.020185303 0.09930988
000280 23 04 15 3d b3 3a 5d 3c b9 c7 56 bc e3 cb e0 bc
       0.0363809 0.0135027645 -0.013109141 -0.02744097
000290 02 4a 34 bd 3b 5b 6d 3c 4e 80 4e 3d 38 ee d9 bc
       -0.04401589 0.014487083 0.05041533 -0.02660285
0002a0 1d 43 90 3c 72 93 97 3a 8f 29 4c bd fc d9 89 3d
       0.017610127 0.0011564328 -0.04984432 0.0673103
0002b0 51 d9 57 3d 21 fc 0f bd 00 de 1f 3d ea e6 22 3c
       0.052697483 -0.03515256 0.039030075 0.0099427495
0002c0 f0 a2 4c 3d f0 68 2f bc 40 16 e4 3c ff 4d 29 3d
       0.049960077 -0.010706171 0.02784264 0.04133415
0002d0 2f 98 92 bb 7b c3 32 bd 09 16 85 bc 7d 2f 44 bd
       -0.004473708 -0.043643456 -0.016245859 -0.04789685
0002e0 3c a2 2f bc 68 b0 14 3d 09 e4 79 3c a9 8a 0f bc
       -0.010719832 0.036301047 0.015252122 -0.0087610865
0002f0 62 a2 2e 3d 9d 2b 20 3c 57 d3 e5 3a f1 eb 8d 3d
       0.04263533 0.009776023 0.0017534298 0.06929768
000300 34 37 19 3c 2d ac fc 3c 13 a4 0b 3c d5 30 be bb
       0.00935154 0.030843819 0.008523005 -0.005804161
000310 c2 26 31 3d e9 3a 1d 3d 99 62 e9 bc fd 2c 3e bd
       0.043249853 0.03838626 -0.028489398 -0.046429623
000320 4e e4 67 3d 89 b0 d5 bd 98 70 aa bc 2c 65 33 3d
       0.056614213 -0.10434062 -0.020805642 0.043797657
000330 fa 40 15 bd fb f5 96 3c c8 b2 c2 3c de 65 74 3c
       -0.03643892 0.01842784 0.02376689 0.014916865
000340 60 a7 7a bc f5 3b 89 3d 61 68 fb 3b 4c a5 0c bd
       -0.015298694 0.06700889 0.007672355 -0.034337327
000350 ba 56 21 bd bf ca e2 3b a8 bf 50 bd e9 4e be bd
       -0.03938935 0.006921142 -0.050964028 -0.09292395
000360 4a 7a 3f bc 61 30 87 3c 0c 61 1c bd 30 8d 17 bd
       -0.011686871 0.016502561 -0.03817849 -0.03699988
000370 a2 44 38 3c 1c ca 6f 3c ac bb d6 3b 03 a7 24 3d
       0.011246832 0.014635589 0.006553134 0.040198337
000380 19 1a 27 bc 0c b3 4c 3d df a7 62 3d ea e4 1d bb
       -0.010199093 0.04997544 0.055335876 -0.0024092742
000390 a3 9c 90 bd cd f2 0d 3d 7f 29 7d ba 96 77 df bc
       -0.07061126 0.03465538 -0.00096573675 -0.027278703
0003a0 76 cb 82 3a cc 3b 2e bd 84 f1 c5 bc 2b e5 7a bd
       0.0009978849 -0.042537495 -0.024163015 -0.061253708
0003b0 25 22 11 bd 26 30 d9 bc fe f6 83 bc c5 01 e4 bb
       -0.035432953 -0.026512217 -0.016108986 -0.0069582188
0003c0 a8 78 4f bc 01 66 4b 3d e4 b0 59 3d 4a 0e 9e bd
       -0.012663044 0.049657825 0.05314721 -0.07717569
0003d0 45 1f 4f 3d 71 f6 6f bc fc 33 8d 3b e3 db 95 3b
       0.05056693 -0.014646159 0.0043091755 0.0045733317
0003e0 a4 5c b5 bb 74 2c bf 3b 37 fa 84 3c e6 81 c1 bc
       -0.0055347253 0.0058341566 0.016232593 -0.02362151
0003f0 96 56 55 bd 84 e5 ad bb 66 cb 59 bd 4c ff c4 bc
       -0.052084528 -0.0053069014 -0.05317249 -0.024047516

encoder.0.bias f4 [256]
000000 b2 7e 85 bd d4 b5 a5 bd c5 6f 39 3d cb b8 bc bc
       -0.06518306 -0.080913216 0.045272607 -0.023037335
000010 85 6b 09 bc 97 b6 1d 3d a6 6e e8 ba 81 62 b2 3c
       -0.008387451 0.03850421 -0.0017733171 0.021775486
000020 c1 80 60 3d 6e 4c 4c 3d 7e 55 25 3c 97 97 ab 3c
       0.05481029 0.049877577 0.010091184 0.020946307
000030 5c 62 fc bc 2a a9 41 3c 4a 5c 23 3d e5 f3 f9 bc
       -0.03080862 0.011820117 0.039882936 -0.030511806
000040 a9 11 19 bd c5 e1 1f 3d 73 d2 5e bd ce d1 68 3b
       -0.037370358 0.03903367 -0.05439992 0.0035525444
000050 62 7e 76 bd 60 71 32 bc de 9d 43 3d b5 b1 2e bd
       -0.06017912 -0.0108912885 0.047757976 -0.042649943
000060 1e ba 3e 3d ca aa 43 bd 98 47 4c 3b a5 d3 6a bd
       0.046564214 -0.0477703 0.0031170603 -0.057330746
000070 78 38 26 bd c5 b0 30 bd 98 bf e0 3c b1 ef 5a bc
       -0.040581197 -0.04313733 0.027435109 -0.013362811
000080 4a ab 2d bd bd 93 02 3d 45 81 07 bc 7d 94 31 3c
       -0.042399682 0.031879175 -0.008270566 0.010838625
000090 e5 43 9c bb 0a 02 1a 3d 07 44 ef bc 8c 7a 27 3d
       -0.004768836 0.0375996 -0.029207243 0.040888354
0000a0 cb d1 49 bd 9b f2 57 3c 87 d2 cc bc 91 44 d1 3c
       -0.04927234 0.0131804 -0.025002731 0.02554539
0000b0 1a 24 95 3d a0 9d 0b 3c 3d 9c 40 3d 30 fd de 3c
       0.072822765 0.008521467 0.047024 0.027220339
0000c0 9e f5 9a bc ec 2f 3e bc 5d 1b 48 3b ae b8 a9 3b
       -0.018915948 -0.011608105 0.0030533888 0.0051794862
0000d0 53 f0 00 3d 21 66 80 3c df 43 40 3d e5 10 77 3d
       0.03147919 0.015673699 0.046939727 0.060318846
0000e0 94 6c 40 3d 4f 24 29 bd ae 04 c2 bc 4e 48 24 bb
       0.04697855 -0.041294392 -0.023683872 -0.002506751
0000f0 fa 6e a4 b9 a9 03 27 bd 5f ac c3 3d a5 08 72 3c
       -0.00031363202 -0.040774975 0.095543616 0.014772569
000100 da 6f 14 bd bb 47 78 3c 4e 0b fd bc 39 bf 0b 3d
       -0.036239482 0.015153821 -0.03088918 0.03411791
000110 7b 1a c6 3c f3 6f 2e bd 84 57 09 3c 72 e8 9e 3c
       0.024182549 -0.04258723 0.008382682 0.019397948
000120 c5 94 01 3d c3 6e 01 3d c3 7e 96 3c 70 09 d2 3c
       0.03163602 0.03159977 0.018370992 0.025639266
000130 81 d9 1b 3b e0 be c3 bc a9 4c 3f 3d f0 cb 11 3d
       0.0023780765 -0.023894727 0.04670397 0.03559488
000140 c6 d5 12 bd 50 36 84 3b bf 42 bf bc d7 d2 15 3d
       -0.0358484 0.004034795 -0.023347257 0.036578026
000150 f5 56 82 3d f3 74 33 3d 82 f9 9b 3c 44 02 df 3c
       0.06364242 0.043812703 0.019039873 0.02722276
000160 32 b9 c7 3c 0a da fb 3c af 7e 20 3d 00 db da 3c
       0.0243803 0.030743618 0.039183315 0.026715755
000170 c8 dc 01 3d 3e e4 85 3d 29 9d 0e bd 56 fd c7 3c
       0.031704694 0.06537674 -0.03481785 0.024412792
000180 0e f5 dd bc 86 22 2e 3b 83 4a 4c 3d 69 b7 f4 3c
       -0.02709439 0.002657087 0.049875747 0.029872613
000190 e1 b4 f1 3c a2 59 dd 3c e2 24 0e bd 72 c3 17 3d
       0.029505195 0.02702028 -0.034703143 0.037051626
0001a0 a9 96 5e 3d 3b 23 d6 bc cd ef 03 3c 15 29 26 bd
       0.0543429 -0.026139846 0.008052778 -0.040566523
0001b0 33 85 64 bd 71 6f 44 bd 56 04 11 3c d6 dc 1e 3d
       -0.05579109 -0.04795784 0.008851131 0.038784824
0001c0 70 2e f1 3c de 68 de bc 4a 4e c0 3c 7e 52 bb bc
       0.029441088 -0.027149614 0.023474831 -0.022866484
0001d0 09 3e 2e 3d f9 f2 8e bc b3 b9 3b bd 5b 05 c5 bc
       0.04253963 -0.017449843 -0.045831393 -0.024050405
0001e0 4c 4a aa bc e1 01 6b bb fb 58 8b bd 91 5a e0 3b
       -0.02078738 -0.0035859274 -0.06804081 0.006846734
0001f0 d3 85 56 3c c0 c3 59 3c ed a4 e7 bc d8 3b 14 bd
       0.01309343 0.013291299 -0.028276885 -0.036189884
000200 8a 65 05 bd 88 27 db bc 67 10 4c bd 9b fd 6f bc
       -0.03256754 -0.026752248 -0.04982033 -0.014647867
000210 2d 4c a8 3c 59 7f 9c 3c 91 f0 6c bc 6b 3e 56 3d
       0.020544136 0.019103693 -0.014461652 0.05230562
000220 ac 2e a9 3c e4 86 55 bd 02 62 cd bc 7c c0 23 3d
       0.020652138 -0.052130595 -0.025071148 0.03997849
000230 10 37 9f bc aa 38 7b bd c2 e1 81 bd f4 5c 21 bd
       -0.019435436 -0.061333336 -0.06341888 -0.039395288
000240 ea e2 64 3b 68 3f d4 bc bd 90 8e 3d 69 79 13 bd
       0.003492529 -0.02590914 0.069612004 -0.036004458
000250 dc 5c 8f bc 48 f8 20 3b 97 ed 4b 3d 6b c5 aa bb
       -0.017500333 0.002456205 0.04978713 -0.0052115223
000260 22 ca d6 3c a7 d8 8b bd 40 ea 42 3d 7c 75 19 3d
       0.026219431 -0.068284325 0.04758668 0.037465557
000270 e6 5a 24 3d 25 e3 85 3c e2 6c e3 bc bc e6 80 bd
       0.04012575 0.016343663 -0.02776188 -0.06294009
000280 46 7a 72 bd 65 e8 43 bd d4 87 a4 bb d1 01 bd 3c
       -0.05919864 -0.04782905 -0.005021075 0.023072155
000290 88 1f 9b 3d 92 12 96 bb 4d 19 58 3c e3 85 3e bd
       0.075743735 -0.0045798505 0.013189626 -0.046514403
0002a0 e3 76 65 bc 2b f4 ba bc f5 74 0b 3d e5 c1 00 bc
       -0.014005396 -0.022821506 0.034047086 -0.007858728
0002b0 29 ec 98 bc 1a 74 4c 3d 5a 20 95 bc 44 46 03 3d
       -0.018667297 0.04991541 -0.018203903 0.032049432
0002c0 7a e2 ef 3b 66 40 9a 3a f2 c6 cb 3c a8 f8 4b 3d
       0.0073206993 0.001176846 0.024875138 0.049797684
0002d0 ee b7 3f bd 84 be a5 bc c2 93 99 3a ad db 18 bc
       -0.04680627 -0.020232446 0.0011717009 -0.009329719
0002e0 1f fb 00 3d fa 0e 22 bd 31 2c 90 bb 7d 04 b4 3a
       0.031489488 -0.039565064 -0.0043997993 0.0013734248
0002f0 2f 94 5b 3d 26 0b b4 bc 2e 91 e3 bc 3f c9 2b bd
       0.053608116 -0.021977972 -0.027779188 -0.04193997
000300 f3 05 70 3d a1 51 34 3c a1 f7 f8 ba b9 99 0c bd
       0.058599424 0.01100579 -0.0018994698 -0.03432629
000310 83 9c 53 bd 0e a7 92 bc fb 28 76 3d 33 f7 ff 3c
       -0.051662933 -0.017901924 0.060097676 0.031245803
000320 cf 58 bc 3b e9 f6 cc 3b 14 e7 00 bd bd e6 9e 3a
       0.0057478915 0.00625502 -0.031470373 0.0012123209
000330 f7 02 aa 3c 22 4a ed bb e5 23 29 bd 06 98 07 3c
       0.020753367 -0.0072415033 -0.041293997 0.008275991
000340 3c 92 8c 3d 68 e9 1b 3d d4 97 08 3c 8b af 35 3d
       0.068638295 0.03806439 0.00833698 0.044356864
000350 bd 8b 5a bc 90 0f dd 3c 3e 78 87 3d c2 a6 c3 3c
       -0.01333898 0.02698496 0.06614731 0.023883227
000360 e6 28 95 ba 9d 9e fd 3c e8 2a 6e bd d3 13 f6 bb
       -0.0011379987 0.030959422 -0.058146387 -0.0075096874
000370 e7 55 c6 bc 3d 11 28 bd cb 11 08 3d a0 a7 5a 3d
       -0.024210883 -0.041032065 0.033220094 0.053382516
000380 dd 23 a1 bc a2 8a c2 3c 1a 0e 2e bd 89 b0 39 bc
       -0.019670421 0.023747746 -0.042493917 -0.011333593
000390 ae 08 0b 3d 2c 8e 87 bc 87 b6 2e 3d d4 c6 eb bc
       0.033943824 -0.016547285 0.04265454 -0.028781332
0003a0 f6 7c f6 3c 25 8f c6 bc 47 26 47 3d 0e f8 e8 3c
       0.030088883 -0.024238179 0.04862049 0.028438594
0003b0 6e b4 3a bc 77 0c 1d bd f6 5e 32 bc e6 9c 04 3d
       -0.011395557 -0.038341966 -0.010886898 0.032376193
0003c0 28 5f 81 3d ae a6 c5 bc 05 a1 e2 3c 7b d9 61 bd
       0.06316978 -0.02412733 0.02766467 -0.055139046
0003d0 79 c5 93 bc 52 05 2c 3d 37 9e 0a bd 67 f1 0a 3d
       -0.018038498 0.04199726 -0.03384229 0.033921625
0003e0 96 5c c5 ba df 9e a4 bd 64 62 ae bc 51 96 3f 3c
       -0.00150575 -0.08038115 -0.02128715 0.011693553
0003f0 f0 eb 06 bd 3b cd 18 3d f3 4e c6 3c 7d d6 20 bc
       -0.03293985 0.037305098 0.024207568 -0.009816763

encoder.1.weight f4 [256]
000000 8e e1 84 3f 51 11 84 3f 86 c9 7f 3f 51 a6 78 3f
       1.0381334 1.0317785 0.99916875 0.9712878
000010 3c 3c 82 3f 0a f4 7d 3f 82 61 7d 3f c0 6f 83 3f
       1.0174632 0.992005 0.9897691 1.0268478
000020 31 f1 7a 3f fc 58 82 3f 2d 57 80 3f b4 53 7f 3f
       0.9802428 1.0183406 1.0026604 0.99737096
000030 ee ea 81 3f bd 5d 78 3f ef 28 81 3f 9f f1 80 3f
       1.014982 0.97018033 1.0090617 1.0073737
000040 6c b6 80 3f 13 71 81 3f d8 43 7f 3f 06 07 7f 3f
       1.0055671 1.0112633 0.99712896 0.9962009
000050 04 25 73 3f fc 05 73 3f b5 8e 81 3f cf 2e 82 3f
       0.94978356 0.94931006 1.0121676 1.0170535
000060 d7 10 82 3f 56 69 7c 3f f7 f0 7a 3f d0 55 82 3f
       1.0161389 0.9859823 0.98023933 1.0182438
000070 cc b7 7c 3f 8b 91 77 3f 28 db 71 3f 37 75 82 3f
       0.9871795 0.96706456 0.9447503 1.0192021
000080 93 a0 75 3f 17 1c 89 3f a4 79 82 3f 49 b5 7d 3f
       0.9594814 1.0711697 1.0193372 0.99104744
000090 4e 65 81 3f d0 69 7f 3f 75 1f 88 3f 3d 0e 83 3f
       1.0109041 0.9977083 1.06346 1.023872
0000a0 14 0d 6f 3f f7 5a 7e 3f 96 10 83 3f ab 7d 7a 3f
       0.9337933 0.9935755 1.0239437 0.97848004
0000b0 8e 79 82 3f 1f d6 81 3f 62 4d 96 3f 4a aa 7f 3f
       1.0193346 1.014347 1.1742365 0.99869215
0000c0 eb ff 82 3f 70 15 82 3f 43 d2 80 3f a1 64 76 3f
       1.023435 1.0162792 1.0064167 0.962473
0000d0 e0 28 7d 3f 9d e1 74 3f 8b fe 81 3f 7a 9a 82 3f
       0.98890495 0.9565676 1.0155805 1.0203393
0000e0 25 94 7e 3f e5 b0 74 3f b0 19 79 3f ea 7d 83 3f
       0.994448 0.9558242 0.9730482 1.0272801
0000f0 c0 60 80 3f 8a a8 83 3f cb a0 84 3f ef 65 83 3f
       1.0029526 1.0285809 1.036157 1.0265483
000100 56 97 84 3f a7 3c 7b 3f e3 63 80 3f f7 97 82 3f
       1.0358684 0.98139423 1.0030483 1.0202626
000110 d5 14 80 3f 8c 11 80 3f 61 cd 80 3f b9 d7 79 3f
       1.0006357 1.0005355 1.0062677 0.9759479
000120 a9 ff 7b 3f fa eb 83 3f 75 d8 8b 3f d4 47 7b 3f
       0.9843698 1.0306389 1.0925432 0.98156476
000130 9a 96 85 3f f6 5b 7d 3f 5b 33 7c 3f 76 2d 85 3f
       1.0436585 0.98968446 0.9851586 1.0404499
000140 35 95 78 3f 59 0b 78 3f c0 ee 81 3f 2c f1 7a 3f
       0.9710267 0.96892315 1.0150986 0.9802425
000150 68 38 83 3f 6b f9 7f 3f 0e ef 82 3f 43 54 87 3f
       1.0251589 0.99989957 1.0229204 1.057259
000160 1f 4b 88 3f 3c 31 85 3f a1 67 82 3f 9e d6 77 3f
       1.0647925 1.040565 1.0187875 0.96811855
000170 c4 28 80 3f fa 03 91 3f fc 01 85 3f fe 2e 89 3f
       1.0012441 1.1329339 1.039123 1.0717466
000180 96 68 81 3f d4 9f 7f 3f 6a 5e 7e 3f 49 7f 7f 3f
       1.0110042 0.99853253 0.99362814 0.99803597
000190 87 ae 7f 3f 84 f1 7f 3f 42 1f 7f 3f 71 77 7e 3f
       0.9987568 0.999779 0.9965707 0.99401003
0001a0 0c 51 7f 3f a8 8f 81 3f 02 cc 8f 3f 8f 6b 77 3f
       0.9973304 1.0121965 1.1234133 0.96648496
0001b0 b7 ee 7e 3f c2 0a 83 3f ca 82 81 3f 96 7e 80 3f
       0.99583 1.0237658 1.0118039 1.0038631
0001c0 ef 4d 81 3f 77 a9 84 3f 27 2d 80 3f 39 bb 7d 3f
       1.0101908 1.0364217 1.0013779 0.99113804
0001d0 27 b4 7d 3f 63 91 7f 3f 9d 5d 86 3f 3d 37 80 3f
       0.99103016 0.9983122 1.0497319 1.0016857
0001e0 46 dc 81 3f 0f a3 83 3f 05 9e 75 3f 6e 15 7e 3f
       1.0145347 1.0284137 0.95944244 0.9925145
0001f0 82 e2 86 3f 28 11 81 3f c2 36 7f 3f 04 00 81 3f
       1.0537875 1.0083361 0.9969293 1.007813
000200 b7 4c 81 3f c7 28 7f 3f 11 b1 7e 3f 66 7e 7a 3f
       1.0101537 0.99671596 0.9948893 0.9784912
000210 a8 5c 76 3f 39 83 87 3f e0 93 86 3f db df 85 3f
       0.9623513 1.0586921 1.0513878 1.045894
000220 cd 17 7b 3f 2d 83 80 3f 6c 91 7e 3f ee d4 73 3f
       0.9808319 1.0040032 0.99440646 0.9524678
000230 45 ea 85 3f 1e 48 82 3f 83 62 81 3f c7 f4 7f 3f
       1.0462118 1.0178258 1.0108188 0.99982876
000240 46 84 8a 3f 59 7a 80 3f df e6 82 3f ce c0 82 3f
       1.0821617 1.0037338 1.0226706 1.0215089
000250 f0 61 81 3f e6 c2 80 3f c0 82 80 3f df 3d 85 3f
       1.0108013 1.0059478 1.0039902 1.0409507
000260 f6 03 82 3f 32 0e 87 3f ea 79 82 3f db 3a 71 3f
       1.0157459 1.0551207 1.0193455 0.9423043
000270 19 15 84 3f 02 71 80 3f d4 52 79 3f 4a 5e 8a 3f
       1.0318938 1.0034487 0.9739201 1.0810025
000280 76 75 81 3f ae 29 7b 3f 92 d4 7a 3f 22 59 86 3f
       1.0113971 0.98110473 0.97980607 1.0495951
000290 22 d1 80 3f c7 f1 7c 3f ff 3b 7a 3f c2 c6 7a 3f
       1.0063822 0.9880642 0.97747797 0.9795953
0002a0 08 0b 87 3f 71 b1 7f 3f d0 11 7e 3f 74 f0 80 3f
       1.0550241 0.9988013 0.9924593 1.007338
0002b0 e9 78 83 3f cc 62 80 3f eb e4 80 3f c7 49 79 3f
       1.0271274 1.003015 1.006986 0.973782
0002c0 d2 8e 7a 3f ae ff 80 3f cf e8 7f 3f a9 73 80 3f
       0.97874177 1.0078027 0.9996461 1.0035297
0002d0 26 e6 7e 3f 74 00 7b 3f b1 6a 7e 3f a6 81 71 3f
       0.9956993 0.98047566 0.9938155 0.9433845
0002e0 f3 e1 82 3f 97 57 7d 3f 5f f0 7b 3f cd 54 81 3f
       1.0225204 0.98961776 0.9841365 1.0104004
0002f0 58 5c 7a 3f 88 7e 86 3f 1c 62 81 3f de c0 72 3f
       0.97797155 1.0507364 1.0108066 0.9482554
000300 39 0d 80 3f c6 69 82 3f 1f 38 85 3f b2 b6 80 3f
       1.0004035 1.018853 1.0407752 1.0055754
000310 b5 65 7a 3f 51 be 81 3f df a2 7f 3f be e3 82 3f
       0.9781144 1.0136205 0.99857897 1.0225751
000320 ed f7 80 3f 4b db 7b 3f 5f 57 7f 3f 19 f6 7e 3f
       1.0075661 0.9838149 0.9974269 0.99594265
000330 25 8f 7a 3f a1 83 7d 3f ba a3 6d 3f 2f 45 78 3f
       0.9787467 0.99028975 0.9282795 0.96980566
000340 35 e5 81 3f f7 5c 80 3f 61 a7 7c 3f b5 e5 82 3f
       1.0148073 1.0028371 0.986929 1.0226351
000350 75 2f 81 3f e4 eb 80 3f 31 a6 80 3f b7 c5 82 3f
       1.0092608 1.0071988 1.0050718 1.0216588
000360 e0 4f 82 3f 53 c6 7a 3f d3 18 81 3f a3 69 80 3f
       1.0180626 0.9795887 1.0085701 1.0032238
000370 89 d9 80 3f 4f 51 75 3f f9 5c 83 3f dd c6 81 3f
       1.0066386 0.9582719 1.0262748 1.0138813
000380 e5 f5 7a 3f 7d 7a 81 3f da 35 7a 3f 42 33 7b 3f
       0.98031455 1.0115505 0.9773842 0.9812509
000390 18 51 7c 3f 2d 46 83 3f f5 0d 7f 3f 34 1c 7c 3f
       0.9856124 1.0255791 0.9963067 0.98480535
0003a0 b6 d9 70 3f 5a 08 81 3f d3 44 81 3f ba 01 75 3f
       0.940822 1.0080674 1.0099128 0.9570576
0003b0 f0 46 77 3f c3 e4 77 3f 7e be 85 3f 27 ef 77 3f
       0.9659262 0.9683344 1.0448759 0.9684929
0003c0 86 20 89 3f 0d b3 7a 3f 2a db 7e 3f f4 6e 82 3f
       1.071305 0.9792946 0.9955317 1.019011
0003d0 d5 b6 80 3f 87 8f 85 3f dd 65 80 3f 97 0a 79 3f
       1.0055796 1.0434426 1.0031086 0.97281784
0003e0 61 41 73 3f 05 e9 81 3f d0 b7 7e 3f ef 12 86 3f
       0.95021635 1.0149237 0.99499226 1.0474528
0003f0 a1 9a 82 3f df 7e 81 3f 75 4b 86 3f e9 72 78 3f
       1.0203439 1.0116843 1.0491778 0.9705034

encoder.1.bias f4 [256]
000000 ca 64 84 3b 44 a0 1a 3c f0 e5 bd bc 8b 34 44 bd
       0.0040403353 0.009437624 -0.023180932 -0.04790167
000010 7a 0b 9c 3c a7 bd d2 3b f2 ec fe bb 21 84 f3 bb
       0.019048441 0.0064312997 -0.007779711 -0.0074315225
000020 55 a8 0c bc 9d d2 1e 3c 02 98 b9 bc 30 7b 0a bc
       -0.008585055 0.009693769 -0.02265549 -0.008452222
000030 9f 73 fe bc b1 f8 ec bc 70 17 19 bd b9 c8 ca bc
       -0.031060992 -0.028927179 -0.037375867 -0.024753915
000040 f7 d6 0d 3b 29 41 0a bd 6e 61 7a 3a d5 47 b6 bb
       0.0021643022 -0.033753548 0.00095512613 -0.0055627623
000050 e6 a1 7f bd 69 d3 aa bc 04 3e cc 3c 22 90 40 bd
       -0.062410258 -0.020852761 0.024931915 -0.047012456
000060 fa ce 4d 3c 84 08 6c bb 74 7b 8d bb 7b a8 36 3c
       0.012561554 -0.0036015818 -0.0043176953 0.011148567
000070 31 16 7e bc 58 ee cb bc f9 99 05 bb 40 52 b2 bc
       -0.0155082205 -0.024893925 -0.0020385964 -0.021767735
000080 37 10 69 bd 18 0e f3 3c cc 6b cb 3a 25 38 c3 bc
       -0.05690023 0.029669806 0.0015519797 -0.023830483
000090 28 2f b3 3b 9c a8 c9 3b 29 1f 09 3b c7 59 23 3d
       0.005468268 0.006154133 0.0020923114 0.03988054
0000a0 a4 54 2f bd 9a 05 1c bc 19 cc 69 3c 49 86 8b bc
       -0.04280533 -0.00952282 0.014269852 -0.017031806
0000b0 50 7f a9 3b cd 1f 56 bc 62 11 a5 3d 0c 0e 8c bc
       0.0051726475 -0.013069105 0.08059956 -0.017096542
0000c0 87 e9 cf 3b 2c 04 69 bb 68 6d 6f bb 56 34 6a bc
       0.0063449773 -0.0035555465 -0.0036533717 -0.014294704
0000d0 d3 58 e2 bc ce dc 86 3a cd f0 f3 3c 89 b8 d6 3c
       -0.027630245 0.0010289194 0.029777909 0.02621104
0000e0 d5 bc 76 3b f7 f3 1e bd 85 37 9b bc 06 8c 8f bc
       0.0037649174 -0.03880688 -0.018947372 -0.017522823
0000f0 e9 3f 82 3a b9 2d 5e bb 65 24 7c 3c 45 86 85 3c
       0.000993726 -0.0033901765 0.0153895365 0.016299376
000100 e0 cd d4 bc 8f 6b a8 bc e2 70 c9 3b f3 11 e0 bb
       -0.025977075 -0.0205591 0.00614749 -0.006838077
000110 f2 ca 10 3b 5b 8c 85 bc cf 03 35 bc 24 66 25 bb
       0.002209362 -0.016302278 -0.011048271 -0.0025237883
000120 49 9c bc bc f2 1b 6e 3c 71 42 e8 3c 48 69 fc bc
       -0.023023741 0.01453303 0.028351994 -0.03081192
000130 c7 36 21 3d 62 55 e5 bc 03 5e 55 bd 92 db bb 3c
       0.03935888 -0.027994815 -0.05209161 0.022931848
000140 b1 eb 83 bc 07 59 df bc 04 d7 86 3c 26 fd 2a 3c
       -0.016103597 -0.027264131 0.01645995 0.010436332
000150 f8 b7 17 3c 4c 08 98 bb 4c 7d 67 3b e6 32 8b 3b
       0.00926017 -0.004639661 0.0035322485 0.004248011
000160 f1 fa 55 3d 11 71 18 bb e5 c0 9f 3b 1c 5d 48 39
       0.05224127 -0.0023260752 0.0048752897 0.00019108172
000170 56 95 14 3c 3c 0e 93 3d 67 08 9a bc 2d ca 88 3c
       0.009068808 0.07180449 -0.018802835 0.016697967
000180 da 65 44 bd 94 dc e9 bc 4f 13 3b bc 11 4c f4 bc
       -0.047948696 -0.028547563 -0.011418178 -0.029821428
000190 fe 8d fb bb 26 af 1d bc 6b 53 01 bc ab 22 15 bb
       -0.007676839 -0.009624278 -0.007893424 -0.002275626
0001a0 63 a4 84 bc b8 fa 8e 3b 3b 37 14 3d 69 6d 6b bd
       -0.016191667 0.004363384 0.036185484 -0.05747739
0001b0 9b 85 85 bc 1b ca 3a 3c e1 4c d6 ba 35 aa 89 bb
       -0.01629906 0.011400725 -0.0016349816 -0.0042011985
0001c0 40 d2 ad bc 5a d5 0b 3c cc ae 49 bc 21 44 7f ba
       -0.02121842 0.008534754 -0.012309741 -0.000973763
0001d0 e7 39 b4 bb 8c 1e c3 bc 07 ae e2 bb 99 34 82 bc
       -0.0055000666 -0.023818277 -0.0069177183 -0.015894221
0001e0 4b 15 2d ba 30 1d 37 ba 6d 9a 1e bd 8d e2 ba bc
       -0.0006602599 -0.0006985245 -0.03872149 -0.022813106
0001f0 91 d6 98 3c bc e3 ff 3c 0f 25 87 bc df d1 98 bc
       0.018657 0.031236522 -0.016497163 -0.018654762
000200 72 ad ef 3b b7 df b5 bb de 9f b5 bc 01 96 95 bb
       0.0073143775 -0.0055503505 -0.022170957 -0.004565001
000210 b6 49 81 bd 3a 63 c6 bc e5 64 8e 3c dc 95 08 3d
       -0.06312887 -0.024217237 0.017382095 0.033346042
000220 67 b2 06 bd 28 5c db bc eb e6 01 bc 57 27 06 bd
       -0.03288498 -0.026777342 -0.00792859 -0.03275236
000230 31 f1 c3 bb 7f f9 f7 3b b3 44 a7 bc a1 ff e6 bc
       -0.00597968 0.007567584 -0.0204185 -0.028198065
000240 b3 0b 39 3d 02 32 a6 bb d8 57 8e 3d 77 c3 f6 bc
       0.045177173 -0.0050718794 0.069503486 -0.030122502
000250 7f 7c 2e 3a a0 bd 0b 3c ca c8 1c bb fa 0e 81 3c
       0.00066561246 0.008529097 -0.002392339 0.015754212
000260 b4 ac 6a 3c 12 c6 ab bc 1e ed 80 bc be 3e 3f bd
       0.014323402 -0.02096847 -0.015738066 -0.046690695
000270 e2 35 4f 3c 1d fb 32 bc 5a d8 2c bc e0 85 87 3b
       0.012647124 -0.010924128 -0.010549629 0.004135832
000280 47 45 5b bd fe 80 a4 bc 7a 35 24 bd ad 70 5a 3c
       -0.053532865 -0.02008104 -0.04009006 0.013332528
000290 88 bc 24 bb 9f de 75 bc 54 79 d7 bc 29 e1 c1 bc
       -0.0025136787 -0.01500669 -0.026302971 -0.023666935
0002a0 18 d3 98 3b 06 91 a2 bb e9 6e 75 3c 48 c5 4f 3c
       0.004663836 -0.004961136 0.014980056 0.012681313
0002b0 ed 62 3f bc 37 71 c2 bc d9 49 4e bc 7c 22 a2 bc
       -0.011681301 -0.023735626 -0.012590849 -0.019791834
0002c0 13 29 0a bd 73 aa 5f bc 65 f8 95 3c f8 d7 e3 3c
       -0.033730578 -0.013651478 0.01830692 0.027812943
0002d0 47 0b 02 bd 7d ff e3 bb a9 6e 72 3a 29 71 ec bc
       -0.031749036 -0.006957947 0.0009248057 -0.028862553
0002e0 00 3b 37 3c 2f ee c6 3b 0c 6c ec bc 6f 76 5f 3b
       0.0111835 0.006070874 -0.028860115 0.0034097692
0002f0 aa 0a aa bc a0 34 02 bc b0 39 0c bb e6 f6 39 bd
       -0.020757038 -0.007947117 -0.002139669 -0.045401476
000300 12 7c 8e bb 91 8e fb 3b 0e 04 96 bb 1b 74 58 b9
       -0.0043482864 0.0076769073 -0.00457812 -0.00020642618
000310 2c f1 00 bd 43 36 25 bc a8 c2 a9 3a dc 49 0e 3d
       -0.03148 -0.010083738 0.0012951689 0.034738407
000320 2a 04 4a 3c 8e 94 70 bb 71 d0 83 bc d6 a5 3d bd
       0.012330094 -0.003670964 -0.016090604 -0.04630073
000330 7c d9 08 bc 60 22 9b bc 95 96 86 bc ab 95 7c bd
       -0.008352634 -0.01893729 -0.016429225 -0.061666172
000340 29 82 47 3c e0 7c 99 bc 00 54 86 ba ae 13 2e 3c
       0.012177029 -0.018736303 -0.0010248423 0.010624809
000350 19 84 f4 bb 88 e7 7d bc aa 58 2b 3c fe d7 35 bc
       -0.0074620363 -0.015497096 0.010458151 -0.01109886
000360 cf 67 11 3d 53 53 89 bc c1 6c 49 3b a3 5f 81 bb
       0.03549939 -0.016763365 0.0030734988 -0.0039481684
000370 8c aa 9c b9 59 1d 25 bd ae e5 99 3a 75 31 ed 3a
       -0.00029881706 -0.04031119 0.0011741424 0.0018096404
000380 e8 fc 8a 3c 9a de 87 bc 3f be 33 bc 43 ac b1 bc
       0.016966298 -0.016585637 -0.010970651 -0.021688586
000390 64 31 9a bc d2 27 00 bd 93 e7 18 bc 42 eb 4c bd
       -0.01882238 -0.031287976 -0.009332555 -0.050029047
0003a0 28 66 84 ba 1d c2 bd bc cf db 82 bd c5 59 1a bd
       -0.0010101246 -0.02316385 -0.063895814 -0.037683267
0003b0 4c af 10 3c ff cd d4 bc b2 48 76 b9 b1 d3 76 3a
       0.0088308565 -0.025977133 -0.0002348747 0.00094157
0003c0 71 ff db 3b 4d 42 d6 bc 6a dc 05 bc 63 40 7c bc
       0.0067138006 -0.026154662 -0.008170227 -0.01539621
0003d0 7d 5e 8b bc 74 85 1b 3d 79 1d 1c 3c 05 61 a2 bc
       -0.017012829 0.037969068 0.009528511 -0.019821653
0003e0 7b 08 45 bd 82 0f 83 bc f7 76 10 bd 93 1e 95 3c
       -0.04810379 -0.015998606 -0.035269704 0.018203055
0003f0 18 65 40 3c 30 b4 bf 3b df 48 ea 3c 7b 64 0a bd
       0.011742853 0.0058503374 0.0285992 -0.033787232

encoder.3.weight f4 [128, 256]
000000 f5 65 e7 3b 6b ba b0 ba c8 f6 9e 3d 1e 28 08 3d
       0.007061715 -0.0013483291 0.077619135 0.033241384
000010 7a b3 af bc f4 44 e4 3c 7e b6 8f bc 88 b4 f2 3c
       -0.021447886 0.02786491 -0.017543074 0.0296271
000020 75 76 20 bd 71 5b 45 3c 8c c8 43 bc 30 20 2d 3d
       -0.03917547 0.012045727 -0.01194967 0.042267025
000030 85 c2 30 3d 0d 87 c1 bc 86 20 5c bc ea 45 e5 3c
       0.04315426 -0.023623968 -0.013435489 0.02798744
000040 3d af 3c bb 1c d4 2c 3d 4b 56 39 3c 88 c8 bc bc
       -0.0028790974 0.04219447 0.011312078 -0.02304484
000050 86 45 6e 3d d6 3b 0b bd d3 64 07 3b ef 86 88 3b
       0.05817177 -0.03399261 0.002065946 0.004166476
000060 5f 06 10 bd 64 81 06 3d 83 f6 aa 3c 64 1c 83 3c
       -0.035162326 0.03283824 0.0208695 0.016004749
000070 9f 4d ba 3c 51 ed 80 3d 9c 04 e7 3b 88 b5 dc 3c
       0.02274209 0.062952645 0.00705011 0.02694203
000080 59 42 4b b9 cd c5 72 3d fc cd 4c bc a2 9f 56 3d
       -0.00019384305 0.05927067 -0.012500282 0.05239833
000090 fa 24 48 bd d2 1c 43 bd 53 0f a0 bb 4d ac 15 3d
       -0.04886339 -0.047634907 -0.0048846393 0.036541272
0000a0 a5 39 1f 3d 28 bf 3f 3d d7 39 a5 3d b6 39 63 3d
       0.038873333 0.04681316 0.08067673 0.05547496
0000b0 71 6c c9 bc 9d 6a 73 3d d6 02 9f 3d 62 a1 91 3c
       -0.024587842 0.059427846 0.07764213 0.017777149
0000c0 61 11 a0 bc 52 68 fb 3a a1 4f b1 3c 1b 8b 88 bc
       -0.019539537 0.001918087 0.021644415 -0.016667893
0000d0 9f 3e 29 bd 1d eb c8 3c 6b 09 1b bd fc eb 5d 3d
       -0.041319486 0.024526173 -0.03785078 0.05418013
0000e0 c0 40 8d bc 09 47 04 bb 7f 6d b2 3c 79 bd b5 3d
       -0.01724279 -0.0020183942 0.021780727 0.0887403
0000f0 15 4a 5a 3d da 53 2b bd 10 7f 76 3d 76 19 4e 3d
       0.053293306 -0.041828014 0.06017977 0.05031725
000100 f1 89 ed 3c 2e e9 67 bd cc 49 82 39 6c 35 03 3d
       0.02899644 -0.05661886 0.00024850515 0.03203337
000110 7c f9 c6 3c c1 9b d5 bc 02 99 1d 3b b6 09 8d bd
       0.024288885 -0.026075246 0.0024047499 -0.06886618
000120 5b ca d1 bc cb 55 0a bd 37 4b ac bc 21 0c 51 bc
       -0.025609186 -0.033773225 -0.021031959 -0.012759239
000130 0b c5 9a 3d 03 87 00 bd 0c a4 49 bd fe 12 5b 3c
       0.07557114 -0.031378757 -0.049228713 0.013371227
000140 80 cf 12 3c 72 ce 26 bc 3e 4e f9 3c 47 24 5d 3d
       0.008960605 -0.010181056 0.030432817 0.053989675
000150 75 a2 58 3d 95 82 85 bd 80 7d ab 3b 1b 05 69 3d
       0.052889306 -0.06519047 0.0052334666 0.056889635
000160 47 65 0c bd ef 82 e8 ba cb 6d 1a 3c 03 48 bc ba
       -0.034276273 -0.0017739217 0.009425591 -0.0014364723
000170 5c 7f 17 3d 2e 06 a8 bc 7a b9 8b bc a1 4b 69 3d
       0.036986694 -0.02051076 -0.017056216 0.05695689
000180 9a cf 78 3d 53 a2 03 3c da 42 33 bd 1e 16 02 bd
       0.06074486 0.008034307 -0.043764926 -0.031759374
000190 d9 db 46 3c fb e5 0d bd 6b 5b 02 3d 74 80 23 3d
       0.012137377 -0.034643155 0.031825464 0.039917424
0001a0 bb 4a 60 3d 3a eb 60 3d 8a 1d 36 3c a2 74 db 3b
       0.05475877 0.05491183 0.011115441 0.0066972533
0001b0 73 be 9c 3d 7c b6 e0 3c 51 ab c6 ba 28 70 40 3c
       0.07653513 0.027430765 -0.0015157257 0.01174549
0001c0 4a 0c 70 3c 54 2b b3 bc 00 ed a4 bc fd 3c fe bb
       0.014651367 -0.021871246 -0.020132542 -0.007758735
0001d0 36 f1 75 bd 6a da 3c bd d5 16 91 bd 8a 4a 8e bd
       -0.06004449 -0.046106733 -0.07084433 -0.06947811
0001e0 da 32 b4 3d 6b e8 89 3c b8 da 9e bd d0 41 04 3d
       0.08798762 0.016834458 -0.07756561 0.032289326
0001f0 c3 13 62 3d 60 d2 5a bd 96 16 80 3c 83 95 29 bd
       0.055194627 -0.053423285 0.01563577 -0.04140235
000200 b5 3c 2a bd 0c d3 62 3d fd 7f 5e bd 21 25 b0 3c
       -0.0415618 0.05537705 -0.054321278 0.02150208
000210 97 05 9b bc f7 88 89 3d bd 49 84 bd b2 e8 27 bd
       -0.018923564 0.06715577 -0.06459377 -0.0409934
000220 4b d7 5c 3c 55 c6 96 bc ec 26 09 3d c6 dc f1 bc
       0.013479064 -0.018405119 0.033484384 -0.029524218
000230 96 43 09 3d 36 33 71 bd 73 be 50 bd 5d 8d 3e 3d
       0.03351172 -0.05888673 -0.050962877 0.046521533
000240 d7 35 51 3d 7d 32 86 bd bc 07 0a bd 5e 25 51 bc
       0.051076736 -0.065525986 -0.033698782 -0.012765257
000250 26 c8 58 bd 2d 34 f9 3c cc dc 95 bd e0 d7 91 3c
       -0.05292525 0.030420387 -0.07317504 0.017803133
000260 04 1b 06 3d f8 f7 06 3c 49 c8 af 3c f3 06 88 3b
       0.032740608 0.008237831 0.021457808 0.004151219
000270 a5 d4 6c bd c2 d4 20 bd dc 66 85 3d dc 8e 64 bd
       -0.05781998 -0.0392654 0.065137595 -0.055800304
000280 87 29 36 bd 69 71 15 3c 9c 5a 54 3d f5 17 0b 3c
       -0.044473197 0.009121277 0.051844224 0.0084895985
000290 6a ea 52 3d 8c 84 75 3d cf a2 19 3d 78 ee 5e bc
       0.051493086 0.05994086 0.037508782 -0.01360666
0002a0 46 55 a5 3a 5d 20 77 bd 38 88 25 3d c4 57 23 bd
       0.0012613914 -0.0603336 0.04041311 -0.03987862
0002b0 80 89 d6 ba 75 22 06 3d 96 a3 9b bd 9e 0c 8c bd
       -0.0016367882 0.032747705 -0.07599561 -0.06838344
0002c0 97 6c 13 3c e9 c1 7c 3d 30 5f 6e 3d 49 8e 13 3d
       0.008998058 0.061708365 0.058196247 0.036024366
0002d0 03 00 2e bd 9e 0c a4 3b cb 4f 3e 3c df 18 fb bc
       -0.04248048 0.005006387 0.011615704 -0.030651508
0002e0 e3 1f 13 bd 44 50 c0 bc 60 a9 3c 3d c2 e0 28 3c
       -0.03591908 -0.023475774 0.046059966 0.010307493
0002f0 21 c6 c4 bc 22 36 73 3c 32 95 27 bd 72 ac ae 3b
       -0.024020256 0.014844449 -0.040913768 0.0053306157
000300 e5 b0 94 3d 02 f7 85 3d b0 cd c0 3b 60 d4 07 bd
       0.072603025 0.065412536 0.005883895 -0.03316152
000310 c4 4a 0c bb 68 90 a9 3c 8a d0 92 3c f8 93 f6 3c
       -0.0021406868 0.020698741 0.017921705 0.030099854
000320 f6 2f 55 bd 34 7f dc bc 4b d5 00 bd 4a 16 1b bc
       -0.052047692 -0.026916124 -0.031453412 -0.009465763
000330 dc 3b 25 bc 0d bf c3 bc af a5 45 bc 4a d6 c0 bb
       -0.010085072 -0.023894811 -0.012063428 -0.0058849202
000340 11 2b 16 bd 79 ca c8 bd cb d7 22 bd 01 26 b8 3b
       -0.036662165 -0.098042436 -0.039756577 0.005619765
000350 b3 1a 02 bd 24 18 6c 3d d7 82 d2 3c 20 da b1 3c
       -0.031763744 0.05764021 0.025697155 0.021710455
000360 36 ba 0c bd 02 80 55 bd ff 55 26 bb d1 bc 4b 3d
       -0.034357272 -0.05212403 -0.0025380848 0.049740616
000370 28 f4 5b bd 23 e8 94 bb 68 44 ac 3d 8f 16 a9 3c
       -0.053699642 -0.0045442744 0.08411485 0.02064064
000380 23 0e 73 bb 5e aa 74 bd 0e 35 3d bd 9f c4 94 bb
       -0.0037087284 -0.059732787 -0.046193175 -0.0045400406
000390 15 8d 2f 3d f6 16 83 bd 7a 07 f4 3b c1 39 05 bd
       0.042859156 -0.06400864 0.0074471803 -0.03252578
0003a0 db 0b c4 bc aa fb f6 3c 6c 58 af 3c 7f b5 05 3d
       -0.023931434 0.0301493 0.021404468 0.03264379
0003b0 c7 be 18 3d 7d 49 0a bd 1f c1 81 3d bf b9 8d bd
       0.037291314 -0.03376149 0.06335663 -0.06920194
0003c0 ea 3a 5c bd f4 f3 bf bc d8 cf 88 3d e6 1d 8e 3c
       -0.053767122 -0.023431756 0.06680268 0.017348241
0003d0 7c 2d 98 3d 2e 00 4c bd 63 98 0f bd 95 42 40 bd
       0.074305505 -0.04980486 -0.035057437 -0.046938498
0003e0 c6 08 66 3d e4 a1 4b 3d 1b a0 e2 bc 3a eb 4d 3d
       0.05616071 0.049714938 -0.027664235 0.050273158
0003f0 73 ea 8e 3d d3 0d 33 3d be ec 0b 3d e3 1c ec 3a
       0.069783114 0.043714356 0.03416132 0.001801398

encoder.3.bias f4 [128]
000000 3d 4a 4f 3d d8 26 68 bb c4 0a 71 bc 24 8a 05 bd
       0.05060791 -0.0035423543 -0.014712039 -0.032602444
000010 45 ff 8d bd 24 78 19 3d a6 d0 ea 3c 96 41 a4 bc
       -0.069334544 0.03746809 0.028663944 -0.020050805
000020 c6 df 08 3d 62 03 ad bb 45 3f 6f bc 46 06 5e 3c
       0.033416532 -0.0052799443 -0.014602487 0.0135513
000030 af 54 a8 3c 2d b7 6e bd c6 2f 4d bd c0 1a df 3c
       0.020548193 -0.05828016 -0.05009439 0.027234435
000040 a5 f8 ec bc 85 83 e3 3b b2 41 b1 bc 03 fd 71 3c
       -0.028927157 0.0069431686 -0.021637771 0.014769795
000050 7b 0d 9f bc 17 64 35 bd 64 6c 2f 3c 9f d4 e3 bb
       -0.019415608 -0.044284906 0.010706995 -0.0069528366
000060 39 e6 4e 3d a6 f6 c8 bc c5 3d 24 bd 44 db 1e 3c
       0.050512526 -0.024531674 -0.04009797 0.009695832
000070 a8 d7 f9 bb bb f3 26 3c f8 e1 a6 bc 25 fd 10 3d
       -0.007624585 0.010189946 -0.020371422 0.035397667
000080 c5 39 e4 3c 49 61 8d bc e8 29 3b 3d da 2e 19 3d
       0.027859578 -0.017258303 0.04569426 0.037398197
000090 c7 0a c2 bc 5a cb b7 bd 3c 0b 45 bd e5 13 37 bd
       -0.02368678 -0.08974333 -0.048106417 -0.044696707
0000a0 c6 6e 5f 3d 4f 55 4b bc 78 94 37 3d d2 1a 07 3d
       0.054549 -0.012410476 0.044819325 0.032984562
0000b0 62 5d c5 3d 56 de 86 3c 6d ec 2f bd 3a ad f1 bc
       0.09636952 0.01646344 -0.042950083 -0.029501546
0000c0 2d a5 2f 3c 55 e9 ad bc 0e 78 e6 bc d2 37 2f 3d
       0.010720533 -0.021229425 -0.028133418 0.042777844
0000d0 2e 76 0c 3d f0 36 d8 3b 42 f0 a0 3b 1d f9 22 3c
       0.034292392 0.006598346 0.0049114535 0.009947089
0000e0 11 b3 cb 3c 95 d6 54 3c b4 93 c7 bc c1 08 c5 3c
       0.024865659 0.0129906135 -0.024362423 0.024052026
0000f0 17 e6 94 3c 21 ed 37 3c f4 64 8e 3c 1c 73 dd bc
       0.018176122 0.0112259695 0.017382123 -0.027032427
000100 9b dc ec bc a8 75 2b bd f4 3d 1e bd 5f 2b f5 3c
       -0.028913787 -0.041860253 -0.0386333 0.029927908
000110 ed 04 1f bd 25 41 7a 3d 97 8d ca 3b 73 21 5b 3d
       -0.038823057 0.061097283 0.0061814296 0.053498697
000120 39 5e 0b bd 3a f9 88 bc 70 82 5b bd 68 84 85 3c
       -0.034025405 -0.016720403 -0.05359119 0.016298488
000130 8e 39 9b 3d 33 96 1d 3d ff 7e 49 bd 84 0c fa 3c
       0.07579337 0.03847332 -0.04919338 0.030523546
000140 c4 e8 0c 3d 12 14 c7 3c f1 a5 b0 3c d5 87 8d bb
       0.03440167 0.024301562 0.021563502 -0.004319171
000150 ad 67 85 3d c9 37 22 3d aa a2 ba 39 92 fc 18 bd
       0.06513915 0.039603982 0.0003559788 -0.037350245
000160 97 db cf bc bf 77 80 3d c9 a4 7a 3c 3e dd 3d 3d
       -0.025373263 0.0627284 0.015298077 0.04635357
000170 06 28 75 bc 41 8e 8f 3d 74 3b 55 3d 0a 30 9b 3d
       -0.014963156 0.07009555 0.052058652 0.07577522
000180 ac 82 4d 3d f5 9a d7 bc 7e a2 88 3c 78 d2 05 bc
       0.050173447 -0.026319006 0.016679045 -0.008167855
000190 c4 61 7b bd 3c 42 93 bc 43 4f a1 bc 4e ea 68 3b
       -0.061372533 -0.017975919 -0.019691115 0.0035540047
0001a0 4d 1d 26 bc 56 b8 94 bc 6f 62 06 3d 2b 1e d4 3b
       -0.010138822 -0.018154304 0.032808717 0.006473323
0001b0 ba c9 cf bc dd 3a 5c 3d a8 80 3b ba 4b 07 56 bd
       -0.025364745 0.053767074 -0.0007152655 -0.05225305
0001c0 b0 0d 6b bd ed 21 01 bd 90 d4 3a bd 2d 39 22 3d
       -0.0573861 -0.031526495 -0.04561287 0.03960531
0001d0 41 4a 35 3d 1e 17 a2 3c b5 d4 01 bc 2b a0 73 bd
       0.044260267 0.019786414 -0.007924248 -0.05947892
0001e0 3f 7f c1 bc 4e c0 bf 3c d6 db db bc e0 e2 91 3c
       -0.023620246 0.023407128 -0.026838224 0.017808378
0001f0 5a 21 96 bb 94 7f cd bb e5 a7 ab 3c e5 ba a8 bc
       -0.0045816125 -0.006271312 0.020954082 -0.02059693

encoder.4.weight f4 [128]
000000 07 cf 81 3f 76 84 81 3f ce bd 7c 3f 98 a7 75 3f
       1.0141305 1.0118549 0.9872712 0.9595885
000010 94 70 7e 3f 0d bb 80 3f a9 8a 81 3f 61 17 72 3f
       0.9939053 1.0057083 1.0120441 0.94566923
000020 84 fa 77 3f 9b 00 7f 3f 4e 87 82 3f 42 f5 77 3f
       0.9686663 0.996103 1.0197542 0.9685861
000030 ce 5d 79 3f 74 8d 69 3f 66 04 79 3f 80 96 75 3f
       0.9740876 0.91231465 0.97272336 0.9593277
000040 f0 0c 74 3f 4d a6 78 3f a7 d3 80 3f 6d 96 7b 3f
       0.9533224 0.97128755 1.0064591 0.98276407
000050 fe d0 7a 3f 56 bd 81 3f 96 d6 76 3f f3 bb 84 3f
       0.97975147 1.0135906 0.9642118 1.0369858
000060 a1 eb 82 3f 8d 94 78 3f d8 f2 83 3f f2 e8 7e 3f
       1.0228158 0.9710167 1.0308485 0.99574196
000070 de 39 86 3f db 51 80 3f c2 96 7e 3f d4 34 7c 3f
       1.048641 1.002498 0.9944879 0.9851811
000080 45 81 82 3f 18 e6 82 3f e4 9d 84 3f 8d de 7a 3f
       1.01957 1.0226469 1.0360684 0.97995836
000090 04 3e 7a 3f 89 3d 76 3f b7 23 7e 3f f6 c9 80 3f
       0.9775088 0.96187645 0.99273247 1.0061634
0000a0 8f 02 77 3f 15 e2 90 3f 16 05 7b 3f 4d e2 7e 3f
       0.9648828 1.1318995 0.98054636 0.9956406
0000b0 e7 18 96 3f d1 bf 78 3f b8 e4 83 3f 8b 29 7f 3f
       1.172635 0.9716769 1.0304174 0.99672765
0000c0 56 01 78 3f 18 5c 80 3f cf e8 82 3f 6f 55 7a 3f
       0.9687704 1.0028105 1.0227298 0.9778661
0000d0 4c 9a 80 3f 8f 1c 7b 3f c0 17 85 3f 8f 5b 80 3f
       1.0047088 0.9809045 1.0397873 1.0027941
0000e0 b5 1b 7c 3f 8c b7 7e 3f 07 76 7c 3f f7 45 8a 3f
       0.9847978 0.9949882 0.98617595 1.0802602
0000f0 a3 3f 7d 3f 2c 76 78 3f 20 51 82 3f 20 5d 75 3f
       0.98925227 0.97055316 1.0181007 0.9584522
000100 cc b0 7e 3f ea d7 8a 3f 80 8d 7d 3f 76 9c 89 3f
       0.9948852 1.0847142 0.99044037 1.0750873
000110 32 1a 82 3f 6e 10 7c 3f 62 99 7a 3f bc fa 7f 3f
       1.0164244 0.9846257 0.97890294 0.99991965
000120 c9 38 7a 3f 9f 02 7b 3f fa 36 73 3f 82 39 80 3f
       0.977429 0.98050874 0.9500576 1.001755
000130 1f 7a 80 3f 00 36 80 3f 1c 7b 7c 3f 9b 04 82 3f
       1.0037268 1.001648 0.9862535 1.0157655
000140 00 c8 81 3f cd 7f 7b 3f ef 6c 83 3f 0e a8 80 3f
       1.013916 0.98241884 1.0267619 1.0051286
000150 f6 cd 84 3f ea 30 82 3f 02 27 7e 3f 98 11 79 3f
       1.0375354 1.0171177 0.9927827 0.9729247
000160 ea 34 9a 3f 97 9e 80 3f 5f 8c 84 3f 0b 32 7b 3f
       1.2047398 1.0048398 1.0355338 0.98123235
000170 82 90 78 3f 43 f7 85 3f 87 f9 7f 3f 50 9e 88 3f
       0.970955 1.0466083 0.99990124 1.0673313
000180 ce b8 81 3f 34 2b 7c 3f 89 b3 7f 3f 6f f4 80 3f
       1.0134523 0.9850342 0.99883324 1.0074595
000190 a8 ad 7f 3f 2b 85 7d 3f cd 18 7e 3f 32 c8 7a 3f
       0.99874353 0.99031323 0.99256593 0.97961724
0001a0 24 a0 80 3f 33 2f 7b 3f 4a be 83 3f 01 cc 7f 3f
       1.0048871 0.98118895 1.0292447 0.9992066
0001b0 86 e6 74 3f 51 e7 7a 3f 39 c8 7e 3f af df 7f 3f
       0.9566425 0.9800921 0.99524266 0.9995069
0001c0 b7 0d 78 3f be c0 75 3f 7f 22 75 3f 7d 0a 86 3f
       0.9689593 0.95997226 0.9575576 1.0471951
0001d0 d8 6c 80 3f aa 4a 7d 3f 4a 83 7e 3f e5 44 7a 3f
       1.0033216 0.98942053 0.9941908 0.97761375
0001e0 2b 58 80 3f 4f be 82 3f c4 20 7f 3f 55 ef 7b 3f
       1.0026907 1.0214328 0.9965937 0.98412067
0001f0 8f b3 7e 3f bc f7 77 3f 8c 3e 7d 3f 62 4c 85 3f
       0.99492735 0.9686239 0.98923564 1.0413935

encoder.4.bias f4 [128]
000000 0f 2e b6 3b 67 15 55 3d ac 99 06 3d fa b8 bd 3c
       0.00555969 0.052022364 0.032861397 0.023159493
000010 85 9b 07 bd ea 33 38 bd 98 ad be bc 25 b1 44 bd
       -0.0331073 -0.044971384 -0.023276135 -0.0480205
000020 69 9f d6 bc af f0 a8 bc 2c d4 23 3c a2 0e 5f bd
       -0.02619906 -0.02062258 0.009999316 -0.054457314
000030 c6 a4 2d 3c 46 26 6d bc 7c cb 5a bc dc ae 62 bd
       0.010598367 -0.014474457 -0.0133541785 -0.05534254
000040 62 c2 f2 bc 6c 62 45 bd 46 8a b0 bc 2e 98 eb bc
       -0.029633705 -0.048189566 -0.021550309 -0.028759088
000050 89 73 9c ba fc cc c9 ba 80 e5 aa bc c3 af 35 3d
       -0.0011936288 -0.0015396173 -0.020861387 0.044357073
000060 76 3a 4d bc b4 1f 17 bd 41 33 71 bd 8f 6e 14 3c
       -0.012526145 -0.03689547 -0.05888677 0.009059562
000070 4e ee 90 3c 47 71 2d 3d 72 ec 24 bc f0 9b 9f bc
       0.017691758 0.042344358 -0.010066139 -0.019483536
000080 55 a1 d1 ba 58 d1 a7 3c 9a fa d6 3b 39 a1 b8 bc
       -0.0015993515 0.020485565 0.0065606358 -0.022537814
000090 fb d7 8c bc ad d4 1c bd 13 5a 99 b9 a0 35 e7 3a
       -0.017192831 -0.03828876 -0.00029249545 0.0017639883
0000a0 a8 d7 6d bc 3d 6e 7e bc 31 ab e4 3c 94 16 d7 bb
       -0.0145167485 -0.015529213 0.027913662 -0.006563971
0000b0 58 ab c6 3d b6 7e 9f bc f0 10 5f 3c 34 56 fd bb
       0.0970065 -0.0194696 0.013614878 -0.0077312235
0000c0 68 e6 a1 bc a2 e8 ac bb f9 10 96 3b 13 f2 e0 bb
       -0.019763187 -0.0052767554 0.00457966 -0.006864795
0000d0 a9 f1 5a bc c3 83 ce bc c4 19 08 3d 9d fc e1 bb
       -0.01336328 -0.025209313 0.033227697 -0.006896569
0000e0 4c 9e a3 bc f4 5e c2 3c bb f3 4c bd f4 7d 2c 3c
       -0.019972943 0.023726918 -0.050037127 0.010528076
0000f0 20 69 89 bb 22 c7 3d bd 9e 52 b1 bc b9 69 74 bd
       -0.00419344 -0.046332486 -0.02164584 -0.059671137
000100 b5 43 06 bc 5c 91 36 3d 20 2e dd 3b 9d 21 6f 3d
       -0.008194854 0.04457222 0.0067498833 0.058381665
000110 41 24 e5 bb f0 61 b7 39 7b 77 4c 3c 26 da b1 3c
       -0.006992847 0.0003497745 0.012479658 0.021710467
000120 20 06 12 bd 0b b5 92 bc b8 4a 69 bb 2c 37 21 bc
       -0.035650373 -0.017908594 -0.0035597514 -0.009839814
000130 4f df ba 3c 1b 85 09 bd c4 fe f7 bc 88 a9 30 3d
       0.02281156 -0.033574205 -0.030272849 0.043130428
000140 fc 3d da bc 98 d7 a8 bc e2 04 b1 bc db 97 40 bd
       -0.026640885 -0.020610616 -0.021608774 -0.04701982
000150 57 10 fb 3c 97 55 30 3d d1 18 2b bd 83 cf 16 bd
       0.03064744 0.043050375 -0.041771714 -0.036818992
000160 29 ed a2 3d 32 6f 57 3c 19 a2 9d bc c6 d4 42 3b
       0.07955391 0.01314907 -0.019242333 0.0029728874
000170 6a 0c 78 bc 2b a5 a2 3d dd 06 45 3b 11 b1 bb 3c
       -0.0151396785 0.079416595 0.0030063905 0.02291158
000180 d3 9b 04 bc 11 3c 37 bd b2 60 46 bb 55 39 8d bd
       -0.008093792 -0.04473502 -0.0030270037 -0.06895701
000190 0c f3 de bb db a8 b5 3a 66 59 d6 bc 05 d3 50 bc
       -0.006803876 0.0013859527 -0.026165675 -0.0127456235
0001a0 1c 72 d1 bc cc 1e 7c bd 62 f2 c7 3c 94 82 11 bc
       -0.025567107 -0.061552808 0.02440757 -0.00888123
0001b0 eb 61 e8 bc ad 4c 08 bd 97 7c ac 3c 71 9d 5b bb
       -0.028367003 -0.03327625 0.021055503 -0.003351059
0001c0 07 54 ea bb da a7 31 bd b7 f9 6a bd 19 ee a7 3d
       -0.00715113 -0.043372966 -0.057367053 0.081997104
0001d0 17 11 cf 3b 1a f8 c1 3b 88 36 c1 bb 6c 7e 20 bc
       0.006319176 0.0059194686 -0.005896393 -0.009795766
0001e0 4e 5a 1c bd ba bd 7c 3c 88 74 5d 3c 5d 4d 34 3b
       -0.03817206 0.015426094 0.013516553 0.0027511932
0001f0 2a b5 b6 3c 51 2b 92 bc 06 b0 88 3c e8 85 4f bd
       0.022303183 -0.01784292 0.016685497 -0.050664812
