Results/FCNN_encoder_confounder_free_plots/trained_model_fold2.pth (torch, 600778 bytes, 34 tensors)

encoder.0.weight f4 [256, 371]
-0.04638269 -0.08931909 0.02572605 0.04454231 0.026342664 0.05431446 -0.027133776 -0.07283828
-0.14693463 -0.026765134 -0.018048283 -0.018016146 0.013218039 -0.11621262 -0.024453672 -0.0117470175
-0.06653182 0.011774377 -0.05685497 0.010262989 0.027032454 -0.021181114 -0.027322719 -0.037925236
-0.020750359 -0.012105212 -0.06719263 -0.048279077 -0.03502775 0.01682771 0.0055928654 -0.006727189
0.0017637499 0.023454588 -0.028753238 0.054300938 0.036283124 -0.024875198 0.020734698 -0.0016682119
-0.024523374 -0.032844033 0.07144865 0.015238794 -0.036297016 -0.022823129 0.04562546 -0.031244196
0.043220922 -0.044122882 0.0027335389 -0.03976762 0.032785248 -0.009636685 -0.09952746 -0.026538463
0.06316539 -0.041176543 0.02663101 -0.0053305025 0.07550454 0.018354531 0.043014128 0.07290846
0.03089584 -0.037426442 -0.040432584 -0.0031772899 0.007870856 -0.002690542 0.012293648 0.003280174
-0.018332368 0.032466725 0.0118650785 -0.025623942 -0.0070902877 -0.08294534 -0.08076227 -0.007890085
0.004344413 -0.047856703 0.028480973 0.012611671 -0.05401577 -0.057806753 -0.004840097 -0.009524524
-0.026490748 -0.098886974 0.03750161 0.0332466 -0.059645984 -0.05953002 0.08066921 0.0074794632
0.037374813 0.016489519 0.0011812241 -0.039441623 0.07115793 -0.057817105 0.017666195 -0.040947355
-0.0458715 0.031595748 0.009543675 -0.027473934 0.061578207 -0.010520957 0.046162743 -0.034211557
0.041931808 -0.00012439475 -0.024624031 0.07011446 0.023413578 0.029230246 -0.0010690326 0.013057669
0.080029 -0.03624751 0.05790322 0.02513866 0.032698497 -0.007444662 -0.052923977 -0.04578668
0.0023648331 -0.025784414 0.06002092 -0.06459602 -0.049156345 -0.06586172 -0.0046729543 -0.025926134
0.024317801 0.023354644 -0.013300557 0.0061499355 0.14918502 -0.028665569 0.024001975 -0.007164268
0.027995137 0.03574597 0.008676609 0.023195393 0.034691814 -0.03420523 -0.06535319 0.005328095
-0.045292508 -0.030807236 -0.06802851 -0.048247013 -0.017398078 0.01299641 0.05083472 -0.005586414
-0.028167427 -0.007896248 0.021067752 -0.03315633 0.03241075 0.024548516 -0.0034017256 0.025052112
0.03159106 0.11502686 -0.088767014 -0.019221054 -0.064214535 0.01060596 -0.15979756 -0.016530253
0.04983534 -0.034469668 -0.031843822 -0.05183429 -0.028978668 -0.01842539 -0.014325695 0.053239387
0.066881455 -0.059582707 0.020242346 -0.02973764 -0.002911328 -0.037088692 -0.07055531 -0.08698777
-0.07444125 -0.048786283 0.05835329 0.035140675 -0.088351786 -0.07435862 0.064353794 0.0331666
-0.05551162 0.07058758 0.020086354 -0.023356441 0.047883358 -0.034578387 0.05012516 -0.025171906
-0.044654127 0.027158326 0.0131357545 0.018838584 -0.018121734 0.026465546 -0.02179168 -0.048538852
-0.019333944 0.044146083 0.022634318 0.010107632 0.008366457 -0.03063387 0.01831026 0.0022711807
0.006652147 0.037709873 -0.044580076 0.008953656 0.009582366 -0.026063884 -0.06636415 -0.07490409
0.041855246 -0.059009787 -0.00019813285 -0.075671695 0.02337462 -0.019349828 -0.0065567633 -0.04505916
0.01406528 -0.04352701 -0.063166775 0.04977694 -0.04494853 -0.032616183 -0.0046191746 -0.032369006
0.04185596 -0.024010425 -0.023914715 0.02468893 -0.01846382 0.0033913972 0.026937308 0.06484005
00000000: c7fb 3dbd edec b6bd 70bf d23c ff71 363d
00000010: 92cc d73c d778 5e3d a747 debc 3c2c 95bd
00000020: 0876 16be 8e42 dbbc fed9 93bc 9996 93bc
00000030: 7990 583c e200 eebd 1153 c8bc 9076 40bc
00000040: d641 88bd 51e9 403c c2e0 68bd 1926 283c
00000050: 2a73 dd3c 0484 adbc e5d3 dfbc 7e57 1bbd
00000060: a8fc a9bc f054 46bc 4a9c 89bd 48c0 45bd
00000070: 4279 0fbd 44da 893c 5b44 b73b c06f dcbb
00000080: a02d e73a d623 c03c e98b ebbc a96a 5e3d
00000090: 9d9d 143d 12c7 cbbc d0db a93c e7a7 daba
000000a0: 3ee5 c8bc 7787 06bd ab53 923d 22ac 793c
000000b0: 2eac 14bd 92f7 babc c3e1 3a3d d4f3 ffbc
000000c0: 6c08 313d 32ba 34bd 2c25 333b 5fe3 22bd
000000d0: d349 063d 30e3 1dbc 0ed5 cbbd 3167 d9bc
000000e0: db5c 813d bca8 28bd 4729 da3c 7fab aebb
000000f0: 20a2 9a3d 3e5c 963c 952f 303d 0851 953d
00000100: 4619 fd3c 784c 19bd a39c 25bd 143a 50bb
00000110: c3f4 003c ce53 30bb 4c6b 493c 30f8 563b
00000120: c32d 96bc d4fb 043d bf65 423c 4de9 d1bc
00000130: a555 e8bb 3fdf a9bd b066 a5bd 6a45 01bc
00000140: 945b 8e3b 6405 44bd ee50 e93c 2fa1 4e3c
00000150: a43f 5dbd c6c6 6cbd ad99 9ebb c00c 1cbc
00000160: 2003 d9bc 4185 cabd 4a9b 193d 962d 083d
00000170: 594f 74bd c0d5 73bd e635 a53d 4916 f53b
00000180: 5516 193d 0715 873c 4ed3 9a3a 8a8d 21bd
00000190: 40bb 913d a1d1 6cbd b2b8 903c 6ab8 27bd
000001a0: c1e3 3bbd 8b6a 013d 135d 1c3c 0411 e1bc
000001b0: 6e39 7c3d 1860 2cbc 2515 3d3d 6b21 0cbd
000001c0: b0c0 2b3d f66f 02b9 56b8 c9bc 2c98 8f3d
000001d0: d5cd bf3c 4574 ef3c c81e 8cba d5ef 553c
000001e0: 3fe6 a33d 4578 14bd ed2b 6d3d 97ef cd3c
000001f0: dcee 053d 5af2 f3bb d0c6 58bd d08a 3bbd
00000200: 51fb 1a3b d639 d3bc 7fd8 753d eb4a 84bd
00000210: 2a58 49bd 82e2 86bd 951f 99bb 0b63 d4bc
00000220: 2036 c73c 3d52 bf3c 94ea 59bc 6685 c93b
00000230: f5c3 183e 0ed4 eabc ca9f c43c 3cc2 eabb
00000240: 0f56 e53c 5e6a 123d 5628 0e3c 4404 be3c
00000250: 0119 0e3d c91a 0cbd e5d7 85bd 4d97 ae3b
00000260: a384 39bd 755f fcbc 8852 8bbd a99e 45bd
00000270: 6a86 8ebc e5ee 543c 1138 503d 3d0e b7bb
00000280: 60bf e6bc 445f 01bc 4796 ac3c efce 07bd
00000290: 22c1 043d f819 c93c 7cef 5ebb 163a cd3c
000002a0: a165 013d 3493 eb3d 7bcb b5bd 7975 9dbc
000002b0: e982 83bd 9fc4 2d3c f9a1 23be 746a 87bc
000002c0: 2420 4c3d 1130 0dbd ab6e 02bd 3150 54bd
000002d0: ac64 edbc d8f0 96bc 52b6 6abc 8b11 5a3d
000002e0: 25f9 883d ff0c 74bd 47d3 a53c 5a9c f3bc
000002f0: fbcb 3ebb 50ea 17bd 4d7f 90bd a526 b2bd
00000300: a774 98bd 20d4 47bd dc03 6f3d abef 0f3d
00000310: c8f1 b4bd 5549 98bd eccb 833d b3d9 073d
00000320: 2760 63bd 3990 903d 238c a43c 0256 bfbc
00000330: 5721 443d 11a2 0dbd 0a50 4d3d 5035 cebc
00000340: 3fe7 36bd 237b de3c 5937 573c 6053 9a3c
00000350: 0874 94bc 46ce d83c 7784 b2bc add0 46bd
00000360: 3862 9ebc 86d2 343d 9b6b b93c 7b9a 253c
00000370: 7713 093c e2f3 fabc 66ff 953c 17d8 143b
00000380: 41fa d93b ab75 1a3d 9999 36bd 5bb2 123c
00000390: 5bff 1c3c ed83 d5bc ede9 87bd 5167 99bd
000003a0: 6870 2b3d 3fb4 71bd e2c1 4fb9 c3f9 9abd
000003b0: 227c bf3c 8883 9ebc 1eda d6bb f48f 38bd
000003c0: 0f72 663c 6149 32bd 955d 81bd e8e2 4b3d
000003d0: f31b 38bd 8c98 05bd 725c 97bb 5d95 04bd
000003e0: 2871 2b3d 83b1 c4bc cbe8 c3bc 7040 ca3c
000003f0: 7041 97bc 3442 5e3b a1ab dc3c dcca 843d

encoder.0.bias f4 [256]
0.051555812 0.05557788 0.06431533 0.009042068 0.013930274 -0.030085986 0.021228494 0.032235958
0.048717152 0.10168959 -0.029358381 -0.035587385 0.0075366334 -0.07319369 -0.06884944 -0.049001757
-0.030371664 0.003636642 -0.037591625 0.017215976 -0.03722431 0.009904359 0.04934385 0.040949594
-0.015651036 -0.0413082 0.09063148 -0.06891769 -0.015494594 0.03769777 -0.011392915 0.03275691
0.052535765 0.018870616 0.016451344 0.08493551 -0.0107415235 -0.05946122 -0.04456198 -0.052332193
-0.033558916 0.011278991 0.02644986 -0.04637566 0.015123496 0.0027577453 -0.0397316 -0.0139333
0.036596064 0.04677137 0.02793361 0.05138962 0.053197663 0.0011690701 0.015383346 0.058119558
0.047254946 0.02214237 0.06346073 0.004635267 0.029882114 0.029361809 0.027527757 0.0010357198
-0.0028296537 -0.019432988 0.07800004 -0.010098218 -0.064277336 0.010297789 -0.0076063997 -0.043642193
0.001947509 0.028769068 0.0009526897 0.016178591 -0.04248822 0.0033614952 -0.017292392 -0.01567379
0.008705753 -0.040891454 -0.05374133 0.033852573 -0.030603828 -0.063656844 -0.018237587 -0.052519444
-0.07108452 0.03305696 0.0019427526 -0.0016498462 0.06335174 0.026782785 0.02976836 -0.080455855
0.012985729 0.059887502 -0.047278795 0.07156571 -0.0122121675 0.06812171 0.012460308 -0.008064104
0.092242435 0.054536223 -0.045615453 -0.019577863 0.014403517 0.05047653 0.031738147 1.6247941e-05
0.04036863 -0.060532637 -0.024498364 0.040841173 -0.05153146 0.012355689 0.0113764275 -0.006975581
-0.07085138 -0.03483851 -0.07005872 -0.0003421432 -0.010729159 -0.03198508 -0.056627296 -0.0040849103
0.010721141 -0.04595415 0.060452595 0.004482129 0.0027148805 -0.045925185 -0.007188838 0.011383655
-0.12554732 -0.032106645 0.054072898 0.048731454 0.016412053 0.020924263 -0.013505524 0.010213283
-0.023284383 0.048505373 -0.023647472 0.10308038 -0.007686146 -0.06491977 0.09135951 -0.046514936
-0.00092070946 0.011070991 0.020644687 -0.043423697 0.03975312 -0.035435785 -0.052137733 0.04589311
-0.07527513 -0.034570467 -0.0030962501 0.08263813 0.06371693 0.021330362 -0.061906934 0.020943824
-0.031764355 -0.043680225 -0.019695207 -0.034656495 0.022484053 -0.086193055 -0.054706853 -0.046733104
0.056058325 -0.05959151 -0.022321042 -0.04701356 -0.06528137 -0.056306876 0.06550491 0.09032898
0.0133941015 -0.114506386 -0.050159443 -0.013483065 -0.06285061 -0.024917236 0.029586405 -0.031707764
0.044302907 0.038792867 -0.0046409993 0.022642735 -0.057794772 -0.060757574 0.0054130717 0.037573468
0.032459706 0.009183045 0.034057006 0.10078388 0.04484199 -0.00843061 -0.005672406 -0.019533167
0.10274459 -0.0833942 -0.023907153 0.0036791775 -0.02587 0.01773836 -0.07392269 0.057158712
0.018118069 -0.044694647 0.03067061 -0.046812817 -0.023956697 -0.051505446 -0.034764823 -0.032406945
-0.040337842 -0.03996944 0.003729666 -0.017979069 0.0031326227 -0.07249939 -0.011120254 -0.061206177
0.042593155 -0.028130012 -0.056121208 0.034976497 -0.10396731 -0.024326177 0.04245173 0.017727701
0.04073076 -0.040694892 -0.03341113 -0.024141047 -0.025800334 -0.009031234 0.013436793 -0.01610169
-0.0026162136 0.037732277 -0.026636492 0.048921365 0.01225153 -0.014014905 -0.053516917 -0.046599895
00000000: 302c 533d a2a5 633d c1b7 833d 2f25 143c
00000010: ce3b 643c e376 f6bc 61e7 ad3c da09 043d
00000020: a38b 473d a242 d03d fd80 f0bc 14c4 11bd
00000030: ddf5 f63b 93e6 95bd ef00 8dbd 11b6 48bd
00000040: ffcd f8bc ba54 6e3b adf9 19bd 8508 8d3c
00000050: 8578 18bd e445 223c c71c 4a3d c3ba 273d
00000060: 9a36 80bc ca32 29bd ff9c b93d b824 8dbd
00000070: 0add 7dbc fa68 1a3d 59a9 3abc 1c2c 063d
00000080: be2f 573d 8d96 9a3c f8c4 863c abf2 ad3d
00000090: 37fd 2fbc 9c8d 73bd 9f86 36bd 485a 56bd
000000a0: 1375 09bd 84cb 383c 60ad d83c 67f4 3dbd
000000b0: 8ac8 773c 4abb 343b 9abd 22bd 7f48 64bc
000000c0: c1e5 153d 5693 3f3d 07d5 e43c ec7d 523d
000000d0: cbe5 593d 7c3b 993a 6e0a 7c3c c60e 6e3d
000000e0: 678e 413d ea63 b53c b3f7 813d 70e3 973b
000000f0: 56cb f43c 2d88 f03c e481 e13c fdc0 873a
00000100: b671 39bb ee31 9fbc 7cbe 9f3d ff72 25bc
00000110: d6a3 83bd 0fb8 283c 1b3f f9bb 28c2 32bd
00000120: 8f43 ff3a 1cad eb3c ecbd 793a f788 843c
00000130: 2108 2ebd 884c 5c3b c6a8 8dbc 5266 80bc
00000140: 93a2 0e3c cc7d 27bd de1f 5cbd ffa8 0a3d
00000150: e1b4 fabc 855e 82bd fe66 95bc a11e 57bd
00000160: c394 91bd bc66 073d f6a3 fe3a a73f d8ba
00000170: 8fbe 813d 9267 db3c c7dc f33c 0ac6 a4bd
00000180: 18c2 543c 994c 753d 69a7 41bd 0b91 923d
00000190: 8b15 48bc 6583 8b3d 5226 4c3c 4e1f 04bc
000001a0: 9ae9 bc3d 6061 5f3d 45d7 3abd c161 a0bc
000001b0: bbfc 6b3c 7ac0 4e3d dcff 013d 304c 8837
000001c0: 9459 253d 12f1 77bd cbb0 c8bc 1349 273d
000001d0: a712 53bd 846f 4a3c 3264 3a3c 6a93 e4bb
000001e0: 871a 91bd d3b2 0ebd f27a 8fbd af61 b3b9
000001f0: 5bc9 2fbc ca02 03bd 06f2 67bd b6da 85bb
00000200: b9a7 2f3c 6b3a 3cbd 249d 773d d3de 923b
00000210: 23ec 313b 0c1c 3cbd 5890 ebbb 8282 3a3c
00000220: 7a8f 00be 4282 03bd 8b7b 5d3d a29a 473d
00000230: 9272 863c 5c69 ab3c 4646 5dbc 9d55 273c
00000240: e4be bebc 92ad 463d 58b8 c1bc ce1b d33d
00000250: 11dc fbbb a8f4 84bd b21a bb3d 7286 3ebd
00000260: c45b 71ba 1a63 353c 0c1f a93c 0cdd 31bd
00000270: 2bd4 223d 1d25 11bd 608e 55bd 6afa 3b3d
00000280: d929 9abd c399 0dbd 75ea 4abb 2e3e a93d
00000290: 067e 823d 03bd ae3c 2092 7dbd 6292 ab3c
000002a0: 571b 02bd 09ea 32bd d857 a1bc f8f3 0dbd
000002b0: 7a30 b83c fc85 b0bd 4b14 60bd 366b 3fbd
000002c0: 6a9d 653d 3a16 74bd 9eda b6bc 4a91 40bd
000002d0: 3db2 85bd 0aa2 66bd 7027 863d 66fe b83d
000002e0: ef72 5b3c 5382 eabd fd73 4dbd 13e8 5cbc
000002f0: d2b7 80bd 3b1f ccbc 305f f23c 00e0 01bd
00000300: f776 353d 45e5 1e3d 8613 98bb 427d b93c
00000310: 36ba 6cbd efdc 78bd 2360 b13b a3e6 193d
00000320: 78f4 043d 7b74 163c 5c7f 0b3d c767 ce3d
00000330: 3cac 373d 8b20 0abc 97df b9bb 0504 a0bc
00000340: c16b d23d 94ca aabd efd8 c3bc 5b1e 713b
00000350: 52ed d3bc 0a50 913c c764 97bd 411f 6a3d
00000360: 586c 943c bc11 37bd ee40 fb3c ccbe 3fbd
00000370: d640 c4bc 60f7 52bd 8f65 0ebd 25bd 04bd
00000380: 4b39 25bd ffb6 23bd 696d 743b d748 93bc
00000390: b04c 4d3b 8f7a 94bd ba31 36bc 54b3 7abd
000003a0: 2976 2e3d e970 e6bc 5adf 65bd 8443 0f3d
000003b0: d0ec d4bd b147 c7bc dee1 2d3d af39 913c
000003c0: 4cd5 263d b0af 26bd 1cda 08bd 72c3 c5bc
000003d0: 395b d3bc bef7 13bc ff25 5c3c b1e7 83bc
000003e0: c874 2bbb 298d 1a3d c634 dabc c561 483d
000003f0: a4ba 483c c69e 65bc 8e34 5bbd 88df 3ebd

encoder.1.weight f4 [256]
0.99075276 1.0172236 1.0603025 1.0030422 1.0558027 1.0609188 1.0842217 1.0177605
0.96660066 1.0062516 0.99611324 0.97262496 0.9505663 0.96187365 0.97789234 0.9589053
0.98949206 0.96537775 1.0602416 0.97118855 0.95292896 0.98068774 1.0087415 0.96410626
1.0345625 0.98126423 1.0287924 0.99114776 1.0065249 0.9673786 1.0189811 1.0411619
1.0252205 0.9656075 0.97324073 1.0515332 0.96531475 1.020751 0.9977588 0.96625495
0.9584176 0.9741152 0.95725906 0.97233254 0.9618231 1.0277302 0.956627 0.9872931
0.9628963 0.9868721 0.99961597 0.98648417 0.9853547 1.0030421 1.0152552 0.98405516
0.98268324 0.99545914 0.9973354 0.95450616 1.0965574 1.078028 1.0104777 0.9559264
0.9642782 1.0122288 1.0213544 1.038444 1.0468374 1.005382 1.0100125 0.9573811
0.9780995 1.0569763 1.0373157 1.010929 0.9949191 1.0624278 0.98765236 0.99775946
0.984704 1.0399288 1.0670938 1.0023314 0.96871865 1.0430827 1.0317788 1.0777147
0.96905124 1.0290712 1.0011812 1.0427529 1.0372143 0.9968682 1.0828134 1.020607
0.9462539 0.9929488 1.013699 1.0363188 0.99638784 1.0004303 1.0637989 0.99633807
1.0191052 0.98901 0.9482153 1.0082157 0.97595376 0.9740663 1.0072885 1.0050449
0.9712657 1.0158098 0.9598218 1.0795264 0.941101 0.99761623 1.1017064 0.9503152
0.9563175 0.96565735 1.0325117 0.97340226 1.0120478 1.0099739 0.9842519 1.0311065
0.9831369 0.9585488 1.0523576 1.0074687 1.0627059 1.0074052 0.9681803 0.97278595
1.0270771 0.99162465 1.0332468 0.9982523 0.96943974 1.022385 0.96277136 1.0022788
0.97895336 0.98589176 0.9898465 1.0184463 1.0596681 0.9854988 1.0253239 0.94335693
1.0449182 0.98423487 0.9888674 0.98586076 1.0662988 1.009835 0.97407365 0.95667726
0.97715175 0.995847 1.0372236 1.029419 1.0062839 1.0474864 1.00216 1.0043079
0.99926853 0.9528383 1.0406986 1.0292004 0.9836145 0.9535922 1.0368056 0.96967745
0.988942 1.0073605 1.0589108 0.9801019 0.9677679 0.9629487 1.032576 1.0445979
0.9675668 0.9939743 0.99211365 0.9439663 1.0203134 0.96655196 1.0705758 1.0638028
1.0728403 0.9851993 1.0046164 1.0425454 1.0469002 0.9447289 1.0485644 0.98048353
0.98622876 0.9853101 1.0460457 1.0570995 0.9955173 0.94061923 1.0206443 0.9930458
1.0578877 1.0470232 0.9877875 1.0101483 1.0124375 0.96311337 0.9773448 0.9691144
1.0783436 0.9688322 1.0325347 0.97024447 1.0340387 1.0300673 1.005115 0.97259015
0.99762577 1.0255531 0.97637576 0.99142843 0.9932963 1.0285192 1.0155659 0.9874242
1.0563283 0.9925152 0.94634736 0.9984505 0.9353842 1.0003215 1.0650768 1.071946
0.98353916 1.04376 1.071678 0.94663 1.0668685 0.9914647 1.0050138 0.9871853
0.99956566 0.9664804 0.97750795 1.0814693 0.9089087 0.9836385 1.062938 1.0276982
00000000: f9a1 7d3f 6234 823f feb7 873f b063 803f
00000010: 8b24 873f 30cc 873f c7c7 8a3f fa45 823f
00000020: 2473 773f dacc 803f 4701 7f3f f3fd 783f
00000030: 5058 733f 5a3d 763f 2757 7a3f d17a 753f
00000040: 5a4f 7d3f ff22 773f ffb5 873f d09f 783f
00000050: 27f3 733f 5a0e 7b3f 711e 813f abcf 763f
00000060: 8b6c 843f 2234 7b3f 78af 833f dcbb 7d3f
00000070: cfd5 803f 20a6 773f f96d 823f cb44 853f
00000080: 6d3a 833f 0e32 773f 4e26 793f a498 863f
00000090: de1e 773f f8a7 823f 1f6d 7f3f 7c5c 773f
000000a0: db5a 753f 9d5f 793f ee0e 753f c9ea 783f
000000b0: 0a3a 763f aa8c 833f 82e5 743f 3ebf 7c3f
000000c0: 5f80 763f a6a3 7c3f d5e6 7f3f 3a8a 7c3f
000000d0: 3540 7c3f af63 803f e2f3 813f 0aeb 7b3f
000000e0: 2191 7b3f 69d6 7e3f 5f51 7f3f 845a 743f
000000f0: fe5b 8c3f d2fc 893f 5557 813f 98b7 743f
00000100: f0da 763f b790 813f bebb 823f bceb 843f
00000110: c5fe 853f 5bb0 803f 1748 813f ee16 753f
00000120: bb64 7a3f 004b 873f c3c6 843f 1f66 813f
00000130: 05b3 7e3f a2fd 873f c9d6 7c3f 2a6d 7f3f
00000140: 9015 7c3f 631c 853f 8896 883f 654c 803f
00000150: f2fd 773f bc83 853f 5411 843f 8ef2 893f
00000160: be13 783f 9bb8 833f b526 803f ed78 853f
00000170: 70c3 843f c132 7f3f a199 8a3f 40a3 823f
00000180: b23d 723f e431 7e3f e4c0 813f 18a6 843f
00000190: 4613 7f3f 1a0e 803f 902a 883f 0310 7f3f
000001a0: 0a72 823f c22f 7d3f 3dbe 723f 360d 813f
000001b0: 1bd8 793f 695c 793f d4ee 803f 50a5 803f
000001c0: dea4 783f 0e06 823f e2b6 753f ec2d 8a3f
000001d0: ffeb 703f c763 7f3f b704 8d3f db47 733f
000001e0: 39d1 743f 5235 773f 5829 843f e430 793f
000001f0: c88a 813f d346 813f eff7 7b3f 4cfb 833f
00000200: dcae 7b3f 7463 753f a7b3 863f bcf4 803f
00000210: bf06 883f a7f2 803f aada 773f 8008 793f
00000220: 4377 833f 1ddb 7d3f 6e41 843f 768d 7f3f
00000230: 342d 783f 83dd 823f 2f78 763f ac4a 803f
00000240: b09c 7a3f 6763 7c3f 9566 7d3f 735c 823f
00000250: 34a3 873f a649 7c3f d03d 833f d77f 713f
00000260: e1bf 853f d1f6 7b3f 6a26 7d3f 5f61 7c3f
00000270: 7b7c 883f 4642 813f e45c 793f cde8 743f
00000280: 9e26 7a3f d4ef 7e3f bec3 843f 00c4 833f
00000290: e9cd 803f 0914 863f c746 803f 298d 803f
000002a0: 10d0 7f3f 36ed 733f 9d35 853f d7bc 833f
000002b0: 29ce 7b3f 9e1e 743f 0cb6 843f c83c 783f
000002c0: 4e2b 7d3f 30f1 803f 648a 873f f5e7 7a3f
000002d0: a3bf 773f ce83 763f 732b 843f 62b5 853f
000002e0: 75b2 773f 1a75 7e3f 29fb 7d3f c7a7 713f
000002f0: a199 823f f36f 773f a108 893f b12a 883f
00000300: d552 893f 0536 7c3f 4597 803f 2172 853f
00000310: d300 863f c1d9 713f 5c37 863f f800 7b3f
00000320: 7d79 7c3f 483d 7c3f d3e4 853f 094f 873f
00000330: 39da 7e3f 6ccc 703f 79a4 823f 4038 7e3f
00000340: dd68 873f db04 863f a4df 7c3f 8a4c 813f
00000350: 8d97 813f 998e 763f 4533 7a3f e217 783f
00000360: 2a07 8a3f 6305 783f 192a 843f f161 783f
00000370: 615b 843f 3fd9 833f 9ca7 803f abfb 783f
00000380: 6764 7f3f 5345 833f c3f3 793f 41ce 7d3f
00000390: ab48 7e3f 84a6 833f 10fe 813f d5c7 7c3f
000003a0: c435 873f 7a15 7e3f d243 723f 749a 7f3f
000003b0: 5775 6f3f 890a 803f 7054 883f 8735 893f
000003c0: 39c9 7b3f ed99 853f bf2c 893f 5856 723f
000003d0: 268f 883f a1d0 7d3f 4ba4 803f 2db8 7c3f
000003e0: 89e3 7f3f 426b 773f f63d 7a3f 966d 8a3f
000003f0: 3eae 683f bccf 7b3f 5a0e 883f 9d8b 833f

encoder.1.bias f4 [256]
0.01023207 0.0037700448 0.049994133 0.036803078 0.018170971 0.030880028 0.08375954 -0.034035064
-0.0069442685 0.03195576 -0.0012795907 -0.012898204 -0.031542897 -0.054857865 -0.019835949 -0.033188093
-0.015540025 -0.026579617 0.03491056 -0.05316266 -0.07315938 -0.024105782 0.03350361 -0.018268473
-0.016408216 -0.02828636 0.005946721 -0.03169159 -0.0148811955 -0.010455683 -0.006441605 0.025672056
0.040978488 0.0074962536 -0.01761724 0.04798969 -0.0063673398 -0.047861412 -0.036125556 -0.032195456
-0.04528048 -0.04168796 -0.039131906 -0.035739057 0.038490634 0.033710968 -0.069107264 -0.050527964
-0.022234991 -0.018684324 -0.021174973 0.00072846544 0.05621858 0.008747585 0.002381723 0.021095557
0.016231008 0.012479899 0.0057268282 -0.052195635 0.028219035 0.0726578 0.0013873096 -0.039902247
-0.031168994 -0.026653389 0.039740387 0.06418692 -0.012640833 0.0091132 0.028465178 0.013565364
-0.017059369 -0.0056581576 0.06250228 -0.045443147 -0.012292878 -0.054417443 -0.041126 0.00843496
-0.007144655 0.037231315 0.03149111 0.004209234 -0.03858879 0.007861233 -0.003543553 0.013547746
-0.027429996 0.0027036332 0.01943594 -0.02575007 0.05861747 -0.0007485798 0.03166683 -0.019294823
-0.024026675 0.046393692 -0.027781814 0.011405285 0.016056987 0.031499714 0.020296661 0.0033242796
0.035805184 0.032818366 -0.08243648 -0.005581862 -0.04521885 -0.01403548 -0.0052036117 0.055884615
0.008664673 0.017168252 -0.011526874 0.05554114 -0.09221538 0.009181918 0.046652466 -0.001725798
-0.055125482 -0.037128594 0.008077523 -0.012302679 0.0145499455 0.002012809 -0.046343178 0.014171249
0.010551213 -0.035417166 0.051843677 0.006152689 0.00032442 0.00393954 0.011775054 -0.038767956
-0.0187003 0.030997977 0.0063107507 -0.012467604 0.039558567 0.042013533 -0.046356376 -0.015436861
0.013007039 0.041069426 0.01405625 0.05795438 0.004015652 -0.02975356 0.018249746 -0.03195905
0.017016184 -0.009216388 -0.03309531 -0.023853062 0.033440325 -0.035651762 -0.015582622 -0.008682724
-0.020491086 0.007126704 0.042627722 0.030773563 -0.001380353 0.10395835 0.00038368482 0.010254164
0.005602897 -0.06665208 0.0111645 0.004073365 0.0009770397 -0.04677031 0.02099867 0.0024833502
0.030991714 -0.034303043 0.023882587 -0.011813809 -0.058242876 -0.010404091 0.011532453 0.04683235
0.02031086 -0.052717447 -0.052163348 -0.053072892 -0.014865581 -0.06352246 0.051758263 0.009463219
0.06331597 0.0016252967 -0.0049067135 0.0511169 -0.01977522 -0.045723855 0.0661603 -0.030956762
0.008647747 -0.047800653 0.028144272 0.05108142 0.004385618 0.0052684313 -0.018485578 0.0035258264
0.08607224 -0.026679315 -0.0038403992 0.003900403 0.016756596 -0.02301339 -0.05738607 -0.0067871604
0.037895825 -0.015801262 0.027309876 -0.0046036537 0.0013661619 0.0013674735 0.011487132 -0.011208558
-0.012892204 -0.004711509 0.021965824 -0.036523223 -0.042965185 -0.0066687814 -0.030918771 -0.044796348
0.037470177 -0.0010574051 -0.046581108 0.024877694 -0.087458655 -0.03430241 0.023421085 0.0461144
0.021647539 0.0073070717 0.0004665048 -0.026148392 0.019557016 -0.014435306 -0.019798452 -0.01315629
-0.011017587 -0.0045871385 -0.0053960243 0.03992168 -0.047759723 -0.03554554 0.04574333 -0.0004689013
00000000: 6aa4 273c db12 773b a6c6 4c3d d3be 163d
00000010: 4adb 943c 1df8 fc3c 1f8a ab3d 5a68 0bbd
00000020: bf8c e3bb 0be4 023d f0b7 a7ba fd52 53bc
00000030: 2033 01bd a4b2 60bd 007f a2bc 3df0 07bd
00000040: 979b 7ebc 7fbd d9bc 60fe 0e3d 17c1 59bd
00000050: 96d4 95bd 7d79 c5bc 153b 093d c4a7 95bc
00000060: 866a 86bc ccb8 e7bc b6dc c23b 0acf 01bd
00000070: 42d0 73bc 504e 2bbc 1914 d3bb 344e d23c
00000080: 0fd9 273d 22a3 f53b 0852 90bc d690 443d
00000090: 1ea5 d0bb 540a 44bd 64f8 13bd 62df 03bd
000000a0: 0678 39bd ffc0 2abd c748 20bd 1e63 12bd
000000b0: 5ba8 1d3d 8314 0a3d 1c88 8dbd 69f6 4ebd
000000c0: 2826 b6bc de0f 99bc 2377 adbc 7df6 3e3a
000000d0: 7445 663d 0852 0f3c ae16 1c3b 97d0 ac3c
000000e0: e4f6 843c 7e78 4c3c 1ea8 bb3b 17cb 55bd
000000f0: 9b2b e73c 9dcd 943d 63d6 b53a 8a70 23bd
00000100: 1e56 ffbc 3558 dabc d1c6 223d 6f74 833d
00000110: 7f1b 4fbc 884f 153c ce2f e93c 4341 5e3c
00000120: 17c0 8bbc 1168 b9bb 3201 803d 9822 3abd
00000130: 1168 49bc d3e4 5ebd bd73 28bd c932 0a3c
00000140: b61d eabb dd7f 183d d2fc 003d 9ded 893b
00000150: 470f 1ebd 67cc 003c f43a 68bb 5ef7 5d3c
00000160: dfb4 e0bc 702f 313b 1f38 9f3c d0f1 d2bc
00000170: df18 703d 573c 44ba 14b5 013d 2d10 9ebc
00000180: 97d3 c4bc 5007 3e3d b096 e3bc 3cdd 3a3c
00000190: f189 833c d805 013d 2f45 a63c 28dc 593b
000001a0: 75a8 123d 8d6c 063d 75d4 a8bd 0de8 b6bb
000001b0: 6737 39bd 12f5 65bc 0f83 aabb 44e7 643d
000001c0: 46f6 0d3c 6fa4 8c3c 37db 3cbc 1b7f 633d
000001d0: 6bdb bcbd c16f 163c a816 3f3d 2c34 e2ba
000001e0: 42cb 61bd 2714 18bd 9657 043c 2d91 49bc
000001f0: e562 6e3c 55e9 033b 58d2 3dbd 872e 683c
00000200: ffde 2c3c 9711 11bd 095a 543d 7f9c c93b
00000210: ea16 aa39 4217 813b 28ec 403c 26cb 1ebd
00000220: 5f31 99bc 78ef fd3c 6aca ce3b ec44 4cbc
00000230: 2a08 223d 6216 2c3d 2fe0 3dbd e3ea 7cbc
00000240: 7a1b 553c 6a38 283d 304c 663c 9261 6d3d
00000250: bb95 833b bdbd f3bc 7e80 953c 7ee7 02bd
00000260: 8665 8b3c 5500 17bc f38e 07bd 7f67 c3bc
00000270: b9f8 083d 9507 12bd 414e 7fbc fc41 0ebc
00000280: ecdc a7bc 2087 e93b 689a 2e3d d718 fc3c
00000290: f6ec b4ba 1ee8 d43d 4e29 c939 1501 283c
000002a0: 8298 b73b e380 88bd 4feb 363c dd79 853b
000002b0: 0310 803a 3992 3fbd 6705 ac3c b4bf 223b
000002c0: 56e2 fd3c 5981 0cbd 6aa5 c33c b58e 41bc
000002d0: 1590 6ebd ec75 2abc 9df2 3c3c 47d3 3f3d
000002e0: f662 a63c 40ee 57bd 3ca9 55bd f662 59bd
000002f0: c48e 73bc 1018 82bd 7900 543d 9e0b 1b3c
00000300: ceab 813d e807 d53a 7fc8 a0bb f45f 513d
00000310: a4ff a1bc f048 3bbd 0d7f 873d 0999 fdbc
00000320: 48af 0d3c 9eca 43bd d18e e63c c03a 513d
00000330: 3bb5 8f3b cea2 ac3b 116f 97bc 8d11 673b
00000340: a446 b03d 948e dabc 35af 7bbb e79d 7f3b
00000350: 2145 893c 9486 bcbc a80d 6bbd d466 debb
00000360: a738 1b3d a671 81bc f6b8 df3c 3fda 96bb
00000370: c910 b33a cc3c b33a 8634 3c3c 1aa4 37bc
00000380: d339 53bc 0163 9abb acf1 b33c 6099 15bd
00000390: 43fc 2fbd cb85 dabb 5d49 fdbc 607c 37bd
000003a0: 547a 193d a198 8aba d5cb 3ebd 4ecc cb3c
000003b0: 861d b3bd af80 0cbd 93dd bf3c 74e2 3c3d
000003c0: 2e56 b13c 2970 ef3b 3795 f439 2735 d6bc
000003d0: 0936 a03c 1082 6cbc 5d30 a2bc 7b8d 57bc
000003e0: 1c83 34bc b54f 96bb 22d1 b0bb ea84 233d
000003f0: b39f 43bd 3398 11bd 5c5d 3b3d ded6 f5b9

encoder.3.weight f4 [128, 256]
0.030020056 0.04959848 -0.02182901 0.034525115 -0.03542997 0.06385594 0.06355245 0.030345276
-0.059124988 0.016507128 -0.03118978 0.02037459 0.013086441 -0.03325121 0.02740344 -0.05142499
0.02090609 -0.051422853 -0.0506501 -0.05755425 -0.07716872 0.0854411 -0.04660118 -0.055041935
0.036315087 -0.037731033 0.029611863 -0.0052112606 -0.024274118 -0.003429042 0.027844364 -0.025837177
-0.025536744 0.08058136 -0.034551084 -0.012525247 -0.0045715133 -0.051123213 0.058335487 -0.04742412
0.014003889 0.01642758 0.0021402466 0.007210319 0.01317935 0.062875465 0.021626059 -0.02851753
0.004904581 -0.0074306303 -0.08389897 0.032023933 0.032032765 -0.06312206 -0.008052976 -0.012466661
0.022853622 0.010580056 0.07463743 0.049100664 0.00634072 -0.00045670374 -0.017789353 -0.059939105
0.0055563385 0.034166034 0.075469375 -0.023587408 -0.007257135 0.022919035 -0.010896264 -0.032883536
0.06585453 0.03607849 0.0024775113 -0.10294527 0.021888116 0.03675492 0.051368337 -0.076850235
0.004987511 0.048303626 0.017215962 0.0014559913 0.013418101 0.019560989 0.0019911234 0.054670654
0.08236574 -0.0549539 0.023736723 0.032808714 0.043980945 -0.03471933 -0.01939249 -0.04764374
-0.0044407304 0.042277534 -0.025158795 -0.01751072 0.0008218402 -0.01934046 -0.041770536 0.01357876
-0.0055654077 -0.02973483 -0.022007696 0.042075805 0.058366217 0.0012230551 -0.0011983714 0.001992465
0.04872154 -0.040844727 -0.08664516 -0.00066284835 0.020328443 0.05955382 -0.012163704 -0.009649733
0.019963004 0.009272736 -0.029641699 0.003110653 0.0128969755 -0.01850466 -0.0065895617 -0.036113746
-0.0018420845 0.00203109 -0.0047918633 0.030202957 -0.007728088 0.004297565 0.005543068 0.06344821
0.0027097042 0.05076389 0.026742635 -0.068965085 0.04702685 -0.015008597 -0.018010695 -0.051095206
0.0053077424 0.063185595 0.04958357 0.08221233 0.057328638 -0.069978856 -0.011201884 0.031062678
0.047211036 0.05170157 -0.023364585 0.0074526737 -0.060553793 0.004114286 -0.023044778 -0.01430711
-0.0104776565 0.024811791 0.022685573 0.06717127 0.06890426 0.05843785 -0.002774735 -0.0009805852
0.00011042074 0.020601524 0.033051666 -0.018657632 -0.043921586 -0.07240098 -0.011759293 0.020691475
0.024819558 -0.074970976 0.059595283 0.0033829655 -0.03776601 0.012041044 0.03534774 0.008694131
0.0062810043 0.032047257 -0.039442226 -0.033303656 -0.061874293 0.0043121106 -0.009099188 -0.0039436296
-0.004436088 0.07383933 -0.039698295 0.011752634 0.022303933 -0.028328452 0.08203712 -0.008044782
0.0038568492 -0.06643911 0.016517663 -0.0068750973 -0.052899566 0.028865676 -0.017133152 -0.020317623
0.07546094 0.0041596894 0.04891988 0.035892185 0.04229915 0.044693634 0.026958276 0.0021969422
0.07890448 -0.0046775592 -0.025593821 0.008252653 -0.039462686 -0.02384669 0.011403743 -0.026441012
0.019616567 -0.0328295 -0.022088664 0.04724995 -0.04586073 -0.033715922 -0.0540391 -0.05812054
0.077037856 -0.038595434 0.011340175 0.048553187 -0.06311467 -0.0732828 0.004927029 0.038314495
0.059824914 0.042916853 0.057682518 -0.01154751 -0.017366994 0.012148031 0.027098805 -0.021473788
-0.043427993 -0.005460551 0.036426686 -0.055349782 0.03785038 -0.03774402 -0.005956423 0.0588041
00000000: 9fec f53c c727 4b3d c1d2 b2bc 356a 0d3d
00000010: 041f 11bd e7c6 823d c927 823d a896 f83c
00000020: 0b2d 72bd f539 873c b681 ffbc 9de8 a63c
00000030: 8368 563c 6c32 08bd 2e7d e03c 03a3 52bd
00000040: 4043 ab3c c5a0 52bd 7b76 4fbd 01be 6bbd
00000050: a20a 9ebd befb ae3d e1e0 3ebd a773 61bd
00000060: 21bf 143d db8b 1abd 9494 f23c 39c3 aabb
00000070: 84da c6bc c7b9 60bb dd19 e43c 7da8 d3bc
00000080: 6f32 d1bc d707 a53d 7085 0dbd b236 4dbc
00000090: a2cc 95bb 9366 51bd 31f1 6e3d cb3f 42bd
000000a0: 9170 653c 2293 863c 6143 0c3b 8a44 ec3b
000000b0: 33ee 573c dac4 803d 2229 b13c 989d e9bc
000000c0: 9bb6 a03b a57c f3bb 39d3 abbd 872b 033d
000000d0: ca34 033d 2346 81bd a1f0 03bc f740 4cbc
000000e0: 8537 bb3c f957 2d3c 82db 983d c71d 493d
000000f0: d1c5 cf3b bd71 efb9 faba 91bc b582 75bd
00000100: f211 b63b aff1 0b3d b08f 9a3d 613a c1bc
00000110: 43cd edbb b3c0 bb3c 3e86 32bc e3b0 06bd
00000120: bdde 863d 0ac7 133d be5d 223b f8d4 d2bd
00000130: b54e b33c 548c 163d 9b67 523d a863 9dbd
00000140: 466e a33b 06da 453d 7d08 8d3c f6d6 be3a
00000150: 98d7 5b3c 5e3e a03c 827d 023b 56ee 5f3d
00000160: 5eaf a83d 5717 61bd 8473 c23c 6e62 063d
00000170: 5d25 343d db35 0ebd 00dd 9ebc 1526 43bd
00000180: 8c83 91bb 352b 2d3d d119 cebc a472 8fbc
00000190: c370 573a e26f 9ebc 9517 2bbd 7379 5e3c
000001a0: 065e b6bb 7596 f3bc 7c49 b4bc ae57 2c3d
000001b0: 6a11 6f3d eb4e a03a ac12 9dba 0494 023b
000001c0: 3d90 473d cd4c 27bd 0573 b1bd 00c3 2dba
000001d0: d687 a63c b5ee 733d 464a 47bc ea19 1ebc
000001e0: 7489 a33c acec 173c 26d3 f2bc 19dc 4b3b
000001f0: d64d 533c 1697 97bc 40ed d7bb 02ec 13bd
00000200: 1972 f1ba 091c 053b 1005 9dbb 316c f73c
00000210: e73b fdbb 97d2 8c3b a0a2 b53b 23f1 813d
00000220: 4b95 313b cced 4f3d 5f13 db3c 913d 8dbd
00000230: 3a9f 403d 9ee6 75bc 2a8b 93bc 3549 51bd
00000240: 92ec ad3b 7367 813d 2418 4b3d f05e a83d
00000250: 6fd1 6a3d 1351 8fbd 1b88 37bc 2877 fe3c
00000260: 5c60 413d 07c5 533d 1667 bfbc 8f35 f43b
00000270: 4107 78bd 22d1 863b 67c8 bcbc 5e68 6abc
00000280: 7aaa 2bbc 1942 cb3c 18d7 b93c 1791 893d
00000290: ad1d 8d3d 875c 6f3d 54d8 35bb fb86 80ba
000002a0: af91 e738 87c4 a83c 2f61 073d e4d7 98bc
000002b0: 1fe7 33bd f746 94bd 0daa 40bc 2b81 a93c
000002c0: 6352 cb3c 628a 99bd 2f1a 743d beb4 5d3b
000002d0: 88b0 1abd cd47 453c cbc8 103d d471 0e3c
000002e0: e2d0 cd3b fc43 033d 2c8e 21bd 6a69 08bd
000002f0: e66f 7dbd 9b4c 8d3b c314 15bc 9039 81bb
00000300: 9a5c 91bb 1339 973d ae9a 22bd 1f8e 403c
00000310: bdb6 b63c 1211 e8bc 1403 a83d 43ce 03bc
00000320: 31c3 7c3b 3a11 88bd 0d50 873c 7f48 e1bb
00000330: 37ad 58bd b677 ec3c d35a 8cbc 2571 a6bc
00000340: 448b 9a3d 014e 883b 3660 483d af03 133d
00000350: e041 2d3d ac10 373d 9ad7 dc3c 93fa 0f3b
00000360: ac98 a13d 3646 99bb 22aa d1bc 2336 073c
00000370: a0a3 21bd 225a c3bc c4d6 3a3c d29a d8bc
00000380: ecb2 a03c 3a78 06bd 49f3 b4bc 2a89 413d
00000390: 76d8 3bbd b519 0abd 1a58 5dbd ce0f 6ebd
000003a0: 06c6 9d3d 3f16 1ebd 24cc 393c b5df 463d
000003b0: 4442 81bd 4b15 96bd ea72 a13b a9ef 1c3d
000003c0: f80a 753d 95c9 2f3d 8144 6c3d c431 3dbc
000003d0: 3a45 8ebc 8908 473c 50fe dd3c cce9 afbc
000003e0: 8de1 31bd 6cee b2bb 2634 153d 74b6 62bd
000003f0: 0009 1b3d 7999 1abd 192e c3bb 91dc 703d

encoder.3.bias f4 [128]
0.03616418 0.052934222 -0.10507003 0.028816378 -0.008591111 -0.018532706 0.058010645 0.045217577
0.013861403 -0.000377881 0.020149851 0.0109089585 -0.016400646 0.026534142 0.08739321 -0.056187995
-0.0015668977 0.056007106 -0.07955737 0.059565436 0.10260862 0.021053435 -0.028539656 -0.029059572
0.0715678 -0.02219973 -0.07799904 -0.101863034 -0.056858882 0.026873546 0.0067126853 -0.03325992
-0.011377536 0.02500033 -0.031358346 -0.025233276 -0.06427623 0.009232471 -0.0013786646 -0.017641185
-0.057239264 -0.024972579 -0.001237948 0.012653752 0.012323064 -0.024004495 0.010137755 -0.077828534
0.03897503 -0.031251177 -0.041773856 -0.06853527 0.019550892 0.008401658 0.016293557 0.014964118
-0.041267592 0.0049399347 0.0066561764 0.008265256 0.03239694 -0.014442057 -0.0032433053 0.008245599
0.046887666 0.029341547 -0.002655854 -0.06338436 0.00945941 -0.030725993 -0.048773807 0.0010380207
0.055524424 -0.0013429751 -0.05010996 0.009091367 0.092495024 0.06280464 0.075049624 -0.05428797
-0.0445625 -0.023163639 0.07001824 -0.037731037 0.04316378 0.030202633 -0.06570031 0.06271217
-0.035287246 -0.0020374379 0.0072682886 -0.009038999 0.06818123 0.010670393 0.018911578 0.08068539
0.017321154 0.008090415 0.05595161 0.005170842 -0.039366487 -0.02376557 -0.0724701 -0.043622695
-0.052202605 -0.03828761 -0.06395225 0.054100614 0.0043635173 -0.055494312 -0.035232075 0.01541361
-0.03318955 0.014249106 -0.0513451 -0.012277936 0.034653295 0.045527276 0.019291231 -0.022630958
-0.008611041 0.05442818 -0.060803875 0.033335797 0.031017808 -0.039930742 -0.07845393 -0.042054716
00000000: e420 143d 8ed1 583d f52e d7bd 5310 ec3c
00000010: bbc1 0cbc e7d1 97bc 929c 6d3d 1136 393d
00000020: f01a 633c 541e c6b9 4d11 a53c 7dbb 323c
00000030: a65a 86bc 215e d93c 36fb b23d 6225 66bd
00000040: 5d60 cdba b567 653d f9ee a2bd e3fa 733d
00000050: 7824 d23d 4178 ac3c ffcb e9bc 570e eebc
00000060: 2492 923d 35dc b5bc f6bd 9fbd 919d d0bd
00000070: dce4 68bd e925 dc3c 16f6 db3b 8e3b 08bd
00000080: d868 3abc 7ecd cc3c 9c71 00bd 04b6 cebc
00000090: 42a3 83bd ca43 173c 4fb4 b4ba 3f84 90bc
000000a0: b873 6abd 4b93 ccbc a442 a2ba af51 4f3c
000000b0: ade6 493c 13a5 c4bc d418 263c 9164 9fbd
000000c0: 48a4 1f3d 3c01 00bd 101b 2bbd 385c 8cbd
000000d0: 3129 a03c 1ca7 093c 117a 853c 0f2c 753c
000000e0: 3508 29bd 2ddf a13b 0e1c da3b ff6a 073c
000000f0: a7b2 043d 619e 6cbc a28d 54bb 8d18 073c
00000100: 480d 403d af5d f03c d60d 2ebb a9cf 81bd
00000110: a4fb 1a3c 14b5 fbbc 0bc7 47bd 320e 883a
00000120: 946d 633d c406 b0ba 1a40 4dbd f5f3 143c
00000130: 086e bd3d b89f 803d 9eb3 993d 105d 5ebd
00000140: 2b87 36bd acc1 bdbc b965 8f3d dc8b 1abd
00000150: 81cc 303d 836b f73c e28d 86bd 3d6f 803d
00000160: 5c89 10bd 8986 05bb d32a ee3b 4f18 14bc
00000170: 9aa2 8b3d dfd2 2e3c 74ec 9a3c 623e a53d
00000180: 18e5 8d3c a98d 043c 842d 653d 2b70 a93b
00000190: c13e 21bd 03b0 c2bc 346b 94bd b6ad 32bd
000001a0: 66d2 55bd 78d3 1cbd 66f9 82bd 9b98 5d3d
000001b0: d6fb 8e3b 014e 63bd 824f 10bd 5e89 7c3c
000001c0: c4f1 07bd 1575 693c 3d4f 52bd 6529 49bc
000001d0: 9df0 0d3d cf7a 3a3d a508 9e3c 8f64 b9bc
000001e0: 5315 0dbc 15f0 5e3d 7c0d 79bd 1e8b 083d
000001f0: 0f19 fe3c 6b8e 23bd 74ac a0bd 9141 2cbd

encoder.4.weight f4 [128]
0.9932486 1.0184591 0.9886854 0.9720486 0.99750304 0.9517174 1.0249054 0.9872247
0.9697049 1.0029303 0.9652668 1.0563316 0.94613594 0.98149383 0.97658336 0.9794318
1.0627908 1.0163807 0.9928607 1.0676205 1.0581441 0.981978 0.9879935 0.94168025
1.044561 0.98617595 0.9341832 0.98125464 0.9532796 1.0023203 1.0089315 0.9480049
1.0427356 0.9947479 1.0198114 0.96019703 0.9731234 1.0001309 0.99217683 0.99285537
0.9412006 0.9851278 0.955385 1.0092912 0.9725837 1.0298225 0.9875988 0.97168416
0.96106076 0.9609771 0.932317 0.9987243 0.9815853 1.0243883 0.97807395 0.9978096
0.9977034 1.0656842 0.97798616 0.96407247 1.0034187 0.94968736 1.0162399 1.0066673
1.1095965 0.9859033 0.9948462 0.9751251 0.9178423 1.0113115 0.9582823 0.9548454
0.9505623 0.998024 1.0156873 0.9872048 1.0551448 0.9868274 1.0398196 0.9518804
0.9798996 0.99448764 0.99672973 0.9713775 0.98226255 0.97747004 0.95436573 1.0057532
0.9449381 0.9931518 0.9652515 0.95272374 1.0849338 1.0381076 1.0532745 1.1140939
1.0416068 0.9961831 1.0589473 0.9663356 1.0584422 0.9955556 0.94939184 1.0062628
1.0099384 1.0828565 0.9960406 1.0168319 1.0566782 0.92359644 1.0128276 0.98606396
0.96965754 0.99072486 1.0708433 1.0178032 0.9966229 1.0236459 0.9787271 1.0088426
0.9986005 1.0050945 0.9982881 1.0272003 0.9654171 0.99749905 0.9606658 0.9785235
00000000: 8a45 7e3f de5c 823f 7d1a 7d3f 2dd8 783f
00000010: 5c5c 7f3f c0a3 733f 1a30 833f c2ba 7c3f
00000020: 953e 783f 0560 803f ba1b 773f e035 873f
00000030: f735 723f 2e43 7b3f 5e01 7a3f 0bbc 7a3f
00000040: 8709 883f c318 823f 1e2c 7e3f caa7 883f
00000050: 4471 873f e962 7b3f 24ed 7c3f f511 713f
00000060: 2db4 853f 0776 7c3f a126 6f3f 8133 7b3f
00000070: 220a 743f 084c 803f ab24 813f 73b0 723f
00000080: 5c78 853f cca7 7e3f 2e89 823f 79cf 753f
00000090: 9d1e 793f 4a04 803f 4dff 7d3f c52b 7e3f
000000a0: 86f2 703f 5631 7c3f 1d94 743f 7430 813f
000000b0: 3ffb 783f 39d1 833f 46d3 7c3f 4bc0 783f
000000c0: 1408 763f 9802 763f 54ac 6e3f 65ac 7f3f
000000d0: 2d49 7b3f 281f 833f 0e63 7a3f 7370 7f3f
000000e0: 7d69 7f3f 5768 883f 4d5d 7a3f 74cd 763f
000000f0: 0670 803f b61e 733f 2614 823f 79da 803f
00000100: 4207 8e3f 2964 7c3f 3eae 7e3f cca1 793f
00000110: b7f7 6a3f a872 813f fd51 753f c070 743f
00000120: 0d58 733f 807e 7f3f 0b02 823f 74b9 7c3f
00000130: fc0e 873f b8a0 7c3f cf18 853f 6fae 733f
00000140: b3da 7a3f be96 7e3f ae29 7f3f 32ac 783f
00000150: 8f75 7b3f 7a3b 7a3f 5051 743f 85bc 803f
00000160: 77e7 713f 323f 7e3f b91a 773f b4e5 733f
00000170: 1cdf 8a3f b6e0 843f b3d1 863f a19a 8e3f
00000180: 5f53 853f db05 7f3f 968b 873f c561 773f
00000190: 097b 873f bbdc 7e3f 580b 733f 38cd 803f
000001a0: a945 813f 0b9b 8a3f 84fc 7e3f 8c27 823f
000001b0: 3b41 873f d170 6c3f 56a4 813f b06e 7c3f
000001c0: 7a3b 783f 25a0 7d3f 6511 893f 6047 823f
000001d0: ae22 7f3f d406 833f dc8d 7a3f c121 813f
000001e0: 48a4 7f3f f0a6 803f cf8f 7f3f 4d7b 833f
000001f0: 9325 773f 195c 7f3f 32ee 753f 8480 7a3f

encoder.4.bias f4 [128]
-0.0045691445 0.03306735 -0.05000316 0.0011922915 0.019977778 -0.033514407 0.05698378 0.008951665
-0.034602582 0.011631954 -0.015531919 0.09036408 0.011445795 -0.02356795 0.07543824 -0.038627017
0.05046059 0.042416837 -0.035609327 0.03592715 0.06840383 -0.01723665 0.0031273372 -0.039060183
0.07861824 -0.010174698 -0.025716469 -0.07086038 -0.04023632 -0.0013204174 0.020124264 -0.028405774
0.03368206 -0.017697541 0.036603358 0.004412906 -0.04715016 0.020753717 0.027916022 -0.010281356
-0.014514456 -0.031325653 -0.046854336 0.023668338 -0.04622391 0.013151867 -0.020548131 -0.075060666
-0.02663282 -0.05396541 -0.052307364 -0.021490663 -0.05985094 0.03245642 -0.045312926 -0.024875307
-0.012396893 0.025584808 0.008251221 -0.028898671 0.038335867 -0.056995172 0.01295428 0.038320016
0.09004758 0.047674526 0.009920603 -0.027760664 -0.04415456 -0.057116788 -0.04005252 -0.028977258
0.032858353 -0.01353462 0.0023622273 -0.008646439 0.055403534 -0.0021324062 0.10709385 -0.019527003
-0.03799479 -0.0019647637 0.021551557 -0.019457282 -0.03451557 -0.03040059 -0.007853385 0.011418438
-0.032321233 -0.05032263 -0.04567437 -0.012231615 0.067660175 0.05532965 -0.008390137 0.08036805
0.02537572 -0.014131823 0.08187984 -0.04988929 -0.0014926317 -0.024043167 -0.021087637 -0.051759634
0.0026439542 0.03385184 -0.025183134 0.02580614 0.018076442 -0.016122194 -0.014648112 -0.035491884
-0.021234266 -0.014435983 0.0017794744 0.039557297 0.0088515915 -0.0046528275 0.04102084 0.004380092
-0.030147148 0.03787915 -0.041796446 0.010191112 0.026050407 0.0040950296 -0.063251875 0.012966373
00000000: c3b8 95bb a171 073d 1dd0 4cbd aa46 9c3a
00000010: 70a8 a33c 6746 09bd d367 693d 01aa 123c
00000020: 70bb 0dbd f493 3e3c 9779 7ebc ce10 b93d
00000030: 2587 3b3c 9311 c1bc 5d7f 9a3d 5d37 1ebd
00000040: c3af 4e3d 47bd 2d3d 16db 11bd 5928 133d
00000050: 4f17 8c3d e033 8dbc 03f4 4c3b 92fd 1fbd
00000060: 9a02 a13d c7b3 26bc 58ab d2bc 3f1f 91bd
00000070: d7ce 24bd db11 adba a4db a43c 3ab3 e8bc
00000080: 33f6 093d 6ffa 90bc 67ed 153d 239a 903b
00000090: 8720 41bd b303 aa3c 24b0 e43c 2273 28bc
000000a0: 0ace 6dbc 544f 00bd 55ea 3fbd 1ae4 c13c
000000b0: 4855 3dbd ee7a 573c 8e54 a8bc 68b9 99bd
000000c0: 122d dabc d50a 5dbd 3f40 56bd 300d b0bc
000000d0: 4226 75bd 06f1 043d 0c9a 39bd 4dc7 cbbc
000000e0: 571c 4bbc 3b97 d13c 2130 073c e8bc ecbc
000000f0: 1206 1d3d c573 69bd 303e 543c 73f5 1c3d
00000100: de6a b83d 5d46 433d 068a 223c 556a e3bc
00000110: 69db 34bd 4bf3 69bd 1c0e 24bd b761 edbc
00000120: 7b96 063d 50c0 5dbc 99cf 1a3b cba9 0dbc
00000130: d1ee 623d d7bf 0bbb 0554 db3d 18f7 9fbc
00000140: 6da0 1bbd 44c3 00bb e48c b03c e164 9fbc
00000150: 3360 0dbd a80a f9bc 7cab 00bc 6614 3b3c
00000160: 4563 04bd 1a1f 4ebd 0c15 3bbd 1d67 48bc
00000170: 6b91 8a3d 58a1 623d c976 09bc 0198 a43d
00000180: bee0 cf3c 2989 67bc 9eb0 a73d b658 4cbd
00000190: 69a4 c3ba 2df6 c4bc fbbf acbc e901 54bd
000001a0: 3146 2d3b 3aa8 0a3d dc4c cebc 6667 d33c
000001b0: 0c15 943c b112 84bc a2fe 6fbc f05f 11bd
000001c0: 7cf3 adbc e784 6cbc 413d e93a d506 223d
000001d0: 4406 113c bf76 98bb 7805 283d e086 8f3b
000001e0: 27f7 f6bc 2b27 1b3d c032 2bbd 9ff8 263c
000001f0: aa67 d53c 992f 863b 338a 81bd e970 543c

encoder.6.weight f4 [64, 128]
0.07744728 0.06964262 0.018254582 0.09318714 0.054561928 0.026183393 0.0015613333 0.038161565
0.07961195 -0.0027968346 0.064386316 0.117201224 -0.02493917 0.084881425 0.06860716 0.052238632
-0.049800303 -0.10172651 -0.04910122 0.020626022 0.09898802 0.0012160895 -0.10260334 -0.011309567
-0.0045467387 -0.02036908 0.010842283 -0.046629515 -0.006921845 0.028553452 -0.04895916 0.0030579872
0.06337942 0.06987907 0.07757148 0.041499715 0.03771675 0.08381386 0.028670037 0.0916765
0.043763444 0.02482785 0.015439819 -0.010405333 -0.066527046 -0.041002143 0.025372667 -0.073428534
0.01025912 -0.0788179 0.018005434 0.12647143 -0.106416285 0.04415108 0.003365769 -0.015522797
0.048146922 -0.04789906 -0.029173 -0.099918626 0.007589178 -0.051112443 -0.012361357 0.011437081
-0.08437492 0.04251959 -0.025555342 -0.108483 0.060252104 0.036709845 0.015911149 -0.037110463
0.038148016 -0.049117524 0.005108657 0.0034133708 0.017943736 0.024639755 -0.00032416245 -0.038094416
0.06971437 0.06300246 0.044965368 0.06509197 -0.024219483 0.0074799634 -0.0004616931 -0.09658987
0.08500132 -0.069876194 0.030491909 -0.010472079 0.09527263 0.07477861 -0.062202256 0.12486442
-0.05559775 0.029219966 -0.04635188 -0.08259432 -0.05438418 0.046406355 -0.0004604969 0.058761932
0.026886351 0.049738355 0.082064144 0.092848904 0.11594813 0.013761597 -0.017414648 0.007883103
-0.09473498 0.05929073 0.057658322 0.033076245 -0.038793128 0.03930142 -0.066857375 0.06518854
-0.05716611 0.12394795 -0.030564902 0.055655777 0.042749166 -0.035921283 0.029294113 -0.064812325
0.027710903 0.06337638 -0.013609647 -0.095105365 0.086169094 0.06440587 0.015282372 -0.019397467
0.0174367 -0.022941062 -0.044230748 0.11581319 -0.011937515 0.03821111 0.043880798 0.030362055
0.06784613 -0.04626228 -0.043319628 0.007891174 0.034125432 -0.06617355 0.008422207 0.046732724
-0.06805342 -0.09048726 0.011482987 -0.056240667 0.010707428 0.04082151 0.03842365 0.050158013
0.13347553 -0.05514903 0.012254451 0.06398803 -0.07150428 -0.011376914 -0.06141056 0.0014875628
0.048076726 0.020378092 0.04948985 0.104335524 -0.05657949 -0.1060865 0.0031046062 0.035098102
0.06785793 0.033695254 -0.087339915 0.07989691 -0.08570239 -0.031449795 0.039194964 -0.0839836
0.040662836 0.02723939 0.020953692 -0.044496857 0.04791016 -0.00035270498 -0.10079901 0.07507976
-0.10735798 0.016216129 0.06501218 -0.035174713 -0.041654643 -0.0897672 -0.0063937325 -0.062072862
0.021082103 0.11833456 0.04121554 0.07175833 0.09231305 -0.018996097 0.010700939 0.0075155627
0.05434019 0.07291189 0.028552864 0.07544531 -0.08358191 -0.028938973 0.020379929 0.0066890824
0.049997143 0.030560669 -0.083669215 0.027172204 0.057702944 0.07619033 -0.10858726 0.08571102
-0.027033553 -0.0009168924 0.040416814 -0.08012593 -0.02027486 0.01728642 1.6844494e-06 -0.07347097
0.031419877 0.13936621 -0.10081185 0.028952323 -0.008437381 0.019113746 -0.045772225 0.07585117
-0.0417554 -0.0046447967 -0.03475439 0.089219354 0.035561167 0.018227464 -0.012093107 0.07742014
-0.018145729 0.0065186024 -0.08269023 -0.069995135 -0.029461952 0.039712764 -0.03960683 0.107347965
00000000: ae9c 9e3d caa0 8e3d a28a 953c e6d8 be3d
00000010: 547c 5f3d 8e7e d63c a7a5 cc3a 4d4f 1c3d
00000020: 970b a33d 194b 37bb f9dc 833d 3207 f03d
00000030: 3b4d ccbc 50d6 ad3d e981 8c3d 2df8 553d
00000040: 67fb 4bbd fd55 d0bd 5c1e 49bd e7f7 a83c
00000050: 3bba ca3d 3165 9f3a b321 d2bd c34b 39bc
00000060: cffc 94bb 0fdd a6bc d5a3 313c 97fe 3ebd
00000070: a5d0 e2bb eee8 e93c 6689 48bd 8368 483b
00000080: 12cd 813d c21c 8f3d ccdd 9e3d 9bfb 293d
00000090: e17c 1a3d 9aa6 ab3d 6ddd ea3c e4c0 bb3d
000000a0: 4c41 333d c663 cb3c 4bf7 7c3c 217b 2abc
000000b0: 553f 88bd ddf1 27bd 57da cf3c b361 96bd
000000c0: de15 283c 476b a1bd 2280 933c ba81 013e
000000d0: c8f0 d9bd c3d7 343d 3c94 5c3b 5453 7ebc
000000e0: b535 453d ce31 44bd 37fc eebc 23a2 ccbd
000000f0: a4ae f83b 485b 51bd 4a87 4abc 9862 3b3c
00000100: c2cc acbd 0629 2e3d 7059 d1bc 562c debd
00000110: e9ca 763d 105d 163d 1958 823c 2401 18bd
00000120: 1841 1c3d 752f 49bd 8566 a73b dcb2 5f3b
00000130: befe 923c 50d9 c93c 59f4 a9b9 e408 1cbd
00000140: 68c6 8e3d 6f07 813d 9b2d 383d f04e 853d
00000150: f067 c6bc 7b1a f53b 660f f2b9 e9d0 c5bd
00000160: 2c15 ae3d 401b 8fbd 2bca f93c 1593 2bbc
00000170: 4c1e c33d 8725 993d cbc7 7ebd ebb8 ff3d
00000180: 77ba 63bd b65e ef3c 78db 3dbd 3627 a9bd
00000190: f2c1 5ebd 9714 3e3d d96e f1b9 5ab0 703d
000001a0: c440 dc3c 72ba 4b3d 3f11 a83d 9127 be3d
000001b0: 3776 ed3d 5278 613c 2aa9 8ebc 2128 013c
000001c0: 6a04 c2bd d6da 723d 222b 6c3d f57a 073d
000001d0: 8be5 1ebd 87fa 203d 85ec 88bd 9281 853d
000001e0: 0327 6abd 6cd8 fd3d 3f63 fabc 50f7 633d
000001f0: c019 2f3d 3222 13bd 35fa ef3c 53bc 84bd
00000200: fa01 e33c 7acb 813d fffa 5ebc 9ac6 c2bd
00000210: 6c79 b03d 3ae7 833d ea62 7a3c 70e7 9ebc
00000220: 69d7 8e3c e5ee bbbc 4d2b 35bd 772f ed3d
00000230: 9195 43bc 4183 1c3d 5abc 333d d8b9 f83c
00000240: e9f2 8a3d 847d 3dbd ec6f 31bd fc49 013c
00000250: 1cc7 0b3d 0086 87bd 4cfd 093c d06a 3f3d
00000260: 975f 8bbd 6251 b9bd 2323 3c3c 9d5c 66bd
00000270: 356e 2f3c 7534 273d 1e62 1d3d 7d72 4d3d
00000280: cfad 083e f3e3 61bd e5c6 483c 280c 833d
00000290: d670 92bd 3c66 3abc a489 7bbd 53fa c23a
000002a0: 1aec 443d f5ef a63c deb5 4a3d ddad d53d
000002b0: e5bf 67bd e143 d9bd a676 4b3b 07c3 0f3d
000002c0: 19f9 8a3d 0904 0a3d 45df b2bd fea0 a33d
000002d0: bc84 afbd 80d1 00bd e68a 203d 98ff abbd
000002e0: 138e 263d 2425 df3c 14a7 ab3c 5642 36bd
000002f0: 723d 443d 43eb b8b9 b66f cebd 6bc3 993d
00000300: 80de dbbd b0d7 843c 1b25 853d 5c13 10bd
00000310: 0f9e 2abd ded7 b7bd 8482 d1bb 1d40 7ebd
00000320: 60b4 ac3c 6459 f23d a0d1 283d 08f6 923d
00000330: a00e bd3d b49d 9bbc fe52 2f3c 1c45 f63b
00000340: d293 5e3d d452 953d b2e7 e93c 1283 9a3d
00000350: fe2c abbd 6d11 edbc cff3 a63c 1730 db3b
00000360: cec9 4c3d 5e5a fa3c c45a abbd 3e98 de3c
00000370: ec59 6c3d ad09 9c3d ff62 debd 4289 af3d
00000380: 7875 ddbc 9b5b 70ba 1a8c 253d 1019 a4bd
00000390: 7717 a6bc 409c 8d3c 3e15 e235 f377 96bd
000003a0: 21b2 003d 04b6 0e3e 7176 cebd 6c2d ed3c
000003b0: f13c 0abc 6e94 9c3c a87b 3bbd dc57 9b3d
000003c0: b607 2bbd 6133 98bb 9f5a 0ebd a3b8 b63d
000003d0: 96a8 113d c351 953c 2b22 46bc 738e 9e3d
000003e0: 5aa6 94bc 009a d53b 7f59 a9bd 9c59 8fbd
000003f0: 315a f1bc daa9 223d c53a 22bd 40d9 db3d

encoder.6.bias f4 [64]
-0.005417495 0.06658911 0.010013085 -0.0695652 -0.09670016 -0.04206757 0.13295701 -0.11524237
0.031979904 0.035990935 0.005545995 -0.035976674 -0.1050921 0.04524457 0.02778975 0.046645906
-0.0631397 -0.0055385884 0.022723462 0.16454239 0.07799378 -0.0618305 -0.07077725 0.020918678
-0.019678539 0.037916757 0.022892874 -0.054278865 -0.012035877 0.11787163 -0.12783583 -0.06408815
0.052616358 -0.07536546 -0.07619726 0.04039281 -0.050487157 0.1459234 0.07686104 0.054134633
0.025615277 -0.13504867 0.0006815491 -0.048575733 0.07955505 0.06583075 -0.06573914 0.06665651
-0.040827125 0.041934423 -0.035980515 0.04689706 0.06903043 -0.055131014 -0.07011201 0.15941097
-0.04495876 0.09590599 0.027900934 -0.018498898 0.03831463 -0.09933653 -0.10757448 0.074589714
00000000: 3e85 b1bb df5f 883d ec0d 243c 3378 8ebd
00000010: bc0a c6bd 0b4f 2cbd e225 083e 3104 ecbd
00000020: 5cfd 023d 3b6b 133d 2ebb b53b 475c 13bd
00000030: 873a d7bd 5f52 393d 54a7 e33c c70f 3f3d
00000040: 634f 81bd 0c7d b5bb 8e26 ba3c cd7d 283e
00000050: 34bb 9f3d fa41 7dbd aaf3 90bd a65d ab3c
00000060: e334 a1bc 9a4e 1b3d d689 bb3c 8453 5ebd
00000070: 2132 45bc ae66 f13d 65e7 02be a640 83bd
00000080: 4084 573d 3559 9abd 4f0d 9cbd ee72 253d
00000090: 9fcb 4ebd f26c 153e 5269 9d3d 47bc 5d3d
000000a0: 21d7 d13c 334a 0abe fca9 323a 59f7 46bd
000000b0: c2ed a23d 46d2 863d 3ea2 86bd 3583 883d
000000c0: 583a 27bd 6ec3 2b3d 4e60 13bd 2217 403d
000000d0: d35f 8d3d 0fd1 61bd e396 8fbd a13c 233e
000000e0: ad26 38bd 5c6a c43d 8090 e43c 008b 97bc
000000f0: cdef 1c3d f370 cbbd 0250 dcbd 7ec2 983d

encoder.7.weight f4 [64]
0.97409713 1.0046293 0.9717326 0.9776581 0.98785007 1.0261799 1.102476 0.9882913
1.0186634 0.9634468 0.9481987 0.96551174 1.0075704 0.9790609 1.0757613 0.9861307
0.9492053 0.985519 0.94400877 1.1068144 0.91781247 1.0147247 0.96503496 1.0435002
0.93491405 0.98289573 0.9818074 0.9634765 1.073033 1.0352347 0.98018897 1.010086
0.9639724 1.0258577 1.0369619 1.0260856 0.99549514 1.0408603 1.1456054 0.99781936
0.9607394 1.0684017 0.986813 0.907344 0.94956774 0.9886348 0.9814402 0.96751046
0.9176541 0.98354536 1.0259286 1.0352385 0.99036235 0.98371834 0.9882638 1.0750921
0.95998865 1.0522238 0.9647425 1.086229 0.9701792 0.9240277 0.9663744 0.9894828
00000000: 6e5e 793f b197 803f 78c3 783f cd47 7a3f
00000010: bee3 7c3f dd59 833f ef1d 8d3f a900 7d3f
00000020: 9063 823f 73a4 763f 26bd 723f c72b 773f
00000030: 11f8 803f bca3 7a3f 8cb2 893f 1073 7c3f
00000040: 1eff 723f f94a 7c3f 8faa 713f 18ac 8d3f
00000050: c2f5 6a3f 80e2 813f 880c 773f 6a91 853f
00000060: 8756 6f3f 0e9f 7b3f bb57 7b3f 65a6 763f
00000070: 2559 893f 9282 843f aaed 7a3f 804a 813f
00000080: e5c6 763f 4e4f 833f 2bbb 843f c656 833f
00000090: c5d8 7e3f e93a 853f 33a3 923f 1771 7f3f
000000a0: 04f3 753f 63c1 883f c79f 7c3f b247 683f
000000b0: df16 733f 2c17 7d3f aa3f 7b3f c4ae 773f
000000c0: 61eb 6a3f a1c9 7b3f a151 833f b282 843f
000000d0: 6388 7d3f f7d4 7b3f dbfe 7c3f 9e9c 893f
000000e0: d1c1 753f 45af 863f 5df9 763f 8d09 8b3f
000000f0: aa5d 783f 148d 6c3f 5064 773f bf4e 7d3f
