Results/FCNN_encoder_confounder_free_plots/trained_model_fold3.pth (torch, 600778 bytes, 34 tensors)

encoder.0.weight f4 [256, 371]
000000 9d 0b 26 bd 06 19 09 bd e4 c9 35 bd 49 e9 14 bc
       -0.04053842 -0.03347113 -0.04438199 -0.009088823
000010 98 0e 5e 3d 3a 69 f8 ba 34 4e b4 bc 07 d3 c2 bb
       0.054213136 -0.0018952258 -0.022009946 -0.0059455666
000020 7d b0 b2 bd 9e 04 48 3d 4f 07 4a 3d 37 e0 37 3d
       -0.08725069 0.04883253 0.049323376 0.044891562
000030 f4 d3 8a 3c 0b 90 bb bc 43 ee cc 3c 84 96 da 3c
       0.01694677 -0.022895833 0.025015956 0.0266831
000040 ea 4c 00 bd bc 9b f1 3c 78 15 57 bc 9e 5d 7e 3d
       -0.03132335 0.029493205 -0.013127677 0.062101
000050 e7 84 86 3d 0c 2b 2b 3d d8 a9 19 bd 42 54 b0 3d
       0.06568318 0.0417891 -0.03751549 0.08609821
000060 e0 ba ed 3c 66 85 72 bd eb 0c 8f 3c 3e 54 99 3b
       0.029019773 -0.05920925 0.017462214 0.004679232
000070 69 8c 73 3d 7a 4f 19 3d 1d c7 35 bd a9 dd 32 3d
       0.059460077 0.03742931 -0.044379342 0.043668423
000080 b5 3e 2f bc 42 ef 2a bd 74 fa 27 3d 47 e4 b7 3c
       -0.010696103 -0.04173208 0.041010335 0.022447718
000090 76 72 c5 bb fb 52 e9 3d f5 5b 09 3d 38 64 7a bb
       -0.0060256077 0.113927804 0.033534963 -0.0038206708
0000a0 b5 24 1c bd a1 2b d5 3c a5 2d f0 bc a4 cd 6f bc
       -0.038120944 0.02602178 -0.02931864 -0.014636431
0000b0 8f 32 37 3d 0d 93 d0 bc 3c 40 db 3c f2 36 70 bc
       0.04472595 -0.025460744 0.026764028 -0.0146615375
0000c0 ab 96 ab 3b ea ba 17 bd 47 bf 8f bc 90 e7 3d bc
       0.005236467 -0.03704349 -0.017547263 -0.011590853
0000d0 2d 75 4e bd f9 2f 13 bd 49 a8 b6 b9 51 ce 5c 3c
       -0.050404716 -0.035934422 -0.00034839127 0.013476924
0000e0 1e ad f3 bb 9b 13 cc 39 0d 22 04 bc 17 24 31 bd
       -0.0074364087 0.0003892452 -0.008064759 -0.04324731
0000f0 75 1c f4 3c 46 11 62 3d 51 9f ed bd cd 9d 87 bc
       0.029798726 0.055192254 -0.11602653 -0.016554737
000100 93 63 23 3d 6a 1a f8 bc a3 fa 15 3d a9 24 ca 3c
       0.039889883 -0.030286033 0.03661598 0.024675684
000110 7a 27 9b 3b ab 72 02 3c 25 13 07 3c 2e d8 32 3d
       0.0047349306 0.007961909 0.0082443105 0.043663196
000120 d0 9e 9b 3b 1f 47 c3 3c b6 35 54 3d df 43 7d bc
       0.0047491565 0.023837624 0.051809035 -0.015458076
000130 99 e6 4f 3c 31 10 33 bc 28 a9 7f bd 9a 0c a5 bc
       0.012689256 -0.010929153 -0.06241718 -0.02014761
000140 0c 73 46 bc 4f dd 89 3c a5 2b a3 bc 55 48 59 3d
       -0.01211239 0.016829161 -0.019918272 0.053047497
000150 c3 71 aa bc 66 8a 66 bc 52 e9 32 3d a3 bf 7e 3d
       -0.020806199 -0.014071083 0.043679543 0.062194478
000160 78 08 33 bc 48 bf d4 ba ec b5 67 3b a5 e1 0b 3d
       -0.010927312 -0.0016231323 0.0035356237 0.03415074
000170 7d 0e f5 3a e1 9b 8b bd 07 be 77 3d 61 34 f5 bc
       0.0018696334 -0.06816841 0.06048396 -0.029932203
000180 a1 89 28 3d a4 03 73 bd ee 89 05 bd 91 a0 0f bd
       0.04114688 -0.059329644 -0.032602243 -0.035065237
000190 b0 f8 27 3c d0 49 3c 3d 89 b7 08 bd 11 53 a5 3c
       0.010252163 0.04596883 -0.033378158 0.02018121
0001a0 d5 ea 73 bc d6 df 1c 3d 63 8c dd bc f4 62 4e 3c
       -0.014887531 0.038299404 -0.02704448 0.012596834
0001b0 c6 03 1a bc 23 e8 3b bd 28 40 29 3d dd 37 d7 3c
       -0.009400314 -0.04587568 0.04132095 0.026271755
0001c0 d5 1a 1a 3d cb a8 75 bc df d3 9a 3c 17 c4 5b bc
       0.037623245 -0.014993857 0.018899856 -0.013413451
0001d0 5d 1a 14 bd 49 9c c0 3b 45 c1 cb bc f6 5c ae 3d
       -0.036157954 0.0058780056 -0.024872432 0.08513825
0001e0 e6 f7 fb 3c 01 60 3b 3d 5c 8e 2a 3c cd 67 5d 3c
       0.030757856 0.045745853 0.010409918 0.013513518
0001f0 4b 1f a3 bc 3b fd 31 3d 02 97 a4 3b 16 24 76 bd
       -0.019912383 0.04345439 0.0050228843 -0.060093008
000200 fe 0d 0a 3c 44 46 7d bd 19 e0 10 3d 85 09 17 3d
       0.008426188 -0.06183459 0.035369966 0.036874313
000210 ea 4d e6 3c 13 10 8c 3b a1 bb ab bd d5 4d 59 bd
       0.028113324 0.004274377 -0.08385397 -0.053052742
000220 e3 94 32 3c 28 e7 99 3c 04 38 31 bd e9 f6 89 3d
       0.010899755 0.018786982 -0.04326631 0.067365475
000230 02 43 8c bb 04 ab 5a bc 0b b1 36 3d 4e 01 09 bd
       -0.004280449 -0.013346437 0.044602435 -0.03344851
000240 2e c2 5c bc 69 97 9f 3d fb dd 66 3d e3 68 0c 3c
       -0.01347403 0.07792551 0.05636404 0.008569929
000250 05 7e 7d bc 1a 04 be bc 7a 2b f2 bc 46 b6 ef 3c
       -0.01547194 -0.023195315 -0.029561747 0.02926172
000260 be ee 97 bd 1c 9f 55 bc 3e 93 99 3c f7 73 b6 bc
       -0.07418583 -0.013038423 0.018746968 -0.022272093
000270 9a 0d 47 3d be f4 a6 3c 45 69 52 3c 72 7c 1a bd
       0.048596956 0.020380374 0.012842481 -0.037716337
000280 6d 7a e5 bc cc 64 a3 bc 63 f2 04 3c 02 a8 36 bb
       -0.028012479 -0.019945525 0.00811443 -0.0027871137
000290 aa 06 40 3d 3a 4e e5 3c 7c f8 42 3d 70 4f 1d 3c
       0.046881355 0.027991403 0.047600254 0.009601459
0002a0 92 72 23 3c c9 32 bb 3c e7 b5 34 3d 45 f5 3b bd
       0.009976046 0.022851365 0.044118788 -0.045888204
0002b0 a7 39 57 bc 47 f0 5b 3d 2c e2 b4 bc e5 81 27 bd
       -0.013136304 0.053695943 -0.022080503 -0.04089536
0002c0 fb f7 19 3d f7 32 0a 3d be d1 7f 3d 6b 31 8c bc
       0.03759001 0.03374001 0.062455885 -0.017113408
0002d0 7e d9 0a 3d 28 df 0f 3d 07 2a a0 3b ff 06 76 3d
       0.033898823 0.035124928 0.0048878225 0.060065266
0002e0 b6 24 4a bd 0c 12 a0 bc 7c 9b 5b bc 16 65 32 bc
       -0.049351417 -0.019539855 -0.01340377 -0.010888359
0002f0 85 b2 59 3c 18 c9 2a bd f3 25 85 bd d2 11 33 bd
       0.013287191 -0.041695684 -0.06501379 -0.043718167
000300 56 f1 81 3b 68 42 11 3d 0f 06 b7 3d b9 a9 45 bd
       0.003965537 0.03546372 0.089367025 -0.048257563
000310 7c 2e e7 ba 1d dc 95 bb be 33 76 3d c9 49 94 3d
       -0.0017637755 -0.0045733587 0.06010794 0.07240636
000320 7a 29 0e 3d 68 06 04 bd b3 22 90 bc ad b7 8a 3d
       0.034707524 -0.032232672 -0.01759467 0.067733146
000330 93 3a 7b 3c 5c 74 24 3d a1 4d fa bc d4 dd 59 bb
       0.015333789 0.04015003 -0.030554594 -0.0033243792
000340 7e 00 6d 3d 02 bd 40 bc dc 00 20 bc dc 0a 0d bd
       0.057861798 -0.011763813 -0.00976583 -0.034434184
000350 86 b1 0b bc 58 20 90 3b 3b 59 a4 3c 8f ce fd bb
       -0.008526212 0.004398387 0.02006208 -0.007745571
000360 40 1a 92 3d c4 eb 9e 3c a7 fc 51 bd cd a8 d7 3c
       0.07133913 0.019399531 -0.05126634 0.026325608
000370 e9 fb 1a 3d 40 af 16 bd 9c c1 4c 3d 03 4e 01 bc
       0.037837896 -0.036788225 0.049989328 -0.007892135
000380 7e d2 a0 b9 34 a3 0f 3d 06 1b 13 3c 20 18 03 3d
       -0.00030674407 0.035067752 0.008978611 0.03200543
000390 34 34 ba bc 6b bc 1e bb bf 56 ce bb 58 64 c8 bd
       -0.02272997 -0.0024221193 -0.006296962 -0.09784764
0003a0 68 86 0d 3d db 7d f3 bc 3d 35 b8 3c 43 f3 dd 3c
       0.034552008 -0.029723099 0.022486323 0.027093535
0003b0 57 3b 77 bc a3 3b 11 bd 73 13 2a 3d f0 33 70 bc
       -0.015089831 -0.035457265 0.041522454 -0.01466082
0003c0 5d 2c 8b bc 1c 92 31 bb fe 7f 34 3d 17 64 17 bb
       -0.016988927 -0.0027095145 0.044067375 -0.002310043
0003d0 0e 80 85 bd 79 e0 02 3c a8 65 ac bc ce d1 5c bc
       -0.06518565 0.007988089 -0.021044567 -0.013477756
0003e0 d3 8d 80 bb be 5c 03 3c b1 88 71 bd 79 d2 9f bb
       -0.0039231568 0.008017717 -0.05896825 -0.004877385
0003f0 9d 4a ea 3c 26 07 18 bd e8 a9 5c 3d 37 89 3e bc
       0.028600032 -0.037116192 0.053872973 -0.011629394

encoder.0.bias f4 [256]
000000 30 c8 89 bc 49 1f 87 3b b9 29 4c 3d 5c 04 3b bd
       -0.01681909 0.0041236025 0.049844477 -0.045658454
000010 ce 78 ed bc 69 1c 46 bd 86 10 52 3d 60 31 c0 bb
       -0.028988268 -0.048366938 0.05128529 -0.005865261
000020 59 43 14 bd 59 bf 9c 3c 64 9a d2 bc 22 a7 e7 bc
       -0.03619704 0.01913421 -0.025708385 -0.028277937
000030 0b 0f 79 3d 79 12 0e bd 35 05 16 bd 99 2b 36 3d
       0.06080536 -0.034685586 -0.03662606 0.04447517
000040 7a 4c ba bd 89 6f 32 3c 2e fb f0 bb 5b 31 b2 3c
       -0.09096618 0.01089085 -0.0073541617 0.02175205
000050 f3 66 ae ba 1d 5b 88 bc 3e 5a 20 3c fb 9e c6 bd
       -0.0013305828 -0.016645009 0.00978714 -0.09698292
000060 a7 c8 07 3d d9 93 2c 3b fe 0d 30 bd b8 bc 6b bd
       0.03315034 0.0026333241 -0.042982094 -0.057553023
000070 a1 ed 0c bc 65 54 65 3c 92 8c 67 3b 49 39 54 3d
       -0.008601577 0.013997172 0.003533159 0.051812444
000080 ea 6b 57 bc e4 d6 a0 bc 41 38 2c bd 28 57 2a bd
       -0.013148287 -0.019633718 -0.042045835 -0.041587025
000090 2b 82 9c bd a6 f8 1f 3d b8 77 99 bd b2 40 11 3d
       -0.07642015 0.03905549 -0.07493538 0.03546209
0000a0 b2 8e 0f 3d 3d 15 bf bc b5 58 88 bc 99 f5 df bc
       0.035048194 -0.023325557 -0.016643861 -0.02733879
0000b0 6f 65 f7 3b 44 ae 20 bc e1 7b 71 bd ee e0 c5 bb
       0.0075499336 -0.009807173 -0.05895603 -0.0060387766
0000c0 fb b1 9e 3d 0d 12 f6 3c 69 84 4c 3d b5 02 a4 bc
       0.07748791 0.030037904 0.049930964 -0.020020822
0000d0 f6 84 27 3d dc 6a dc 3c 43 75 54 3d b4 ad 06 bd
       0.040898286 0.026906423 0.051869642 -0.0328805
0000e0 07 a9 5a bb f5 99 26 bd 16 44 f2 bc 07 d0 73 3d
       -0.0033364908 -0.04067417 -0.029573482 0.059524562
0000f0 49 46 7a 3c 90 5a 69 bd 9c fa 30 3d 5e f3 0b bd
       0.015275546 -0.056971133 0.04320775 -0.03416764
000100 9f 07 25 3d a6 50 a1 3b 15 49 e2 bc e2 98 4a bc
       0.04029047 0.004922944 -0.027622739 -0.012365552
000110 36 16 58 3d ae 6e 14 bc a0 0b df bb a1 ed a9 bb
       0.052755557 -0.009059591 -0.0068068057 -0.0051857983
000120 07 2d ab bd e1 c1 0d bd 31 d7 1f bb f0 35 3d bd
       -0.08358198 -0.034608725 -0.0024389739 -0.046194017
000130 6c dc 8e 3c 81 ff 0b bd 8d a9 82 3d 03 cd 11 bb
       0.01743909 -0.034179214 0.063799955 -0.002224744
000140 45 e4 6e 3d 7a 60 49 bd ab 00 c4 3c 05 c0 49 bd
       0.058323164 -0.049164273 0.0239261 -0.04925539
000150 7e aa 75 bd 6f 89 65 bd a7 f9 27 3d 9e 4b 59 bd
       -0.059977047 -0.05603927 0.04100957 -0.05305063
000160 4c 3e 95 3b e9 fb da bb 1d f5 b2 36 a1 6e b1 bc
       0.0045545455 -0.006682862 5.3333483e-06 -0.021659197
000170 fc fd 21 3d c8 2f 7a 3d ae 99 4d bc 08 67 db 3c
       0.03954886 0.061080724 -0.012548847 0.026782528
000180 9a 60 0d 3d 4f 08 41 bb 18 c8 1c bd 03 ab 44 bd
       0.034515955 -0.0029454415 -0.03827676 -0.048014652
000190 14 7b 8a bd 87 5b 54 bd 74 0f e0 3c f0 cb b8 3a
       -0.067617565 -0.0518451 0.027351119 0.0014098864
0001a0 14 d9 3e 3c b4 d6 2e bd 62 ab 39 bd 7b b4 1a 3c
       0.011648435 -0.042685226 -0.04532946 0.009442444
0001b0 b7 1d 83 bc cd f7 30 bd fd 45 03 3d 4d e5 75 3d
       -0.01600538 -0.04320507 0.032049168 0.06003313
0001c0 59 92 ad bc 76 95 01 bd 09 a1 74 3d 2e 42 a9 3c
       -0.021187948 -0.031636678 0.059723888 0.02066144
0001d0 44 64 2b 3d a7 2d 3f bd c6 82 3e bd 1f 3f 18 3d
       0.041843668 -0.046674397 -0.046511434 0.037169572
0001e0 b4 cf f4 3b 8b 43 2e 3d 36 d9 f7 bb 1f e5 52 3c
       0.007471049 0.042544883 -0.0075637354 0.01287201
0001f0 a5 c4 2a bd 63 5f 4f 3d 58 f9 b9 bb 3c 45 80 3d
       -0.04169144 0.050628077 -0.005675476 0.062632054
000200 98 62 a6 bd e0 e1 a1 3c 6c 5c b3 3c 9a c2 46 bb
       -0.08124274 0.019761026 0.021894656 -0.0030328394
000210 6f c9 1a bd a1 34 0d bd 74 6a 0e 3c 18 52 3c bc
       -0.03778976 -0.03447402 0.008692373 -0.011494182
000220 c1 50 c9 3c 09 64 f4 bc e7 ca 1f 3d 86 3f 82 3b
       0.02457464 -0.029832857 0.039011862 0.0039748577
000230 20 86 0a bd 34 ff c2 bc 81 d9 3e 3d 2d 35 bd bc
       -0.033819318 -0.023803331 0.046594147 -0.023096645
000240 5b 46 88 bc 70 18 fb ba f7 6d 8f ba 03 65 af 3b
       -0.01663511 -0.0019157063 -0.0010942806 0.0053526177
000250 f7 65 47 bd 92 ab 17 bd fc ec 9c 3b 2e ed 71 3d
       -0.048681226 -0.037028857 0.004788993 0.059064083
000260 33 87 40 3d c6 c7 2c bd 25 98 9d 3d 0d f5 8f 3d
       0.047003936 -0.042182706 0.07695035 0.070291616
000270 37 21 07 bc 76 e6 48 bd 19 65 0b 3c d8 e4 37 bd
       -0.008247665 -0.04904791 0.00850799 -0.044895977
000280 a0 79 71 3d 16 50 1f 3c 1d ca 3a bc 55 4f 80 bc
       0.05895388 0.009723684 -0.011400727 -0.015662828
000290 a7 a1 16 bd b6 15 a7 bc 3a fb 56 bd 3a 7d 74 3a
       -0.036775257 -0.020396095 -0.052485682 0.00093265215
0002a0 e5 56 0b 3d 76 60 13 3b 2e 2b 3a 3d 72 56 b3 3c
       0.034018416 0.0022487915 0.045451336 0.021891806
0002b0 7f 3d 96 bc 0b 2d a9 3b 5e 6c f3 3c ac f7 b5 bc
       -0.01833987 0.0051628402 0.02971476 -0.022212826
0002c0 c9 bb 1c bc 7b b2 03 3d 1c 8d 10 bd 92 06 2c bd
       -0.009566256 0.032152634 -0.035290822 -0.041998453
0002d0 35 35 5b 3d 36 32 f5 bc ec 10 15 3d fa 77 15 bd
       0.05351754 -0.029931169 0.03639309 -0.03649137
0002e0 ea f9 22 3b 1c 18 2a bd df 43 b6 3c 76 87 ea 3a
       0.0024868199 -0.0415269 0.02224916 0.0017893154
0002f0 56 44 22 3a 39 df ca bc ff b2 8e 3b a4 57 cd 3a
       0.00061899924 -0.024764644 0.004354834 0.0015666378
000300 4a 85 5a 3d 64 20 43 bd 43 78 f2 3c c2 48 01 3d
       0.05334977 -0.047638312 0.02959836 0.031563528
000310 0f fe 28 3c 6c 95 cd bc 77 33 0e 3d 34 ce f7 3c
       0.010314479 -0.025095664 0.03471705 0.030249692
000320 e8 ba 1c 3d 40 7c d5 ba d8 df 6d bc f8 fc e3 bc
       0.038264185 -0.001628764 -0.014518701 -0.027830586
000330 6f bc 2f 3a 03 7b 61 3d 62 59 f7 bc 6c fc 90 3c
       0.0006703799 0.055048954 -0.030193988 0.01769849
000340 a7 15 21 bd db e6 c0 3c aa cd ca bb a2 f8 6d 3d
       -0.03932729 0.02354758 -0.006189068 0.058098443
000350 df 2b 0a bd b3 36 f8 bc ad b2 e0 3c f6 ec 9c bc
       -0.033733245 -0.03029952 0.02742895 -0.01915596
000360 80 9f 07 3d 11 08 79 3c a7 e8 b9 3c 34 80 11 bc
       0.033111095 0.015199677 0.022693945 -0.008880664
000370 31 f8 2f bd a5 34 ad 3b b9 91 cc ba a2 db c5 3b
       -0.042961303 0.0052858167 -0.0015607394 0.006038145
000380 e8 46 4d bd 61 ea b2 3b a8 bc b1 bd 20 8c 51 3c
       -0.05011645 0.005460069 -0.086785614 0.012789756
000390 1d db 58 bd c3 97 02 3c 2c 28 b4 3c bb d5 bb bc
       -0.052943338 0.007970753 0.021991812 -0.022929063
0003a0 6f 10 f9 3c f2 07 87 bb 1e 05 9e 3d 51 82 a4 bc
       0.030403344 -0.00412082 0.0771582 -0.020081671
0003b0 c6 91 e0 3c 9d 40 cb 3d b1 9e 4c bc 74 9a 14 bd
       0.02741326 0.099244334 -0.012489007 -0.03628011
0003c0 f6 0a 8d bd c7 6f 5a 3d de 50 4e bd b8 33 9d 3a
       -0.06886856 0.053329255 -0.05037009 0.0011993563
0003d0 b1 d6 2d bd c8 6d a6 bc 10 78 21 bc a8 a7 f9 3c
       -0.042441074 -0.02031602 -0.009855285 0.030475453
0003e0 41 00 a2 bb 1f 84 1c bd 69 ef 93 3c b2 db 17 bc
       -0.004943878 -0.038211938 0.018058496 -0.009268688
0003f0 fd e7 2e bd 36 28 f7 3c 91 27 51 bd b2 49 81 3c
       -0.04270171 0.030170541 -0.051063124 0.015782211

encoder.1.weight f4 [256]
000000 90 d6 77 3f 71 bc 80 3f 1d d2 80 3f 91 6a 8f 3f
       0.9681177 1.0057508 1.0064121 1.1204396
000010 7c bd 7b 3f 4d 60 6f 3f d8 44 81 3f 2b b3 82 3f
       0.98336005 0.9350632 1.0099134 1.0210928
000020 50 88 6b 3f 15 c2 7e 3f 64 6f 7b 3f e9 d4 82 3f
       0.9200487 0.99514896 0.98216844 1.0221225
000030 9c a7 82 3f 4a b9 86 3f 3e 16 7d 3f 99 b6 7d 3f
       1.02074 1.0525296 0.98862064 0.99106747
000040 5a b3 6f 3f 20 96 7b 3f 29 ac 7a 3f 4a da 84 3f
       0.93633044 0.9827595 0.97918946 1.0379117
000050 ec 0b 80 3f 7f 8a 73 3f c4 8f 7c 3f 5b 49 7d 3f
       1.0003638 0.95133203 0.9865687 0.98940057
000060 9b 19 7c 3f fa 70 7c 3f 56 98 84 3f 15 24 7b 3f
       0.9847657 0.9860989 1.0358989 0.9810193
000070 81 e0 80 3f 00 27 82 3f 77 6f 80 3f a5 27 80 3f
       1.0068513 1.0168152 1.0034016 1.0012099
000080 84 7a 73 3f ba d6 7d 3f 9e bb 79 3f 61 2e 80 3f
       0.9510882 0.9915577 0.97551906 1.0014154
000090 2c 9c 7c 3f fc bc 81 3f 29 fb 7c 3f bd 68 81 3f
       0.986758 1.0135798 0.9882074 1.0110089
0000a0 ec 09 81 3f 18 2f 7d 3f df b9 79 3f 0b 1e 7e 3f
       1.0081153 0.98899984 0.9754924 0.9926459
0000b0 ba 0d 7b 3f 46 87 82 3f ab f9 70 3f e5 cb 7f 3f
       0.9806782 1.0197532 0.94130963 0.99920493
0000c0 af 1d 80 3f c2 0c 81 3f b2 b3 86 3f 84 cc 85 3f
       1.0009059 1.0082018 1.0523589 1.0453038
0000d0 ac e6 82 3f ad 81 81 3f 10 62 80 3f 15 23 80 3f
       1.0226645 1.0117699 1.0029926 1.0010706
0000e0 69 9c 78 3f 71 59 76 3f 09 21 7a 3f 3c c6 86 3f
       0.9711366 0.96230227 0.9770666 1.0529246
0000f0 a7 82 87 3f ff c2 7f 3f 81 d4 7c 3f 02 42 82 3f
       1.0586747 0.99906915 0.98761755 1.0176394
000100 aa f0 88 3f ce 1c 7d 3f fd 00 77 3f 4d e9 80 3f
       1.0698445 0.9887208 0.96485883 1.0071198
000110 9c 3a 86 3f c3 6c 7f 3f b1 83 82 3f ce 31 9d 3f
       1.0486636 0.9977533 1.0196439 1.2280824
000120 19 8c 74 3f f2 d1 81 3f 79 d3 7a 3f 48 ad 86 3f
       0.9552627 1.0142195 0.9797893 1.0521631
000130 00 ec 7f 3f 14 4c 83 3f e4 d9 8a 3f d7 0e 80 3f
       0.9996948 1.0257592 1.0847745 1.0004529
000140 37 1d 76 3f bf 79 7d 3f 7d 73 82 3f 29 87 82 3f
       0.9613833 0.99013895 1.0191494 1.0197498
000150 6d dc 72 3f d5 87 7c 3f 05 db 86 3f 26 a9 73 3f
       0.94867593 0.98644763 1.053559 0.95179975
000160 77 d9 80 3f b4 46 85 3f a1 a5 7e 3f db 6d 76 3f
       1.0066365 1.0412202 0.9947148 0.96261376
000170 f2 58 83 3f 32 55 82 3f ca b9 81 3f 94 46 73 3f
       1.0261519 1.018225 1.0134823 0.9502957
000180 3f 0d 88 3f 07 f8 81 3f 9d 53 80 3f 27 5d 78 3f
       1.0629042 1.0153817 1.0025517 0.9701714
000190 72 c3 6e 3f 0a d3 7f 3f fa 48 82 3f a3 71 73 3f
       0.93266976 0.99931395 1.0178521 0.9509527
0001a0 4d d7 7b 3f ec d1 78 3f fd 16 80 3f 5f c3 7d 3f
       0.983754 0.97195315 1.0007015 0.9912624
0001b0 43 66 7e 3f 60 08 78 3f be 56 81 3f 82 0f 98 3f
       0.9937479 0.9688778 1.0104597 1.1879733
0001c0 22 a8 89 3f b5 e2 81 3f 68 0a 89 3f cb 7a 7c 3f
       1.0754435 1.014731 1.0706301 0.9862487
0001d0 d0 5e 79 3f 66 6c 76 3f 43 24 80 3f 79 36 79 3f
       0.974103 0.9625915 1.0011066 0.97348744
0001e0 12 6d 8b 3f be 79 81 3f cf 3b 7c 3f 8b 65 80 3f
       1.0892661 1.0115278 0.9852876 1.0030988
0001f0 b2 81 80 3f 7e 84 85 3f 2a e2 67 3f b7 26 96 3f
       1.003958 1.0431058 0.90579474 1.1730565
000200 8d a9 7f 3f 65 f3 7c 3f e1 06 82 3f 4c 78 7c 3f
       0.9986809 0.9880889 1.0158349 0.9862106
000210 c8 39 7a 3f 33 7d 83 3f 34 b6 7c 3f 4e c8 7e 3f
       0.9774442 1.0272583 0.9871552 0.9952439
000220 e0 76 77 3f 4f 15 81 3f e7 1a 90 3f 16 11 7c 3f
       0.96665764 1.0084628 1.125821 0.9846357
000230 60 3a 80 3f 06 76 82 3f 59 94 94 3f ad 22 72 3f
       1.0017815 1.0192268 1.1607772 0.9458416
000240 20 87 7e 3f 1d 34 7f 3f 5a fe 6d 3f 3d cd 7d 3f
       0.99424934 0.99688894 0.92966235 0.99141294
000250 6f 41 6a 3f 4f 01 7f 3f dd ee 82 3f 6d ef 75 3f
       0.91506094 0.9961137 1.0229145 0.9606846
000260 27 8c 7e 3f 2d 30 7e 3f 02 27 85 3f 29 46 85 3f
       0.99432606 0.9929226 1.0402529 1.0412036
000270 56 13 7e 3f 01 68 7b 3f 55 3a 83 3f 79 e7 7c 3f
       0.99248254 0.9820557 1.0252177 0.987907
000280 02 97 83 3f dd 26 86 3f c4 e6 7d 3f f0 d4 82 3f
       1.0280459 1.048061 0.99180245 1.0221233
000290 13 26 80 3f b1 ba 7c 3f 56 fc 82 3f 66 23 80 3f
       1.0011619 0.9872237 1.0233257 1.0010803
0002a0 6b 34 81 3f c1 d1 75 3f ec fd 86 3f 3e f0 70 3f
       1.0094122 0.96023184 1.0546241 0.9411658
0002b0 e2 e0 80 3f 1c 4d 70 3f 5a ef 7b 3f 27 43 80 3f
       1.0068629 0.9386766 0.98412097 1.0020493
0002c0 e1 47 76 3f 78 6c 82 3f fc a4 7a 3f 7c 92 70 3f
       0.9620343 1.0189352 0.97907996 0.9397352
0002d0 d5 3b 7e 3f 76 a6 82 3f 2c 7c 7d 3f 8a 1a 7a 3f
       0.99310046 1.020705 0.99017596 0.97696745
0002e0 27 71 7f 3f fa 45 82 3f 18 67 72 3f f6 30 7d 3f
       0.9978203 1.0177605 0.9468856 0.98902833
0002f0 7c d8 79 3f 71 2d 7a 3f 29 0e 7e 3f 12 bc 82 3f
       0.97595954 0.9772559 0.99240357 1.0213645
000300 48 91 80 3f 64 85 82 3f 38 fe 85 3f b0 cf 85 3f
       1.0044336 1.0196958 1.0468206 1.0454006
000310 02 ce 7b 3f eb 1a 89 3f 3e 07 75 3f f0 58 82 3f
       0.9836122 1.071134 0.95714176 1.0183392
000320 92 ff 72 3f 6d 75 7d 3f ae af 7c 3f fe 6e 7d 3f
       0.9492122 0.990073 0.98705566 0.98997486
000330 b6 49 76 3f e7 fd 83 3f 8e 66 75 3f 21 d9 80 3f
       0.96206224 1.031186 0.9585961 1.0066262
000340 8f df 82 3f 97 5e 78 3f 9c a2 75 3f 65 55 89 3f
       1.0224475 0.9701933 0.9595125 1.0729185
000350 93 ca 81 3f f3 0f 8f 3f f8 68 86 3f ed 57 7e 3f
       1.0139946 1.1176742 1.0500784 0.99352914
000360 a9 56 80 3f 08 a2 7b 3f d7 50 82 3f b7 38 7b 3f
       1.0026447 0.98294115 1.018092 0.98133415
000370 c6 df 7e 3f d4 16 7c 3f 5f 8d 7d 3f fb bd 83 3f
       0.995602 0.9847233 0.9904384 1.0292352
000380 4b a9 75 3f be de 80 3f 6a c3 79 3f 52 75 81 3f
       0.95961446 1.0067976 0.97563803 1.0113928
000390 ab 7d 7f 3f c8 a3 81 3f 47 3f 81 3f 0f 6d 77 3f
       0.9980113 1.0128107 1.0097436 0.96650785
0003a0 51 df 78 3f 11 2a 7b 3f d6 84 77 3f e9 89 85 3f
       0.97215754 0.98111063 0.96687067 1.0432712
0003b0 b8 0c 82 3f 14 1a 8e 3f 3d 3c 80 3f 33 a8 74 3f
       1.0160131 1.1101708 1.0018383 0.9556915
0003c0 1a 25 80 3f be d1 80 3f 63 71 81 3f 00 ff 7a 3f
       1.0011322 1.0064008 1.0112728 0.9804535
0003d0 a9 cb 75 3f 1d c5 83 3f 32 32 78 3f e1 34 79 3f
       0.96013886 1.0294529 0.9695159 0.9734631
0003e0 52 60 84 3f c6 17 80 3f b9 bd 87 3f e1 16 8b 3f
       1.0341895 1.0007255 1.0604774 1.0866357
0003f0 da aa a0 3f ae 8f 81 3f 29 b3 7a 3f ea ce 81 3f
       1.255214 1.0121973 0.97929627 1.014127

encoder.1.bias f4 [256]
000000 e8 92 3b bd a6 fd 63 bd 50 df ec ba 07 39 66 bc
       -0.045794398 -0.05566182 -0.0018071923 -0.014051682
000010 38 95 1d bd 41 47 8f bd b2 d3 f9 bb 87 1c f3 3c
       -0.038472384 -0.069960125 -0.007624113 0.029676689
000020 bb 82 e7 bc ae c3 85 3c 96 22 80 bc 95 27 95 3c
       -0.02826058 0.016328659 -0.015641492 0.01820735
000030 1d 07 9b bc 01 e4 ad 3c 0f cf ee bc 96 cf 82 bc
       -0.01892429 0.021226885 -0.029151468 -0.015968125
000040 cc 75 b0 bd d1 2a f6 bc 30 33 b6 bb 3b 62 b4 3d
       -0.08616218 -0.030049713 -0.0055603012 0.088077985
000050 ab ff c6 3b ae b8 26 bd 36 b1 e1 bc 34 b5 8a bd
       0.0060729585 -0.040703468 -0.027550321 -0.06772843
000060 d2 e0 19 bc a8 23 24 3c 4a b1 67 bc 31 ec 78 3b
       -0.00939198 0.010018267 -0.01414139 0.0037982578
000070 3d 59 31 3b 77 c9 ab bc ae ff 1b 3c 6f 1d 86 bc
       0.0027061247 -0.02097009 0.009521408 -0.016371457
000080 3d e8 d2 bc b8 da b1 3c 09 0b 84 bd 92 11 96 bb
       -0.025745505 0.021710739 -0.06447417 -0.0045797313
000090 73 80 3d bd bf 3c a6 bb e3 bd 34 bd 01 dd 3f bc
       -0.046265077 -0.0050731595 -0.044126403 -0.011710406
0000a0 fb fd 1f 3d d3 e2 4e bc c1 57 19 bd f7 a7 26 bd
       0.039060574 -0.012627321 -0.037437204 -0.040687528
0000b0 62 97 9d ba f7 ae e4 3b 49 df 88 bd ce 31 70 bd
       -0.0012023265 0.0069788652 -0.06683213 -0.058641247
0000c0 f9 44 ad 3c f6 59 aa bb ea 8a 98 3c 05 35 af 3c
       0.021151053 -0.0051987125 0.018620927 0.021387586
0000d0 4c 72 85 bc 63 4c 16 3d 62 39 2c bb 93 d7 29 bd
       -0.016289853 0.03669394 -0.002627932 -0.041465353
0000e0 95 fb 18 3d 5c 65 9a bc c6 44 70 bc f1 15 73 3d
       0.037349302 -0.01884716 -0.014664834 0.059347097
0000f0 b3 62 9d 3b 84 0c e5 bc a2 c3 c4 bc d4 ca 58 bb
       0.0048030256 -0.02796007 -0.024019066 -0.003307988
000100 3c ce 6c 3d 43 fc 95 3b 6c ff 22 bd d2 8d 62 3d
       0.057813868 0.004577191 -0.03979437 0.05531103
000110 25 13 53 3d e0 17 9b bc 9b c8 9e 3b c4 0f 82 3d
       0.05153193 -0.018932283 0.0048456914 0.06350663
000120 2f 08 82 bd ed 57 fb bb 1c 2a ca bc 0e 4d 99 3b
       -0.06349217 -0.0076703937 -0.024678282 0.004678375
000130 5b 53 06 bc bc 65 91 bc af 98 90 3d 6e 81 b7 bb
       -0.008198584 -0.017748706 0.07060372 -0.005600146
000140 48 26 02 bb be a2 87 ba 17 a6 8e bc 5b 91 66 bb
       -0.0019859243 -0.0010348184 -0.017413182 -0.0035181853
000150 a9 d8 4a bd 12 ed 23 bd 3c 4d a5 3c 01 a2 4f bd
       -0.04952303 -0.04002101 0.02017843 -0.05069161
000160 09 e1 2d 3c 8d f4 ea bc 19 ef bd bc 00 9e bf bb
       0.010612735 -0.028681064 -0.0231853 -0.0058476925
000170 10 0d c9 3b 0a 3e f0 3c 5b bd 92 3c 6b 84 26 bd
       0.0061355904 0.029326458 0.017912557 -0.040653627
000180 f4 f1 72 3d 3c dc 78 3c 3f 4e a6 bc b7 1e 1c bd
       0.059312776 0.015189227 -0.020300983 -0.03811523
000190 08 5b cb bd 72 1d b3 bc 18 37 ee 3c 59 ea 18 bd
       -0.09929472 -0.021864627 0.029079005 -0.037332866
0001a0 0b 56 5e 3c 7f fb ea bb e7 26 79 3b fc dc 6d bc
       0.013570319 -0.007171094 0.0038017572 -0.014518019
0001b0 91 22 e7 bc 29 a8 08 bd 35 e1 be 3b 88 a6 4f 3d
       -0.028214725 -0.033363495 0.0058251866 0.050695926
0001c0 1a 9e b5 3c cd b8 e9 bc d7 58 31 3d 4d 8a e0 3b
       0.022170115 -0.028530503 0.043297615 0.0068524242
0001d0 2e df 32 bc 20 b2 4b bd 51 00 fc bb 63 ac b6 bc
       -0.010917468 -0.04973042 -0.0076904674 -0.022298997
0001e0 19 60 9a 3d 60 90 98 bc f0 79 44 3b 8f 26 5c bc
       0.075378604 -0.01862353 0.0029979907 -0.013436927
0001f0 24 ee 65 bd de fa 91 3c 23 18 43 bd f3 35 9d 3d
       -0.05613531 0.017819818 -0.04763044 0.076763056
000200 ad 52 14 bd a3 9e af bc 39 5a 81 38 70 6f a5 bc
       -0.03621166 -0.021437949 6.1680046e-05 -0.02019474
000210 8c 42 59 bd 32 8e 92 bc aa 11 7c 3c fc a5 43 bd
       -0.05304198 -0.01789007 0.015385071 -0.047765717
000220 bc b0 ac bc 0e 13 62 3d 85 bb 37 3d 52 20 85 bd
       -0.021080367 0.055193953 0.044856567 -0.06500305
000230 88 b7 a7 3b 31 a5 a7 bc bf 91 9d 3d 60 df 84 bc
       0.005118314 -0.020464512 0.076938145 -0.016219795
000240 2f 55 9b bc fb 84 39 bc 97 86 44 bd f4 fb f5 bb
       -0.018961517 -0.011323209 -0.047979917 -0.007506842
000250 b2 31 d8 bd 4c f2 47 bd 25 ce 45 3d 60 9f 0f bc
       -0.10556354 -0.048815057 0.048292298 -0.008766025
000260 42 56 16 bc 77 1a 10 bd c1 79 e3 3c 36 c3 37 3d
       -0.009175839 -0.03518149 0.027768018 0.044863902
000270 cb 50 e9 3b 8b 63 6e bd 53 aa 4b 3d 93 35 db bc
       0.007120227 -0.0582004 0.04972298 -0.026758945
000280 5d 6a 2b 3d fd a1 16 bd c5 6a 88 3d 00 dd e2 3a
       0.041849483 -0.036775578 0.0666099 0.0017308295
000290 68 61 fb bc 68 39 3a 3c 91 cd 19 bc 4a a0 39 bd
       -0.030686095 0.011366226 -0.00938739 -0.04531888
0002a0 4e 3b c7 bc 0e 38 d7 bc 8f a4 6c 3d 54 b4 62 bd
       -0.02432027 -0.026271846 0.057774123 -0.055347756
0002b0 dd 28 5f bd 5e 6a 86 bd f3 c9 0f bd 54 a6 1f bc
       -0.05448233 -0.06563257 -0.035104703 -0.009744246
0002c0 97 b7 f2 bc 35 b9 71 bb fe c7 0d 3d 43 78 3f bd
       -0.029628558 -0.0036884074 0.034614556 -0.04674555
0002d0 1f 91 11 3c fb 17 2a bc 53 9a a7 bb 0e 23 49 bd
       0.008884697 -0.010381694 -0.0051148324 -0.049105696
0002e0 8b 11 92 bc 50 e6 09 bd 23 3d 1c bd 67 d0 32 bc
       -0.01783063 -0.03366691 -0.038144242 -0.010913945
0002f0 15 8a 0e bd 36 d3 27 bc f1 94 19 bc 80 a9 9d bc
       -0.034799654 -0.010243228 -0.009373889 -0.019245863
000300 85 1a cb 3c 24 2b 4e 3c bf dc a8 3c 89 3a 17 3c
       0.024792919 0.012583528 0.020613072 0.009230264
000310 e7 67 39 bd f1 92 2f 3d 96 1f f4 bb 38 b4 11 3d
       -0.045265105 0.042864744 -0.0074500544 0.03557226
000320 cf d9 e9 bc 1b 5b d9 ba d7 a7 d3 3c f1 50 21 3b
       -0.028546242 -0.0016582938 0.025836868 0.0024614895
000330 d0 e1 48 bc c6 58 e1 3c ca 59 07 3a df db 71 ba
       -0.012260869 0.02750815 0.0005163221 -0.0009226184
000340 77 2b 85 bb 5d 9e 1f bc ab db d0 bc 81 ee c0 3d
       -0.0040640193 -0.009742347 -0.02549537 0.09420491
000350 c8 1d 1b 3c c7 04 74 3d 5a ac 7d 3d 24 10 9d bc
       0.00946755 0.05957487 0.061931945 -0.019172736
000360 78 9d 0d bc 3f 20 c1 bb 47 97 96 bc af f5 b1 bb
       -0.0086435005 -0.0058937366 -0.018382682 -0.005430899
000370 02 3f 66 bc 7a 79 fc bb 09 c3 09 3d 5a b1 08 bc
       -0.014053108 -0.007704911 0.033633266 -0.008343065
000380 d4 1d 5e bd 28 e0 3e bb 26 bc 29 bd 2a 03 65 bc
       -0.054227665 -0.0029125307 -0.041439198 -0.013977805
000390 fe 22 c6 bb 8a f1 8a 3c 98 74 56 38 ba 55 11 bd
       -0.006046652 0.016960878 5.1130162e-05 -0.035482146
0003a0 a8 04 8e 3a d1 ef a2 bd f7 c1 2f 3d 98 9f 16 3c
       0.0010835128 -0.079558976 0.04290959 0.009193324
0003b0 f4 d1 c1 3b e5 05 88 3d 71 5c e5 bc 13 9c 2d bd
       0.005914921 0.06641749 -0.027998181 -0.042385172
0003c0 b9 5a be bc df 6f 09 3d 4d 8c 05 3c 76 19 42 bd
       -0.02323662 0.033553954 0.008151126 -0.047387563
0003d0 8a ca 0d bd 78 12 6d bc b9 13 a4 bb fd 18 0a bd
       -0.034616984 -0.014469735 -0.005007234 -0.033715237
0003e0 29 cb 2b 3d 29 ca af bc 76 ac 6f 3d 73 dc 38 3d
       0.041941795 -0.021458702 0.05851408 0.04513211
0003f0 b0 8b 42 3d 80 a6 e8 3c f0 ca 02 bd d4 2d 98 3d
       0.047496498 0.028399706 -0.031931818 0.07430616

encoder.3.weight f4 [128, 256]
000000 54 8e 1a bd 10 65 28 bd f8 89 09 bd a2 ca 6a bc
       -0.03773339 -0.041112006 -0.033578843 -0.014330538
000010 f6 ce 93 bc 02 a2 9f bc 36 50 82 3c 92 8f 3b bd
       -0.018043023 -0.019486431 0.015907388 -0.045791216
000020 00 f1 94 bd 93 06 bd bb 37 b0 98 3c 9d b6 7d 3c
       -0.072725296 -0.005768606 0.018638713 0.015485433
000030 03 f0 e0 3b e0 80 c5 3c 53 06 8b bd 08 1d 42 3c
       0.006864549 0.024109304 -0.067883156 0.011847742
000040 a1 a7 c3 3a ae 68 83 3b cd 4b f4 bc 4e 85 c3 bc
       0.0014927277 0.0040102815 -0.0298213 -0.023867276
000050 18 a0 32 bd 98 f6 21 3d 8e 58 b7 3c 5d 52 12 3c
       -0.04360971 0.03954181 0.022381093 0.00893077
000060 c2 7b 63 3c ee 34 a1 3c 43 65 6a 3d 05 91 98 ba
       0.013884487 0.01967856 0.057225477 -0.0011639899
000070 a5 65 71 3c ba 1b 60 bd ea 83 30 bd 0f ef 35 bc
       0.014733707 -0.054713942 -0.043094553 -0.011104359
000080 bf c3 63 bd 74 ff 0b bd 73 95 2b 3d 02 61 65 3d
       -0.0556066 -0.034179166 0.041890573 0.056000717
000090 54 89 c1 bc ee 53 e5 3c c8 ea e8 3c e7 93 28 bd
       -0.023625053 0.027994122 0.028432265 -0.041156676
0000a0 df 2b eb 3c ad d3 98 bd a4 2b 92 bd 10 e6 95 3c
       0.028707443 -0.07462249 -0.0713723 0.018298179
0000b0 cf e9 55 3d 49 f1 e1 3c e2 e2 b2 3c 74 23 a9 bc
       0.05222493 0.027580874 0.021836702 -0.020646788
0000c0 84 20 3b bb 21 bb 13 bb 2b d3 f6 bc 8b 98 1f 3d
       -0.0028553316 -0.0022541957 -0.03012999 0.038963836
0000d0 49 20 93 3c d6 0c 8e 3c 75 d6 e5 3c 0a a7 88 bb
       0.01795973 0.017340105 0.028056363 -0.0041703032
0000e0 72 8d 74 3d 25 7d 8d bd 18 28 5a bd 7a f6 9b bc
       0.059705205 -0.06908635 -0.053260893 -0.019038428
0000f0 2f ca 8a ba 4c 72 0e bc be 94 ec 3c 06 01 62 bd
       -0.001058882 -0.008694243 0.02887952 -0.055176757
000100 7d b4 aa bc 9e ee 3c 3d 10 d3 97 bd 4b 3a 92 bd
       -0.020838017 0.046126 -0.07413304 -0.07140025
000110 40 cb 02 bc 7a f6 bb bc 99 af 64 bd b0 75 16 bd
       -0.007983029 -0.022944678 -0.055831525 -0.03673333
000120 98 e4 e0 3b 7a 45 d5 bb ee 05 a5 bc 7d 2d cc bb
       0.006863188 -0.0065085264 -0.020144429 -0.0062310086
000130 e6 29 95 bd 4e d2 16 3d 66 94 86 bd 59 53 7d bc
       -0.07283382 0.036821656 -0.065712735 -0.015461766
000140 9c 14 08 bc ad 1e 5d bd 48 5e 90 bd 9a b9 d5 3c
       -0.008305695 -0.053984333 -0.07049233 0.026089478
000150 6a 94 5c bd a6 d5 bc 3c 2a 0e 9e bd 54 57 f6 bb
       -0.053852476 0.023051094 -0.07717545 -0.0075177345
000160 06 18 74 bd f4 f3 b5 bc d5 b0 28 bd a9 7f 5a 3d
       -0.059593223 -0.022211052 -0.041184265 0.053344402
000170 a8 08 98 3d 5d c3 37 3b 89 6e 21 3d 05 9c 3d bd
       0.07423526 0.002804003 0.039412055 -0.04629137
000180 e3 35 19 bd ee 14 73 3c 11 c8 c5 bb 07 e0 80 3d
       -0.037404906 0.014836533 -0.0060358127 0.0629273
000190 5d 97 29 bc ab 94 60 bd 58 9a a3 3c 8e 57 d4 3c
       -0.010351029 -0.05482928 0.019971058 0.025920656
0001a0 97 a2 b3 3c 59 2c 4b 3d 7c 6f a9 3c c8 a9 80 3d
       0.021928115 0.04960284 0.020683043 0.06282383
0001b0 1c d1 52 bc 74 af 10 3d d0 78 73 bc e1 af 4e 3d
       -0.012867238 0.035323575 -0.014860347 0.0504607
0001c0 40 ad 7e 3d 1a c9 2e bb 88 7a 54 3d 05 9f ca bc
       0.062176943 -0.002667016 0.051874667 -0.02473403
0001d0 04 22 ed bc c6 e6 63 3d eb 76 47 39 f8 ac 55 3d
       -0.028946884 0.055640005 0.0001902242 0.05216691
0001e0 01 b0 01 3c 3f a5 5b 3d c9 d4 05 ba 74 fc 13 bd
       0.007915498 0.053624388 -0.0005105255 -0.03612943
0001f0 8b ef 68 bd 74 f5 36 bd 89 51 d5 bb 07 27 fa bc
       -0.05686907 -0.044667676 -0.006509964 -0.030536188
000200 f1 f4 b0 3c 44 c8 4b bd 57 64 f4 3c a4 14 78 3d
       0.021601172 -0.049751535 0.029833002 0.06056656
000210 c5 9c 40 3c 17 ef 9b 3b e9 e1 8d 3d 7a c3 da bb
       0.011756127 0.0047587263 0.069278546 -0.0066761347
000220 16 ad 90 bd 08 0d 3d 3d b7 eb d1 bc e2 37 2f 3d
       -0.070642635 0.046155006 -0.025625093 0.042777903
000230 1a ee 0d 3d 24 e7 91 3d d9 20 d0 bc d7 e7 19 bd
       0.0346509 0.07124165 -0.025406288 -0.037574615
000240 8f 39 a6 bd be 9e 10 bd 58 48 18 3d 74 4d 60 3d
       -0.08116447 -0.03530764 0.037178367 0.054761365
000250 d7 60 84 bb 9c 9b ef bb 5b 54 04 bd ad b6 9d 3b
       -0.0040398645 -0.0073122513 -0.03230701 0.0048130364
000260 d3 58 54 3c c2 47 7a 3c 38 85 a1 3c 60 0e 87 bd
       0.0129606305 0.015275897 0.019716844 -0.06594539
000270 3c 8b c0 bc a1 27 5b 3a 7e f2 7b bd ad bd 11 3d
       -0.023503892 0.0008360092 -0.061510555 0.03558128
000280 b4 c7 7a bc 33 83 83 bd 39 4a 85 3d ab 74 77 bc
       -0.015306402 -0.06421509 0.065082975 -0.015103499
000290 0c d8 d8 3c ce cb 45 bd 03 53 27 bd 1b a9 0a 3d
       0.026470207 -0.048290066 -0.04085065 0.033852678
0002a0 6f ed 84 bd 3f 60 c9 3b cf fd bb 3c d5 c6 07 bd
       -0.06490599 0.0061455066 0.022948174 -0.033148605
0002b0 e6 13 3c 3b 56 50 51 bd 23 00 7f bd b1 b6 da bc
       0.0028698384 -0.051102005 -0.06225599 -0.026698442
0002c0 3d 6d 8f 3c c5 f5 5d bd 4d de 42 bd 60 33 4a bb
       0.017508144 -0.054189462 -0.047575284 -0.0030853376
0002d0 51 4e 39 bd dd 17 8d 3c ed 68 3a 3d 99 27 91 3a
       -0.045240704 0.017223293 0.04551022 0.0011074423
0002e0 c4 e2 7e bd 26 8a e0 bc f2 52 90 bc 49 ca 94 3c
       -0.06222798 -0.027409624 -0.017617676 0.018162863
0002f0 c2 67 15 bd 45 af 12 bb c0 9f fc bc 13 5a ef 3c
       -0.036475904 -0.00223823 -0.030837893 0.029217755
000300 b3 23 9d bc 38 d4 56 3d ac 6d 40 bd 5a 1e af 3c
       -0.019182062 0.05244848 -0.04697959 0.021376777
000310 cc 11 a6 3c 6d ed c8 3c 5e 6c 66 3d ec 2d e3 3c
       0.020272158 0.024527276 0.05625569 0.027731858
000320 1f f4 09 bd 9a 9e b2 bb ee 06 98 bd 04 59 3c 3d
       -0.033680078 -0.0054510357 -0.07423197 0.04598333
000330 b4 b3 90 bb 3b 09 18 bd bd 7c a7 ba 8b c0 70 3d
       -0.0044159535 -0.037118178 -0.0012778264 0.058777373
000340 4e fc f6 bc 63 62 73 3d 72 c8 7a 3c e7 32 9b 3c
       -0.030149605 0.05942 0.015306579 0.01894517
000350 9d fd 59 3d fa ae 3f 3d fc d5 07 3d af 3e 9e 3d
       0.05322038 0.04679773 0.033163056 0.077268
000360 cd 78 36 bc 24 1b a5 3c 61 65 f8 3c 97 60 c5 3b
       -0.0111372 0.020154543 0.030321779 0.0060234773
000370 16 82 9f bd c4 8b ad 3b 7f 7b 64 bc ba 5a e1 bc
       -0.07788484 0.0052962024 -0.013945459 -0.027509082
000380 36 49 b0 3c 8a a3 a3 3c 07 1f 58 3d c2 28 33 3d
       0.021519285 0.019975442 0.052763965 0.04374004
000390 b7 ce 40 bd 84 ec 52 3c 4b 26 3b bd 85 21 9c 3c
       -0.04707214 0.0128737725 -0.045690816 0.019058952
0003a0 31 b6 0a bb f7 4d 85 bd ce 8a c6 bc 04 72 13 bd
       -0.0021165723 -0.06509011 -0.02423611 -0.035997406
0003b0 a2 df ae 3b ad 09 00 3c 1e 6c e9 3c db da 25 3d
       0.0053367177 0.007814807 0.028493937 0.04049192
0003c0 3f 24 ba 3c 93 92 13 bd 5a 80 85 bd 4d 4a a6 3c
       0.022722362 -0.036028456 -0.06518622 0.020299101
0003d0 94 75 04 3d 51 25 8b 3d c8 f5 84 bd 79 2f 8e bd
       0.032338694 0.06794227 -0.064921916 -0.069426484
0003e0 f1 dc ee 3c bc 12 0d 3d e1 2f 55 3d 2a ee b0 bc
       0.029158087 0.034441695 0.052047614 -0.02159794
0003f0 e7 6d 35 3d cd cf 86 3d c2 54 72 bd d4 3c 29 3d
       0.044294264 0.065826036 -0.059162863 0.041317776

encoder.3.bias f4 [128]
000000 93 ee 20 3d 50 fa e2 bc 8f 90 8b bd c0 7f be bc
       0.039290022 -0.027707249 -0.06814682 -0.023254275
000010 30 04 93 3d 67 b6 40 bd 29 26 aa 3c bd 3d 99 bd
       0.07178533 -0.047048952 0.02077015 -0.07482479
000020 be 34 9a 3d 6f ec 02 3d 74 68 cf 3c b6 cf 5b 3d
       0.07529591 0.031963762 0.025318362 0.053664885
000030 d5 9e 95 bc 99 1a 5d bc 95 36 95 bd 5f 66 2c 3d
       -0.018264214 -0.013495111 -0.07285801 0.042089816
000040 30 01 ce bc db c8 6a bd 0a 9d db 3a 74 f5 c2 3c
       -0.02514705 -0.057320457 0.0016755175 0.023798682
000050 87 64 c3 3c d4 14 45 3d df 23 ef 3c 5c fb 2f 3c
       0.023851646 0.048115566 0.02919191 0.010741081
000060 a4 77 a6 bc db e3 2e 3d 4f cc b7 bc 4c 13 8a 3d
       -0.020320721 0.04269777 -0.02243629 0.06741962
000070 09 88 6f 3d b0 11 7d 3d 8a 49 90 bc 3b 3f 34 bd
       0.058479343 0.061784446 -0.017613191 -0.044005614
000080 4e 63 37 bd ca d8 1f 3d 1b a3 89 3d 5e e8 cc 3c
       -0.04477244 0.039025106 0.06720563 0.025013145
000090 ed f1 1f bc cd 49 24 3d 2a 54 01 bc ee 26 ad bd
       -0.009762269 0.040109444 -0.007893601 -0.08454691
0000a0 01 fd 42 bd 78 32 bf bc 7d cb fe bc f1 1c 3e bd
       -0.047604565 -0.023339495 -0.03110289 -0.04641432
0000b0 69 4f 30 bd 28 d0 6d 3d 65 dd 8d 3d 97 0b 6f 3c
       -0.04304448 0.05805984 0.06926993 0.014590166
0000c0 25 35 4c bd e2 4d ec 3c 8b 41 98 3c 7a c7 4f 3d
       -0.04985537 0.028845731 0.01858594 0.050727345
0000d0 da 61 92 bb 10 7a 4d 3d f3 7e 27 bd 51 31 32 bd
       -0.004467231 0.050165236 -0.040892553 -0.043504063
0000e0 51 bb 38 bd d2 81 fe bc 93 a8 41 bd b9 46 f2 bc
       -0.045100514 -0.031067763 -0.047279906 -0.029574739
0000f0 50 a0 a4 3d 7f 8a d5 3c 7f 61 40 3d 24 a9 00 bd
       0.0803839 0.026067017 0.04696798 -0.031411305
000100 74 18 2d 3b 9d ec 05 3d 59 6f 4e bd 8a 6e db bb
       0.002641228 0.032696355 -0.05039916 -0.006696527
000110 10 74 57 bd 14 15 8e bc 61 89 4c 3d d4 59 7f bd
       -0.05260092 -0.017344035 0.049935702 -0.062341526
000120 3c 55 8e 3c 03 35 b4 bc 21 28 59 3d 20 d3 b8 3d
       0.017374627 -0.021997934 0.053016786 0.09024644
000130 5f 3f fc 3b 71 f5 54 3d c9 4c 01 3d ee ee ff bb
       0.007697984 0.051991884 0.03156737 -0.007810465
000140 76 00 a1 3d 4f 96 5a 3d 0c f6 5b bc 14 40 b9 3d
       0.07861416 0.053366 -0.013425361 0.09045425
000150 ea 46 58 bd 20 b4 6d 3d b3 ab 57 3b 7d cf 01 3c
       -0.052802004 0.05803311 0.0032908737 0.007923004
000160 81 91 1e 3c 1a cb d6 bc 3e 32 4e bd 34 5d ed bc
       0.0096782455 -0.026219893 -0.050340883 -0.028975107
000170 15 88 01 bd 29 4b 0a 3d d0 6d 83 3d 86 33 7e bd
       -0.03162392 0.033763085 0.064174294 -0.062060855
000180 d6 86 b0 3c 0b 8b 9d 3c 6f 32 7c ba cc 8d 28 bb
       0.02154867 0.01923134 -0.00096205523 -0.0025719283
000190 e5 ef ed 3b 08 6a 65 bc ef a8 f0 38 3e 4d 53 3b
       0.0072612637 -0.014002331 0.00011475558 0.0032242085
0001a0 18 38 59 bd bc 35 b6 3d 8d 49 d2 bc 86 58 fd 3c
       -0.05303201 0.08896968 -0.025669837 0.030926
0001b0 65 c6 8a 3c 5b 2d a2 3d 92 4a 0d 3b c8 a8 4e 3d
       0.016940305 0.07918807 0.002155934 0.05045393
0001c0 7e 99 3f bd e9 16 20 bd e3 05 7b 3c 1b 9f c0 3c
       -0.04677724 -0.03908435 0.015321228 0.023513367
0001d0 45 bc cf bb 50 c3 34 bc dc 8a 4b bc 48 ba 33 bc
       -0.006339582 -0.011032894 -0.012423243 -0.010969706
0001e0 47 ad b9 bc 49 65 ec 3c 1d 70 d1 3c cc b1 c1 3c
       -0.022665633 0.02885689 0.025566155 0.02364435
0001f0 7f 3d 5b bd d4 42 1c 3d 02 8b 0b 3d c0 53 97 bd
       -0.053525444 0.03814967 0.034068115 -0.07389021

encoder.4.weight f4 [128]
000000 69 45 7b 3f d2 3a 7d 3f 57 30 7f 3f d6 19 7d 3f
       0.98152786 0.9891788 0.99683136 0.9886755
000010 b9 fa 96 3f a3 f4 68 3f 3e ee 77 3f ac e5 79 3f
       1.1795264 0.90998286 0.96847904 0.97616076
000020 ab 63 8c 3f e0 66 82 3f 6a 54 8c 3f 2a 40 81 3f
       1.0967916 1.0187645 1.0963261 1.0097706
000030 fd 88 8c 3f 22 1c 6b 3f 7e c0 66 3f 84 ca 94 3f
       1.0979306 0.918398 0.9013747 1.1624303
000040 7f 13 7c 3f ce 29 7c 3f dc 6a 77 3f 8a 31 78 3f
       0.9846725 0.9850129 0.9664743 0.9695059
000050 7c d6 7e 3f 15 77 75 3f e1 b3 7b 3f e3 3e 9f 3f
       0.9954603 0.9588483 0.9832135 1.2441067
000060 fe b9 75 3f 57 f8 76 3f 47 17 8d 3f 57 35 83 3f
       0.95986927 0.96472687 1.1022729 1.0250653
000070 96 46 7b 3f d6 f9 8a 3f 0f 4a 86 3f dd 7f 79 3f
       0.9815458 1.0857494 1.0491351 0.9746073
000080 d1 de 7e 3f e7 aa 7d 3f b7 89 80 3f 43 39 74 3f
       0.9955874 0.990889 1.0042027 0.95399874
000090 1d 52 7b 3f 8d 15 80 3f 87 6c 71 3f 40 3a 81 3f
       0.9817217 1.0006577 0.94306225 1.0095901
0000a0 c5 47 7f 3f d0 af 71 3f 3c 7c 70 3f 37 2c 74 3f
       0.99718887 0.94408894 0.93939567 0.95379966
0000b0 58 a3 7e 3f b1 6c 7c 3f 9d 7a 7e 3f c8 c9 7a 3f
       0.9946799 0.9860335 0.99405843 0.97964144
0000c0 2d 5b 82 3f aa ff 7b 3f 97 1e 70 3f 5d bb 79 3f
       1.0184075 0.9843699 0.93796676 0.9755152
0000d0 5f c2 7d 3f 00 3c 64 3f 90 5e 80 3f 0c 0f 7b 3f
       0.9912471 0.8915405 1.0028858 0.98069835
0000e0 8c e8 7c 3f a1 74 71 3f 6a 1b 77 3f 6a 56 72 3f
       0.9879234 0.94318587 0.96526206 0.9466311
0000f0 f7 c0 80 3f 35 ff a7 3f d0 2a 80 3f 67 ec 5c 3f
       1.0058888 1.3124758 1.0013065 0.8629822
000100 43 c3 6b 3f 18 e5 a8 3f b8 c6 78 3f da 90 82 3f
       0.9209482 1.3194914 0.9717822 1.0200455
000110 22 87 7c 3f 30 c3 85 3f 49 05 81 3f 7b 9d 92 3f
       0.98643696 1.0450191 1.0079738 1.1454309
000120 66 2d 7d 3f 1b 80 79 3f 09 db 78 3f 19 fa 80 3f
       0.988974 0.974611 0.9720922 1.0076324
000130 b1 a6 8f 3f 0c c7 8c 3f d3 ea 77 3f 37 8c 75 3f
       1.1222745 1.0998244 0.9684269 0.95917076
000140 96 e6 7e 3f 8e da 70 3f f2 71 77 3f 42 45 85 3f
       0.99570596 0.9408349 0.9665824 1.0411761
000150 99 26 77 3f ba 80 73 3f c3 f0 80 3f 45 36 78 3f
       0.9654327 0.95118296 1.0073475 0.9695781
000160 33 db 78 3f ce b6 77 3f 5d 10 79 3f cf d3 78 3f
       0.9720947 0.9676331 0.97290593 0.97198194
000170 47 cb 7d 3f 65 18 93 3f 65 d7 7e 3f a7 34 7e 3f
       0.991383 1.149182 0.99547416 0.9929909
000180 67 1c 73 3f e0 5a 82 3f 69 43 78 3f 6f e8 82 3f
       0.94965214 1.0183983 0.9697786 1.0227183
000190 08 07 b7 3f 2b 44 82 3f 5a 39 75 3f 75 8e 6e 3f
       1.4299021 1.0177053 0.95790637 0.9318612
0001a0 0d c1 7d 3f 8e 3e ae 3f 8a 4f 7e 3f 7a 64 7c 3f
       0.991227 1.361284 0.99340117 0.98590815
0001b0 01 23 94 3f 0f 32 7f 3f 38 50 7c 3f b3 2d 80 3f
       1.1573182 0.9968576 0.98559904 1.0013946
0001c0 12 ea 7b 3f 8a 25 80 3f 6d 91 78 3f 2f d3 80 3f
       0.9840404 1.0011456 0.970969 1.0064448
0001d0 f1 11 7b 3f f3 c3 7e 3f a8 84 77 3f e1 bd 7e 3f
       0.9807425 0.99517745 0.9668679 0.9950848
0001e0 52 02 80 3f 63 7f 7c 3f 76 bc 75 3f 7b f7 79 3f
       1.0000708 0.98631877 0.95990694 0.9764325
0001f0 66 6f 78 3f c3 7b 9d 3f 78 77 79 3f 30 aa 7e 3f
       0.9704498 1.2303394 0.9744792 0.99478436

encoder.4.bias f4 [128]
000000 f3 aa c0 bc 88 4a 62 bd 6b ee d7 bc aa d3 db bc
       -0.023519015 -0.05524686 -0.026358804 -0.026834328
000010 2f 68 0c 3e 88 cd 8b bd 4d 44 66 bd b2 c6 12 bd
       0.13711618 -0.06826311 -0.05621748 -0.035834022
000020 f2 d8 c4 3d 8f 59 22 3c 10 32 74 3d 90 2c c4 3c
       0.096116915 0.009909048 0.059618056 0.02394703
000030 ea 41 59 3d 53 ad 32 bc 79 99 d1 bc d9 7d d1 3d
       0.053041376 -0.0109055815 -0.025585877 0.10229082
000040 fa fd 29 bd 83 ba 92 ba d1 6a 46 bd cf 62 28 bd
       -0.041501977 -0.0011194501 -0.04844171 -0.041109856
000050 ab e4 32 3d bf 19 12 bd 03 44 21 bc 6c cc 0d 3e
       0.043675106 -0.035669085 -0.009842875 0.13847512
000060 5c 8d 08 3a 58 31 25 bd ea de 84 3c 47 0e ff 3c
       0.00052090525 -0.04033026 0.016219575 0.031134738
000070 c7 ac 8b bc 0b d9 a8 3d 08 30 e6 3c a3 b2 97 bc
       -0.01705016 0.08244523 0.028099075 -0.018517798
000080 9a 60 62 bc cc 44 84 bc 1f 0c 0a 3d f0 52 9c bc
       -0.013816977 -0.016146086 0.033702966 -0.019082516
000090 4d 92 84 bd 82 4c a9 bb f2 fc c6 bc ec c7 6e bd
       -0.06473217 -0.005166591 -0.024290536 -0.05829613
0000a0 08 25 fe bb 40 04 a6 bd 1c 29 6e bd 86 18 2b bd
       -0.0077558793 -0.081062794 -0.058144674 -0.041771434
0000b0 a1 d7 18 bd 8e 3b c7 bb 04 96 bf 3b b7 28 fe bc
       -0.037315015 -0.0060800975 0.0058467407 -0.031025274
0000c0 5a 3b 14 bd c5 52 b6 bc be cd 81 bd 14 06 0f bd
       -0.036189415 -0.022256264 -0.0633807 -0.034917906
0000d0 3c f9 63 3d 59 11 14 bb 85 e6 5b bd c1 e7 a7 bc
       0.05565761 -0.0022593348 -0.053686637 -0.020496251
0000e0 d8 8d c5 bb a4 21 bd bc ad 68 42 bc 8d be 0b bd
       -0.006028872 -0.02308733 -0.011865777 -0.03411727
0000f0 a3 2d 32 3d bc 90 16 3e ce 19 88 ba d7 3c 53 bd
       0.043500554 0.1470365 -0.0010383667 -0.051571693
000100 30 24 89 bd f9 de f7 3c ee 84 28 bd ea 08 c4 3c
       -0.06696355 0.030257689 -0.041142397 0.023930032
000110 85 d8 6a bd 2b 1e 2b bc c5 3f 2f 3d d6 77 40 3b
       -0.057335395 -0.010444204 0.042785425 0.0029368303
000120 b7 07 78 bc ae b6 c4 3b 1c 3c 52 3c 48 6a f8 3c
       -0.015138558 0.0060032224 0.012831714 0.030324116
000130 9a e4 de 3d f9 0b c4 3d 92 e9 ef bc 6a bd ca bc
       0.10883446 0.09572596 -0.02928618 -0.024748523
000140 61 92 f2 3c 5a 12 92 bc 4d f6 c1 bc 9c 61 27 3d
       0.029610815 -0.017831016 -0.023677016 0.040864572
000150 39 29 22 bd 82 14 dd bc c1 5e 3c bd 28 6b 43 bd
       -0.039590094 -0.026987318 -0.045988802 -0.047709614
000160 9b 81 f9 ba a1 3a 37 bd 85 2f 7c 3a 1f 41 be bd
       -0.0019035818 -0.044733647 0.0009620118 -0.092897646
000170 1d 15 05 bd b0 a2 dd 3d 3d 84 4a 3d a5 ad 5f bd
       -0.03249084 0.10822046 0.04944252 -0.05460896
000180 bd 4f 10 bd a9 6b ae 3b fb ea 40 bd 2b eb 0b bd
       -0.035232294 0.0053228927 -0.047099095 -0.03415982
000190 b9 c5 d6 3d 56 6f 30 bd c0 1f 26 bd 9a cf 40 bd
       0.10486931 -0.04307493 -0.040557623 -0.047072984
0001a0 83 c8 81 bc 24 17 d6 3d 9c f0 28 bc ff 8d 03 bb
       -0.015842682 0.104536325 -0.010311272 -0.002007365
0001b0 ad 10 9c 3d 8b c3 60 3c c8 1c 36 bd b1 0b a8 bc
       0.07620368 0.013718496 -0.04446104 -0.020513387
0001c0 20 74 af 3b 6e 50 89 bc 98 63 5a bd 79 69 6c bd
       0.0053544194 -0.016761985 -0.053317636 -0.057717774
0001d0 00 cb 2b bd 28 cb 82 bc 8d 11 da bc 3d b2 36 bd
       -0.041941643 -0.015966013 -0.026619697 -0.044603575
0001e0 bb 71 3a bd 57 51 13 bd 7c fe 82 bd bb d1 42 bd
       -0.045518618 -0.035966244 -0.06396195 -0.047563296
0001f0 33 05 e9 bc 8b be df 3d 42 76 2f bd d2 09 27 bd
       -0.028444862 0.10925015 -0.04283739 -0.04078085
