Results/FCNN_encoder_confounder_free_plots/trained_model_fold4.pth (torch, 600778 bytes, 34 tensors)

encoder.0.weight f4 [256, 371]
000000 08 8b 0f 3c 7d c7 fe 3b 43 4f 27 bc a9 01 dd 3c
       0.008761175 0.0077752457 -0.010211769 0.02697833
000010 08 9f ab 3c f2 1f b0 3c 9b 47 1f bd 1c 6e ec 3d
       0.020949855 0.021499608 -0.038886648 0.11544439
000020 31 f0 b7 3c 62 68 0d bd b1 8f 26 3d d1 55 2e bc
       0.0224534 -0.034523375 0.04066438 -0.010640577
000030 14 e2 8c bd 02 a2 8f bd 6b 40 c0 3b 2d 8d 13 bd
       -0.068790585 -0.070133224 0.005867054 -0.036023308
000040 f3 bc 67 bb 0a 69 df 3c e7 29 82 ba 11 f0 89 bb
       -0.0035360425 0.027271766 -0.0009930701 -0.0042095263
000050 3e 23 aa 39 73 a8 13 3d 4d 58 3f 3c ed 2c 05 3d
       0.00032451184 0.036049318 0.011678767 0.032513548
000060 3b 2c 9e bb 05 6d 05 bd 81 32 1b 3b 10 a0 4f 3d
       -0.00482705 -0.032574672 0.0023681226 0.050689757
000070 00 08 25 bd d2 c9 da bc 7e 4a c3 bc 39 b8 3b 3c
       -0.040290833 -0.026707564 -0.023839232 0.011457496
000080 63 3a b1 bc e6 d5 8d bc 1f 8a 1c 3d 88 ae 1d bd
       -0.021634286 -0.017313909 0.03821766 -0.038496524
000090 c4 25 19 3d f7 bc 20 3d ec 2c af 3b c3 c1 45 bd
       0.03738953 0.03924271 0.0053459313 -0.04828049
0000a0 4c 5a 86 3d 7c 45 5c 3d 79 1d 90 3c b0 3c 3a bd
       0.065601915 0.053777203 0.017592179 -0.045468032
0000b0 3e 6a 0e bd f5 32 a3 bc 1e 7f c1 3d 0d f9 97 3c
       -0.03476929 -0.01992176 0.09448074 0.018551374
0000c0 d1 cc 29 3d 23 59 29 3b e0 b2 12 3c 95 9a 36 bd
       0.041455094 0.0025840483 0.00895378 -0.044581015
0000d0 e0 39 91 3d 28 2f 55 bc f8 9a 48 bd 44 a9 33 3d
       0.07091117 -0.013011731 -0.048975915 0.043862596
0000e0 b6 73 4f 3d 23 0e 19 bd f5 70 20 bd ee f6 ca 3c
       0.05064746 -0.037366997 -0.039170224 0.024775948
0000f0 41 e6 8e 3c 3a 4f 47 3c 04 7f bc bc 24 a0 1f bd
       0.017443778 0.012164885 -0.023009785 -0.03897108
000100 cc 86 c3 bc e6 a8 13 3b 2b 72 f6 bc b1 cd 89 bb
       -0.023867987 0.0022531091 -0.030083736 -0.0042054285
000110 7e 9d 44 3c 25 f2 1e bd 3f 28 01 3c bb a8 10 bd
       0.01200044 -0.038805146 0.007883131 -0.035317164
000120 b9 be c8 3a 51 ed a3 3c 31 24 8d 3d e7 5a 74 3d
       0.0015315629 0.020010622 0.068916686 0.059657004
000130 11 4c d7 3b 3c 74 73 bd 5f 7e 07 bd 06 77 f6 3c
       0.006570347 -0.05943702 -0.0330795 0.030086052
000140 ec 4a 99 3d 92 51 cf 3c a2 d9 81 bd e2 d0 12 3c
       0.07484993 0.02530745 -0.06340338 0.008960934
000150 c4 9f 19 bd b0 ec 9f 3d 5c ec 41 3c 24 e0 4d 3d
       -0.03750588 0.078088164 0.011836138 0.050262585
000160 d8 96 56 bd ae 25 c9 39 1d fb 54 bb 2b bd d5 3c
       -0.05238995 0.0003836578 -0.0032498308 0.026091179
000170 ec 6f 38 3c 9f a6 1b 3a b7 56 88 bd a2 3e f7 3b
       0.011257153 0.0005937609 -0.066571645 0.007545308
000180 c8 74 54 3d 8b b8 5e bc b9 ea 26 3d 2c 12 0e bc
       0.051869184 -0.013593803 0.040751193 -0.008671325
000190 6a 29 a9 bd 5b dd 9d bc 39 75 f8 bc 65 51 00 3d
       -0.08259852 -0.01927059 -0.030329334 0.031327624
0001a0 9b ce 97 3d d6 12 0d 3d 15 70 f2 3c 7e c8 6f bc
       0.07412454 0.03444179 0.02959446 -0.014635203
0001b0 de 69 ed 3c 33 39 80 3c 7c 23 96 bc 5a 24 67 3d
       0.028981145 0.015652275 -0.018327467 0.056431152
0001c0 85 24 99 bc 53 80 4a 3d 24 b6 11 3d 94 77 3e 3d
       -0.018694172 0.049438786 0.035574093 0.046500757
0001d0 7c 7c fa 3c 6d 64 8c 3d 56 a4 18 3d 2f 34 43 3d
       0.030576937 0.06855092 0.037266098 0.047657188
0001e0 42 13 17 bd d7 2b 30 bd 5e dd 41 3d 28 08 04 3d
       -0.0368836 -0.04301056 0.047330253 0.03223434
0001f0 a9 f3 61 bc 78 d0 68 3d 22 8e 36 bd 12 17 3e bc
       -0.013791003 0.056839436 -0.044569142 -0.01160218
000200 8b b9 5f 3c 47 5c a2 3d 91 66 bd 3d 29 7d 59 bc
       0.013655077 0.07927757 0.092480786 -0.013274469
000210 96 df b3 3a 1a 0c be 3c 24 b6 cb 3d c1 14 6a 3d
       0.001372325 0.02319913 0.0994685 0.0571487
000220 27 9b 96 bc c5 56 93 3d ba 74 42 bd 81 b1 a3 bd
       -0.01838453 0.07194284 -0.0474746 -0.079928406
000230 96 2b c8 bb 14 de 1c 3d 34 f0 e6 3b ad 7c e3 bc
       -0.0061087115 0.038297728 0.0070476774 -0.027769411
000240 f9 f5 65 bd f5 18 73 bc 12 73 0c bd 0d df 40 3d
       -0.05614278 -0.014837493 -0.034289427 0.047087718
000250 ed 39 9c 3c f2 0c 02 bd 04 d8 6b bd 7a f6 e7 3c
       0.01907059 -0.031750627 -0.057579055 0.028315771
000260 ef 6c d3 bb cf dc 87 3d 25 46 63 bc 28 e1 d0 3c
       -0.006452195 0.06633913 -0.013871704 0.025497988
000270 ae 3c c1 bc 7e 7d 79 3c c0 42 a8 bc 31 33 55 bc
       -0.023588505 0.015227674 -0.020539641 -0.013012693
000280 40 90 48 bc 30 25 bd ba f0 45 05 3c 52 97 ec 3b
       -0.012241423 -0.0014430638 0.00813435 0.007220187
000290 ed bf 0b bd e7 77 87 3a d0 59 9f bc 14 8d 16 bd
       -0.03411858 0.0010335416 -0.019452006 -0.036755636
0002a0 af 7c 28 3d 5f 29 68 bd 78 4b fb 3c 8a 96 27 bd
       0.041134533 -0.05668008 0.030675635 -0.04091505
0002b0 a1 34 d1 bc b1 20 60 3d b8 f7 d9 bc ec 39 37 3d
       -0.02553779 0.054718677 -0.02660738 0.044732973
0002c0 16 03 66 bc 73 8b 86 3d b8 9c 7f 3d de dc 07 3d
       -0.014038822 0.065695666 0.062405318 0.03316962
0002d0 ef 81 dd bb 1e a7 63 bb 57 c2 ef bc c5 95 d0 3b
       -0.006759874 -0.003473706 -0.029267473 0.00636551
0002e0 a3 b5 7b bb e9 85 c5 3c ae ec e7 3c 6a 1c 07 bd
       -0.0038407824 0.024111705 0.0283111 -0.032986082
0002f0 11 88 8e 3d 26 89 f7 bc 75 9f 8a 3d d7 c7 55 bd
       0.06959546 -0.030216765 0.06768695 -0.052192535
000300 77 24 f8 bc a5 81 26 bd cc 58 35 bd a7 2b 9c 3c
       -0.030290825 -0.040650982 -0.044274136 0.019063784
000310 d6 80 82 3d 48 db 3c 3c 49 28 93 bc 5c 77 f5 3c
       0.0637223 0.01152689 -0.017963545 0.029964142
000320 cf 5a 92 3c 87 e8 30 bc 41 52 f7 3a 6a 0d 05 3c
       0.017865567 -0.010797626 0.0018869118 0.008120874
000330 a1 dc 08 3d 3b f9 25 3d 6a e1 21 3d 03 5e 8b bc
       0.033413533 0.040520888 0.039521612 -0.017012602
000340 c9 b0 43 3d f3 2d 8b bc 3d a1 22 bc c0 40 a3 3b
       0.047776017 -0.016989684 -0.0099261375 0.004982084
000350 7e 12 33 3d 05 ab 12 bc 4b a4 5d 3c 1b 9e c0 bd
       0.043718807 -0.008951907 0.01352794 -0.09405156
000360 e2 8f a5 bb e2 b5 30 3d a0 e9 51 bc 47 97 88 bb
       -0.0050525526 0.043142207 -0.012812048 -0.0041684243
000370 50 17 ad bc ca f6 11 3c ee 86 26 bd 06 bd 8d 3d
       -0.02112928 0.008908937 -0.040656023 0.06920819
000380 71 91 2c 3d 49 de 07 bd af 05 16 3c 85 c0 37 3c
       0.04213089 -0.033170972 0.0091566285 0.011215334
000390 6d ca 1b bd 48 5b 63 bd fc 31 a3 bc cb 0b 61 bd
       -0.038034845 -0.055506974 -0.019921295 -0.054942887
0003a0 cc 44 7d 3b a9 8c 8a bd 20 38 d9 3c 0a 7c b5 3d
       0.0038645742 -0.0676511 0.02651602 0.08861549
0003b0 f7 1e 46 3d 96 46 63 3c f8 e7 07 3c 0e bc 2d 3c
       0.048369374 0.0138718095 0.008295052 0.010603918
0003c0 1a 53 01 bd 8a fa 0d 3d f1 40 0a 3c 62 da 77 3d
       -0.031573392 0.03466276 0.008438335 0.060511
0003d0 60 b7 b2 bc 69 b7 1c 3d c6 d2 ed bc 78 73 ad 3c
       -0.021815956 0.03826085 -0.029031169 0.021173224
0003e0 4a 22 47 bc ff b9 c8 3a 36 48 9d 3d 97 3b de bc
       -0.012154171 0.001531422 0.07679789 -0.027128024
0003f0 22 a6 39 bd 66 f0 07 bd 55 97 14 bd 91 0d c2 bb
       -0.045324452 -0.033188246 -0.036277134 -0.0059220274

encoder.0.bias f4 [256]
000000 fb 9f 34 bd 1e 28 78 bd a1 ea 21 bd 9b 9c d4 bc
       -0.04409788 -0.060585134 -0.0395304 -0.025953582
000010 68 3e 0e bd 13 7f fc 3c 6d be 77 3d 36 d5 77 bd
       -0.034727484 0.030822312 0.06048434 -0.06050607
000020 3e 08 43 3d 16 fe 31 bd a4 81 b8 3b e1 24 77 bc
       0.047615282 -0.043455206 0.0056306887 -0.015084476
000030 62 37 99 bc 84 50 63 bd a4 d5 49 3c f1 5e 25 bd
       -0.018703166 -0.055496708 0.012319002 -0.040373746
000040 0e da 20 bd e2 a6 d1 39 fb 40 fc bc 2b 0d 15 3e
       -0.039270453 0.00039987924 -0.030792704 0.14555804
000050 c7 66 6d 3d dd f7 16 3d 82 18 9b 3c 8b dd 24 bd
       0.057959344 0.036857475 0.018932585 -0.040250342
000060 22 94 8b 3d 47 64 11 bd 7c dc cb 3c a7 a3 11 bd
       0.068153635 -0.035496023 0.024885409 -0.03555646
000070 de eb 77 3d 30 11 3e 3b 45 15 2e bd fb d0 06 3c
       0.060527675 0.0029001944 -0.042500753 0.008228536
000080 a5 4b b9 3b ec 26 0f bd 23 44 04 bd e2 80 24 bd
       0.0056547695 -0.03494923 -0.032291543 -0.040161975
000090 60 e0 9f 3c 23 83 1b bd 03 28 34 bd 28 f2 cd 3d
       0.01951617 -0.03796686 -0.04398347 0.10055953
0000a0 53 62 04 3d d5 fd 00 3d 5e 23 10 bd a7 35 34 bd
       0.03232033 0.031492073 -0.03518998 -0.04399648
0000b0 ee fa c0 bc 3c 5d 87 bc 15 5b 20 3d c5 cc e9 3c
       -0.023557153 -0.01652395 0.039149363 0.028540025
0000c0 41 8f 86 3c 27 c8 13 3d c2 5e 97 bd 09 68 14 3b
       0.01642573 0.036079552 -0.073911205 0.0022645018
0000d0 c6 dd 4f bd f6 4d ac 3b 4a b6 d3 3b 22 25 bd 3b
       -0.05074861 0.005258317 0.0064609395 0.005772249
0000e0 00 c2 21 3d 4d 22 4c bc a5 33 a5 bb 1b 4c bf bc
       0.039491653 -0.01245935 -0.005041557 -0.02335172
0000f0 7e 00 c3 bb 4b c0 fb bc 3b 0b f5 3c e7 38 63 bd
       -0.0059509864 -0.03073134 0.029912582 -0.05547419
000100 70 dc c4 bd 1d 33 a5 3d b8 fa 38 bd 91 96 75 bd
       -0.096123576 0.0806639 -0.04516098 -0.059958044
000110 fa 89 a6 bb 80 be 4e bd d8 2c 07 3c 96 01 db bc
       -0.005082366 -0.050474644 0.008250438 -0.026734155
000120 f4 ad 17 bd d0 8e 41 bd d5 3f c6 bd e0 e7 7b bc
       -0.03703113 -0.047255337 -0.09680144 -0.0153751075
000130 d4 c1 fb 3c 8f a6 62 3d da 5b 48 bd f3 43 e9 3c
       0.030732073 0.055334624 -0.04891572 0.028474784
000140 1e b1 0b 3d 2f 88 e0 3b 3c 5b 65 3d af 57 9e 3d
       0.03410446 0.006852172 0.05599521 0.07731568
000150 13 5c c4 bb 62 ad 6c 3d 6c fb 99 3d 77 74 a2 3d
       -0.0059924214 0.05778254 0.07518658 0.0793237
000160 0a 7b be 3c b3 5a bb bc ca a1 8e 3c 08 0e 70 bd
       0.023252029 -0.022870397 0.017411131 -0.05860713
000170 d7 4e f6 3c 9e 1e 93 bd a0 fc 34 3d 38 9e 25 bd
       0.03006689 -0.07183574 0.044186234 -0.040434092
000180 4a d0 1c 3d 48 15 21 bd e5 77 2a bc 65 0b 38 bd
       0.038284577 -0.039326936 -0.010404562 -0.04493274
000190 0e c8 5e 3d 5b 13 cf bb 4d 6d 83 3c 50 4f d9 3c
       0.054390006 -0.006319446 0.01604333 0.026527077
0001a0 26 60 ee 3c 20 4d 10 3d 31 7d 5c bd 9d 97 a2 ba
       0.029098582 0.035229802 -0.05383033 -0.0012404803
0001b0 d7 96 81 bd db aa 1b 3d 96 a1 15 bd 22 32 3b ba
       -0.063275985 0.038004737 -0.036531053 -0.0007140954
0001c0 50 ca a1 bc 01 50 ed 3c a3 a8 c5 3c ab 54 3a 3a
       -0.01974979 0.028968813 0.024128264 0.00071079534
0001d0 1e 4c 9e bc c5 09 df 3c a1 58 e6 3c 4c 1b 7c bb
       -0.019323405 0.027226338 0.028118433 -0.0038468419
0001e0 6b 39 68 bd 54 e1 90 39 c1 7d 5e 3d 47 5b 62 bd
       -0.056695383 0.00027633703 0.054319147 -0.05526283
0001f0 d8 60 0f bd e1 f7 d2 3d 4d b9 9b bc cb d3 b4 3c
       -0.035004467 0.103011854 -0.019009257 0.022073647
000200 9e bd 25 bd 12 63 88 3d c6 54 62 3d 92 e1 e5 ba
       -0.040464036 0.06659521 0.055256628 -0.0017538539
000210 62 21 04 3b c3 71 93 bd fc cd 20 3d cd 26 31 bd
       0.00201615 -0.07199433 0.039258942 -0.043249894
000220 ac 18 07 bb 24 5c ed bc ef d5 ad bc 75 50 18 bd
       -0.002061407 -0.0289746 -0.021220176 -0.037186105
000230 86 2a 2e bd a1 26 5c 3d 83 3c 45 3d 2b 81 56 3c
       -0.042521022 0.053747777 0.04815341 0.0130923195
000240 5f 31 d7 bc e4 1d 53 3d 30 fa 5e bc cc 86 a4 3d
       -0.02626866 0.051542178 -0.013609454 0.08033523
000250 bf 1e f2 3b 44 22 22 bd c1 f1 70 bd a6 be d5 bd
       0.007388919 -0.03958346 -0.058824304 -0.10436754
000260 6a 45 12 bd ca 6f 00 3a 4f 90 e9 3c d5 6b db 3b
       -0.03571073 0.00048994704 0.028511195 0.006696204
000270 0a 56 b0 3c a2 97 a8 3b 6c 05 41 bc 01 9f 92 3d
       0.021525402 0.005145029 -0.011781078 0.07159234
000280 48 5b 7d bd f1 4f d4 bc 89 77 b0 3b 1f 39 58 bc
       -0.06185463 -0.025917025 0.0053853435 -0.0131972125
000290 62 75 30 bd 2c ed db bc ac 58 05 3e 58 6e 34 bd
       -0.043080695 -0.02684649 0.13022107 -0.044050545
0002a0 08 a4 84 bd 0b 31 87 3b c0 bc c3 3c 8f 2a ec 3c
       -0.06476599 0.0041257194 0.023893714 0.028828887
0002b0 62 2f 6d bd 90 d8 68 bd 3e 7d 39 bc ce 33 79 3d
       -0.057906516 -0.056847155 -0.011321364 0.06084042
0002c0 a6 34 9a 3c 00 df 5a 3d b0 1d 88 bb bc 0e 49 bd
       0.018823933 0.053435326 -0.0041539297 -0.049086317
0002d0 9a 56 81 bd 02 0d 5b 3d 0c 4b a6 3b cd 1b 15 3d
       -0.06315346 0.053479202 0.0050748643 0.036403466
0002e0 42 c2 52 3d 14 ec 5e bd 0f 77 84 3c eb 34 dc bc
       0.05145479 -0.05442436 0.016170053 -0.026880702
0002f0 13 b8 98 3b 0e 8a f4 3c 19 4c db 3d 6b 1c 41 bb
       0.004660615 0.029850986 0.10707874 -0.0029466401
000300 0b 28 c0 bc 54 7c 9f 3d 3d 47 d4 3c 96 d1 20 3d
       -0.023456594 0.077873856 0.025912875 0.039262377
000310 7c be ad bc d0 23 7d 3c 7b 0a 95 3b 2a bb 0d bd
       -0.021208994 0.015450433 0.0045483685 -0.03460232
000320 a3 2f 24 3d 93 4a 9d bc 53 3a 8f bc c0 53 2d 3d
       0.040084492 -0.019200599 -0.017483866 0.0423162
000330 0f f0 fd 3b 2d ac 2b 3c b3 7d b3 bd cf 86 60 bd
       0.0077495645 0.010478062 -0.087642096 -0.054816063
000340 fc 98 a5 bc a1 4b 55 bc 4e c8 51 bd cc 06 c6 39
       -0.02021455 -0.01301852 -0.051216416 0.00037770567
000350 43 65 3c 3d 23 df 0d bd de 89 20 3d e5 7b 5d 3c
       0.04599501 -0.034636628 0.03919398 0.013518308
000360 50 de 02 3d 4a f3 06 3d 2b dc 2b bd e9 db cb bc
       0.031950295 0.032946862 -0.041958015 -0.024885135
000370 65 9e c1 3c 6b 31 a6 3c 3c 38 9d 3a 82 24 c2 3c
       0.023635099 0.020287236 0.0011994909 0.023699049
000380 79 19 a0 bd e7 2f 2e bd 0d 36 15 bd a5 26 6f bd
       -0.078173585 -0.042526152 -0.0364285 -0.058386464
000390 f8 e7 7a 3c 00 9a f7 3a 1f 97 88 3c f0 36 0a bc
       0.015314095 0.00188905 0.016673623 -0.00843595
0003a0 78 a4 97 bc 93 0c d0 3c 0a 1e 36 bd 82 a8 6e bd
       -0.018511042 0.02539662 -0.04446224 -0.05826617
0003b0 30 43 43 3b 6e 89 90 bd 17 d3 63 bd 95 e7 77 3d
       0.0029794686 -0.07057463 -0.055621233 0.06052359
0003c0 4d 52 22 bd 15 f7 9f 3d a9 e2 fe bb eb 23 04 3e
       -0.03962927 0.07810799 -0.007778485 0.12904327
0003d0 5e 2c 57 bd d0 e1 f7 3b be 91 c9 bb 07 2b 40 bd
       -0.052532546 0.0075647607 -0.006151407 -0.046916034
0003e0 a9 57 80 3c ab f8 2e bd dd 59 e5 bb 11 b1 1e bd
       0.0156668 -0.042717617 -0.006999238 -0.038743082
0003f0 ee 7f 55 bb 7d 17 aa 3c cc df 6b 3d b2 af 14 bc
       -0.0032577473 0.020763153 0.057586476 -0.009075092

encoder.1.weight f4 [256]
000000 17 80 71 3f 99 7c 77 3f e4 c9 74 3f 11 0b 83 3f
       0.94336075 0.96674496 0.9562056 1.0237752
000010 46 bf 6f 3f e7 66 78 3f 01 a7 86 3f 57 a6 75 3f
       0.93651235 0.97032017 1.0519716 0.9595694
000020 7e 42 85 3f 7b 9f 73 3f 3d b5 7b 3f 81 87 84 3f
       1.0410917 0.9516522 0.9832342 1.0353853
000030 cc 1f 7c 3f db 77 7b 3f 0a 10 84 3f 35 7e 82 3f
       0.9848602 0.9822976 1.0317395 1.0194765
000040 e2 03 79 3f c4 9a 8b 3f 38 05 74 3f fd f3 94 3f
       0.9727155 1.0906606 0.95320463 1.1636959
000050 b1 9f 84 3f 5c 49 74 3f 5e 84 74 3f bf e9 79 3f
       1.0361234 0.9542444 0.95514476 0.97622293
000060 d4 ef 86 3f f2 48 84 3f 4e 77 79 3f 75 e4 78 3f
       1.054194 1.0334761 0.9744767 0.972236
000070 12 65 79 3f 60 99 7f 3f 10 90 78 3f 5f 3b 82 3f
       0.97419846 0.99843407 0.9709482 1.0174369
000080 cf 99 85 3f 69 8a 74 3f 3e 3b 77 3f 41 f9 73 3f
       1.0437564 0.955237 0.9657477 0.95302206
000090 37 a0 83 3f e6 69 7e 3f b5 ed 7e 3f 72 72 7a 3f
       1.0283269 0.9938034 0.9958146 0.9783088
0000a0 e6 e9 7e 3f b9 88 82 3f 7c 9b 77 3f e6 23 80 3f
       0.9957565 1.0197974 0.96721625 1.0010955
0000b0 a4 0f 80 3f cd 37 76 3f e7 b5 7e 3f f5 15 85 3f
       1.0004773 0.96178895 0.9949631 1.0397326
0000c0 f2 63 83 3f fe 48 80 3f d6 f4 62 3f ff 29 70 3f
       1.0264876 1.0022275 0.8865484 0.9381408
0000d0 70 01 7a 3f 39 49 7a 3f db 5b 84 3f 26 09 8b 3f
       0.97658443 0.9776798 1.0340532 1.0862167
0000e0 62 21 81 3f ce 59 79 3f 26 27 7d 3f 11 5b 81 3f
       1.0088313 0.97402656 0.9888786 1.0105916
0000f0 0d 78 87 3f 22 6b 74 3f e5 f1 71 3f 00 78 71 3f
       1.0583512 0.9547597 0.94509727 0.9432373
000100 f9 a1 79 3f 80 59 79 3f e6 dd 73 3f aa d0 7e 3f
       0.97512776 0.9740219 0.95260465 0.99537146
000110 a4 66 76 3f 63 e3 76 3f 14 e3 86 3f 02 4f 72 3f
       0.9625037 0.96440715 1.0538049 0.94651806
000120 57 a4 76 3f 34 95 7d 3f e8 a8 73 3f 7a b4 78 3f
       0.9634451 0.9905579 0.95179605 0.97150385
000130 9a b0 71 3f d8 65 91 3f e4 74 79 3f be 7b 84 3f
       0.944101 1.1359205 0.97443986 1.0350263
000140 7b 69 73 3f 57 90 7f 3f 1b 11 8b 3f bd d2 83 3f
       0.95082825 0.9982962 1.0864595 1.0298687
000150 d7 28 7c 3f 83 ed 81 3f d9 d2 7f 3f 51 f5 81 3f
       0.98499817 1.0150608 0.99931103 1.015299
000160 c1 4e 82 3f 9b c3 75 3f 8e 13 87 3f fb 84 7e 3f
       1.0180284 0.96001595 1.0552843 0.9942166
000170 ad c6 81 3f 57 41 74 3f 1b b5 8c 3f ce f3 80 3f
       1.0138756 0.954122 1.0992769 1.0074403
000180 a8 2a 91 3f 0d 7f 71 3f 89 6f 86 3f bc 4f 7b 3f
       1.1341143 0.9433449 1.0502788 0.9816854
000190 a1 af 88 3f a6 56 7e 3f 9d 01 83 3f cf 3f 78 3f
       1.0678598 0.99350965 1.0234867 0.96972364
0001a0 f6 e0 81 3f 4b 28 81 3f f4 83 79 3f 9c 8a 8b 3f
       1.0146778 1.0090421 0.9746697 1.0901675
0001b0 f5 06 82 3f 0e 2a 7c 3f f0 0c 72 3f 48 33 84 3f
       1.0158373 0.9850167 0.9455099 1.032815
0001c0 28 7a 6f 3f ae 51 7c 3f 2c 61 8b 3f a7 1e 81 3f
       0.9354577 0.98562133 1.088903 1.0087479
0001d0 81 8b 75 3f f1 88 87 3f c0 35 85 3f b5 be 77 3f
       0.9591599 1.0588666 1.0407028 0.9677537
0001e0 46 6f 7e 3f 00 18 85 3f 2c 50 8b 3f ab 61 70 3f
       0.9938854 1.0397949 1.0883842 0.9389903
0001f0 1f 6b 72 3f 07 9e 8c 3f 15 31 80 3f 45 02 84 3f
       0.94694704 1.0985726 1.0014979 1.0313193
000200 3a 7d 73 3f e8 e4 94 3f 61 51 80 3f 69 ba 83 3f
       0.95112956 1.1632357 1.0024835 1.0291263
000210 36 61 80 3f 34 77 72 3f c3 fa 71 3f 70 08 7b 3f
       1.0029666 0.9471314 0.94523257 0.9805975
000220 d3 a6 80 3f 3d d3 74 3f f9 3b 7b 3f e5 71 76 3f
       1.0050911 0.95634824 0.98138386 0.9626754
000230 c7 e7 75 3f 53 d4 7e 3f c0 52 7f 3f 7c e6 71 3f
       0.9605679 0.9954273 0.9973564 0.94492316
000240 a9 4b 7c 3f 68 74 87 3f 43 8a 80 3f 60 04 80 3f
       0.9855295 1.0582399 1.0042194 1.0001335
000250 45 1a 79 3f 08 bb 76 3f aa 80 6a 3f 2e b3 79 3f
       0.9730571 0.9637914 0.91602576 0.9753903
000260 e4 c3 87 3f ac f0 6e 3f 25 dc 85 3f 65 73 88 3f
       1.0606656 0.93335986 1.0457808 1.0660216
000270 4d 30 8e 3f 49 fe 89 3f 96 2c 7d 3f a5 90 7d 3f
       1.110849 1.0780727 0.9889616 0.99048835
000280 ee 42 6e 3f 65 c0 7d 3f 1e b5 87 3f 78 ff 81 3f
       0.93070877 0.99121696 1.0602148 1.0156088
000290 c9 16 7b 3f 03 5f 89 3f f6 da 8d 3f f5 4d 83 3f
       0.9808164 1.073212 1.1082447 1.0258166
0002a0 af 22 77 3f 83 32 83 3f 58 16 77 3f e4 1f 79 3f
       0.965373 1.024979 0.9651847 0.97314286
0002b0 e2 ca 7c 3f 1c 39 82 3f 14 ef 71 3f 97 d0 78 3f
       0.98747075 1.0173678 0.9450543 0.9719328
0002c0 51 2b 76 3f de 47 82 3f 98 0f 85 3f 66 7a 76 3f
       0.96159846 1.0178182 1.0395384 0.96280515
0002d0 1c c4 76 3f 02 75 79 3f bb a9 7e 3f 02 f2 71 3f
       0.9639299 0.97444165 0.9947774 0.945099
0002e0 85 1a 91 3f 2e 41 7d 3f 2b 14 7e 3f 41 64 6f 3f
       1.1336218 0.9892758 0.99249524 0.9351235
0002f0 56 a0 71 3f ee 6c 78 3f 33 9e 87 3f 32 16 78 3f
       0.9438528 0.97041214 1.0595154 0.9690887
000300 6c c3 87 3f ce 55 85 3f d6 69 83 3f 35 08 84 3f
       1.0606513 1.041681 1.0266674 1.0315005
000310 90 9b 82 3f 59 3a 8b 3f 27 d5 71 3f c7 41 79 3f
       1.0203724 1.0877181 0.9446587 0.97365993
000320 bd 44 89 3f 59 61 80 3f 53 99 83 3f 8e bd 83 3f
       1.0724102 1.0029708 1.0281166 1.0292222
000330 f8 fb 71 3f ea 73 83 3f ef 89 77 3f 59 02 72 3f
       0.945251 1.0269749 0.96694845 0.9453483
000340 f6 41 75 3f fa aa 80 3f ac dc 80 3f 47 3a 80 3f
       0.95803773 1.0052178 1.0067344 1.0017785
000350 77 21 80 3f 74 4a 68 3f ef 96 80 3f 63 a6 78 3f
       1.0010213 0.90738606 1.0046061 0.97128886
000360 56 dd 8a 3f f6 87 7e 3f 78 80 7e 3f ff 43 74 3f
       1.0848796 0.9942621 0.9941478 0.95416254
000370 ce d5 81 3f d2 9d 7a 3f db ef 79 3f 2c 93 87 3f
       1.0143373 0.97897065 0.97631615 1.0591788
000380 29 3d 75 3f fd c3 7e 3f 91 85 6f 3f c3 66 6d 3f
       0.9579645 0.99517804 0.9356318 0.92734927
000390 7d 2f 75 3f 8a 80 78 3f 3a 04 8a 3f a9 19 83 3f
       0.95775586 0.97071135 1.078254 1.0242206
0003a0 a9 16 81 3f 81 56 85 3f da 6d 79 3f 22 cb 7a 3f
       1.008504 1.0417024 0.97433245 0.97966206
0003b0 15 22 88 3f 51 92 73 3f 07 4f 7d 3f 03 85 93 3f
       1.0635401 0.95145136 0.9894871 1.1524967
0003c0 9d 90 81 3f 79 f7 88 3f 0f 6c 73 3f 02 6a 8b 3f
       1.0122257 1.0700523 0.9508676 1.0891726
0003d0 2e 90 7e 3f 7e d8 8d 3f c2 65 77 3f d8 4f 76 3f
       0.9943875 1.1081693 0.96639645 0.9621558
0003e0 a4 20 83 3f ba 02 85 3f 12 f3 78 3f d5 8b 82 3f
       1.0244336 1.0391457 0.97245896 1.0198923
0003f0 7d 5a 70 3f 28 2e 7a 3f fe 5f 81 3f 15 39 89 3f
       0.93888074 0.9772668 1.010742 1.0720545

encoder.1.bias f4 [256]
000000 a8 13 3b bd e8 49 ed bd e8 e1 89 bd f6 e1 ea bc
       -0.045673043 -0.11586362 -0.06732541 -0.0286722
000010 0e 5e 01 bd 86 f0 a8 bd eb 75 fa 3c f9 92 a4 bd
       -0.03158384 -0.08249001 0.030573806 -0.08035845
000020 8d 44 84 3d 05 b5 67 bd 33 0b 84 bd 7b bb 2b bd
       0.064583875 -0.056569118 -0.064474486 -0.041926842
000030 d1 13 03 3c fb 86 33 bc 75 f8 5c bc e4 83 ce 3c
       0.00800033 -0.010957475 -0.013486971 0.025209375
000040 6c 75 0b bd 92 3f 4d 3d 79 42 d8 bd 75 8b 04 3e
       -0.03404753 0.050109453 -0.10559554 0.12943824
000050 ed 56 0a bd ab e9 d9 bc 22 e7 4d bd cf 69 b6 bd
       -0.033774305 -0.02660068 -0.050269254 -0.089069
000060 8a 52 ae 3c a0 75 4b bd 24 ef 87 bb 30 f1 8b bc
       0.021279592 -0.049672723 -0.004148381 -0.01708278
000070 2d e9 7e 3c b4 f8 31 3d 4f 22 11 bb b1 e7 0e 3d
       0.015558523 0.043450072 -0.0022145694 0.034888927
000080 7b 16 07 3d af 54 9d bd 57 dc 81 bd 45 00 7f bd
       0.032980423 -0.07682168 -0.063408546 -0.062256116
000090 fd 83 68 3c 5c 74 c4 bc 82 be c3 bc 6d 98 ef b9
       0.014191625 -0.023981266 -0.023894552 -0.00045699198
0000a0 e3 07 1d bb ba 4f f6 3c 5d 2a e8 bc d1 8e c5 bc
       -0.0023961 0.030067313 -0.028340513 -0.024115952
0000b0 e6 7d 3b bd 18 e5 c0 bd b3 b7 1b bd 20 43 0b bc
       -0.045774363 -0.09418696 -0.038016986 -0.008499891
0000c0 b6 de 53 3c 22 f5 5d bb 74 e6 6e bd 67 6f 28 bd
       0.012931516 -0.0033868034 -0.058325246 -0.041121867
0000d0 1f d2 e3 bc 6b 9f 9d 39 92 64 0d 3d 46 2c 54 3d
       -0.027810154 0.0003006415 0.03451974 0.051800035
0000e0 26 d2 03 3d f8 e8 f5 bc 4e 51 33 bd 83 df c3 3b
       0.032182835 -0.030018315 -0.04377871 0.0059775724
0000f0 2e 86 e1 3d 29 63 5d bd 54 29 ed bc 89 ca 5d bd
       0.11011921 -0.054049645 -0.02895037 -0.05414823
000100 98 61 c6 bd 60 0a 83 bc 63 97 87 bd 05 f5 90 bd
       -0.09686583 -0.015996158 -0.066206716 -0.07077984
000110 fe a7 0b bd 5e 11 a0 bd df 5a 27 3d 35 e7 d1 bd
       -0.034095757 -0.078158125 0.040858146 -0.10249177
000120 ed 55 af bd 35 12 22 bd 94 a3 ec bd 03 3a 63 bd
       -0.08561311 -0.039568145 -0.115546376 -0.055475246
000130 dc 6e cd bc 39 e9 a6 3d a1 1b 8c bc aa fa e9 3d
       -0.025077276 0.081499524 -0.017103018 0.114247635
000140 ba d4 44 ba 01 25 85 bc f7 e0 21 3d c4 56 24 3d
       -0.00075085054 -0.016252996 0.039521184 0.04012181
000150 ae e8 b9 bc 1b ed dc 3c 3e 5e 73 bc 16 44 b6 3c
       -0.022693958 0.02696853 -0.014854012 0.022249263
000160 ec 3f 9a 3c b3 93 c6 bd d8 93 fa 3b 30 84 29 3c
       0.018829308 -0.0969614 0.007647019 0.010346457
000170 51 6e 41 3d f7 eb 64 bd fa 97 c0 3c f5 cb 84 bc
       0.047224347 -0.055889096 0.023509968 -0.016210536
000180 74 bc ae 3d d5 e8 58 bd 22 9b a7 bc f2 e7 a3 bd
       0.08532038 -0.05295642 -0.020459715 -0.080032244
000190 8f 63 85 3c ff 9f 15 3c 40 7b 4a 3c 94 2a 21 bd
       0.016282825 0.009132384 0.012358487 -0.039347246
0001a0 e7 38 bd bc 65 62 96 bd 13 47 8b bd 51 5e 85 3d
       -0.023098422 -0.07342986 -0.06800666 0.0651213
0001b0 f7 ea 4c bd 9f b6 84 3c 88 f0 f2 bc 10 be d1 b9
       -0.050028767 0.016200362 -0.02965571 -0.00040005194
0001c0 fc 99 ab bd d5 a5 33 bd 11 2e 46 3d 9e be 20 3c
       -0.083789796 -0.04385932 0.048383776 0.009811072
0001d0 6e 78 83 bc 40 44 ae 3d 97 6a 78 3d 5b 39 d4 3c
       -0.016048636 0.085091114 0.060648527 0.025906255
0001e0 4b 82 ae bc b1 2d 2e 3c 53 53 f5 bb 39 7e 90 bd
       -0.021302363 0.010631011 -0.0074867397 -0.07055325
0001f0 2d a1 29 bd 4c 41 e7 3d 5d 47 94 bb 70 85 01 bd
       -0.041413475 0.11291751 -0.0045251087 -0.031621397
000200 77 2b 86 bd 0d 1f bd 3d 9e 38 74 bc 2f eb cf 3c
       -0.06551259 0.09234438 -0.014906077 0.025380699
000210 b7 26 11 bd 1e 11 cb bd 6b 26 28 bd 31 2d 3b 3b
       -0.035437312 -0.09915374 -0.041052263 0.0028560872
000220 c3 00 52 bd af 14 8c bd ec a2 be bc 73 eb 9c 3b
       -0.051270258 -0.068398826 -0.023271047 0.00478881
000230 51 49 93 bd bc 1d a1 3c 24 17 13 3d ce dc c0 bd
       -0.07191718 0.019667499 0.03591074 -0.09417115
000240 79 6b 97 3c fd ea 25 3c ed 05 08 3d 9c ed 73 3b
       0.018483864 0.010126826 0.033208776 0.0037220484
000250 3e 56 96 3c d7 98 34 bd 76 a8 33 bd a8 81 d7 bd
       0.01835167 -0.044091072 -0.04386183 -0.10522777
000260 53 5c e5 3c 72 59 b3 bd 8e de d6 3c 4f 39 b0 bc
       0.027998125 -0.08757295 0.02622917 -0.021511702
000270 5c 8b 9d 3d 87 7d 69 bd 11 b8 91 3c 67 f4 63 3b
       0.07692596 -0.057004478 0.017787965 0.0034783126
000280 48 76 01 bd 9e ad 1e 3b 1e 12 fc 3c f4 cd 1e bd
       -0.031606942 0.002421237 0.030770358 -0.03877063
000290 e0 04 b6 bc 35 b3 4e bc f3 1a 1a 3e 10 38 ff 3a
       -0.022219121 -0.0126159685 0.15049343 0.0019471664
0002a0 ff 6c 5b bd a0 6d 21 3d 07 6b a5 bd b3 08 04 bc
       -0.053570744 0.039411187 -0.080770545 -0.008058715
0002b0 d6 6b 17 bd fa 0f 79 bd 49 21 0e bc 57 84 ea 3b
       -0.036968075 -0.060806252 -0.008674928 0.0071568894
0002c0 d3 15 36 bd 8f f2 67 bc d2 76 30 bc 16 c8 cd bc
       -0.044454407 -0.014156952 -0.0107705165 -0.025119822
0002d0 66 e9 fe 3a 2a 17 ee 3b ff 0b 46 bc 0d e9 c7 bb
       0.001944822 0.007265945 -0.012087821 -0.00610078
0002e0 a4 d8 c4 3d cf 77 4f bd a7 9a f4 3c 2b b7 63 bd
       0.096116334 -0.050651368 0.0298589 -0.055594604
0002f0 cc 72 22 bd e9 4c 4b bd f7 c9 46 3d 56 89 df bc
       -0.03966026 -0.049633894 0.048532452 -0.027287167
000300 04 7e e3 3b 2e f9 39 3d 6f aa 71 3d 4a 63 88 3d
       0.0069425125 0.045403652 0.05900043 0.06659563
000310 45 5e ac bc eb 0b ba 3c a7 92 65 bd 2a 1c 92 bd
       -0.021041045 0.022710761 -0.05604806 -0.07134278
000320 44 5a d1 3d c1 e9 9a ba 09 c6 9d 3c 82 7e 19 3c
       0.10222295 -0.0011818932 0.01925947 0.009368541
000330 12 64 a8 bd 6d 2a 0e 3c 31 65 71 bd 3b 85 e2 bd
       -0.08222212 0.008677107 -0.058934394 -0.11060568
000340 bc 87 a5 bd 73 7c 4b 3c 74 35 37 bc e5 49 8f bc
       -0.0808253 0.012419808 -0.011182178 -0.01749129
000350 c6 e0 aa bc 4f 1c 48 bd 56 95 1c 3b 64 3f 7c bd
       -0.020859133 -0.048855122 0.0023892722 -0.06158389
000360 6e f8 0c 3d 10 ba 15 bd 63 af 22 bd e7 12 5c bd
       0.03441661 -0.036554396 -0.039718043 -0.053728964
000370 c5 2d 55 3d ca 55 82 bc 7c 34 20 bd b0 91 10 3d
       0.052045602 -0.015910048 -0.039112553 0.03529519
000380 79 c4 21 bd 4b 89 36 3b 59 41 6f bd b6 67 90 bd
       -0.03949401 0.002785283 -0.05841193 -0.07051031
000390 44 ab f9 bd b7 5f f8 ba 94 0b 8c bb f5 2f e4 3a
       -0.121908695 -0.0018949424 -0.004273841 0.0017409312
0003a0 15 c4 d6 bc d3 06 c0 3c b8 5f 73 bd 5d 11 ad 3c
       -0.026216546 0.023440754 -0.059417456 0.021126444
0003b0 9c 1a 85 3d 95 be 96 bd c6 ae b0 bd bc bb 92 3d
       0.06499216 -0.073605694 -0.086270854 0.07164714
0003c0 cf ba e9 bc d7 ac d6 3d 31 ad 6f bd 9e a9 f5 3d
       -0.02853146 0.10482185 -0.058514778 0.119952425
0003d0 10 ce 4c bc 15 f0 6b 3c 70 21 41 bd 02 8b 0b bd
       -0.012500301 0.014400502 -0.04715103 -0.034068115
0003e0 0b 65 0c 3d bf 67 75 3a b0 7b 3d bc 5b 93 8a 3c
       0.03427605 0.00093614677 -0.011565134 0.016915968
0003f0 24 38 b0 bd bd dd a2 bb 68 a9 cd bc 77 23 7f 3c
       -0.08604458 -0.004970281 -0.025105193 0.01557242

encoder.3.weight f4 [128, 256]
000000 16 72 12 bd c8 70 3d bc 8b 60 fa 3b d6 22 59 3d
       -0.035753332 -0.011562534 0.0076409033 0.053011738
000010 b8 0e b6 bd 32 b0 91 bd ef 24 67 bd ae fb 61 ba
       -0.08889526 -0.07113685 -0.056431707 -0.0008620572
000020 81 44 8d bc a1 61 8c bd a9 ec 31 bc af d1 02 bd
       -0.01724458 -0.06854559 -0.010859647 -0.03193825
000030 5a 55 b7 3b 56 35 75 3b 57 18 83 bd ac d1 a7 3b
       0.0055948915 0.0037415824 -0.06401127 0.0051214304
000040 fb 30 70 3d 91 3e b9 bc f7 28 85 3c 94 94 8c 3d
       0.05864046 -0.022612842 0.016254885 0.068642765
000050 2f 84 03 bd f4 9a ce 3b 29 ac 49 bd f4 d0 71 3d
       -0.032108482 0.006305093 -0.04923645 0.059037164
000060 12 3c 15 bd 6e e4 a2 3c 26 06 11 bd 9a 4b a0 3d
       -0.03643424 0.019884314 -0.035406254 0.0782692
000070 56 b2 b4 bd c0 c9 64 3d 04 05 5f bd 0d 21 b7 3c
       -0.088230774 0.055856466 -0.054448143 0.022354627
000080 4d 49 ed 3d e0 6e 56 3d 3a 14 a2 bc 2f 1a 82 bd
       0.11586247 0.052351832 -0.019785035 -0.063526504
000090 41 1c 2a bc f0 22 7f 3c d2 34 bd 3b 8c cf bc bd
       -0.010382713 0.015572295 0.005774119 -0.09219274
0000a0 f9 9a 70 bd ff a2 91 bd 3f 11 26 bc 28 3d 2d 3c
       -0.058741543 -0.07111167 -0.010135948 0.010573663
0000b0 e2 4b 0a 3e 2f 8e 40 3d 8c a9 4f 3c 6d 0a 07 bd
       0.1350551 0.047010597 0.0126747005 -0.032968927
0000c0 c7 1e 07 3e 7a f1 cb bb ba 7a c4 bd 8b 90 09 bd
       0.13195334 -0.0062238546 -0.09593721 -0.033585113
0000d0 c5 79 a1 3d b3 af a7 3c 2d a5 02 bd 61 e2 a0 3c
       0.07884554 0.020469522 -0.031895805 0.019639196
0000e0 45 e9 28 bd 78 da a5 3d b4 a2 c9 bc 90 41 10 3c
       -0.04123809 0.0809831 -0.024613716 0.008804694
0000f0 2b 7a 1f bd 25 3f 98 bd 16 58 84 bd 83 fc 41 bd
       -0.038934868 -0.07433919 -0.064621136 -0.047359955
000100 ac b3 5c 3c de bf 06 bd 46 e2 ab bc 20 8c a3 3c
       0.0134705715 -0.032897823 -0.020981919 0.019964278
000110 65 d3 ec bd f3 08 f8 bc 58 ad 98 bd 6b 1e 81 3c
       -0.11563758 -0.030277705 -0.07454938 0.015761575
000120 30 51 1d 3d 1c 57 ef bc a8 0b de bc d0 76 a9 bc
       0.038407505 -0.029216342 -0.027105168 -0.020686537
000130 3b 6d 12 bc 28 2a 13 3d ec 63 c8 3b 1d fe 77 3d
       -0.008937175 0.035928875 0.0061154272 0.060545076
000140 78 2a 47 3d b3 2b 0b 3d e5 7a c5 bd 96 58 a3 bd
       0.048624486 0.03397722 -0.09642581 -0.07975881
000150 96 38 80 bd 6b 12 e3 bc fc a0 74 bd 8d d5 43 bd
       -0.06260793 -0.027718743 -0.05972384 -0.04781108
000160 ff ad 3b bd 3e e8 4c bc 18 a4 b9 bc 29 0c 96 3c
       -0.045820232 -0.012506543 -0.022661254 0.018316345
000170 dd 57 5b 3d e4 b3 1f bd 78 e3 3a bd f6 c6 42 3d
       0.05355059 -0.038989916 -0.045627087 0.047553025
000180 bc ae 30 bb d6 da 82 3c 66 4d d0 ba f1 e5 8c bd
       -0.0026959619 0.01597349 -0.0015892207 -0.06879795
000190 9c 5d 64 bd b8 8b 88 ba 4b d9 0b 3e 0b bc 56 bc
       -0.055753335 -0.0010417616 0.1365711 -0.013106356
0001a0 a0 6d a0 3b 59 0a 14 bd 7b 59 33 3d b8 80 ab 3c
       0.004895881 -0.03614268 0.043786507 0.020935401
0001b0 4c 09 c7 3b 9d a6 d5 3c fa c8 46 3c 42 25 ff bc
       0.0060741063 0.026080424 0.0121328775 -0.031145696
0001c0 5b bd 2b bd 11 42 d4 bc 11 c3 29 bd 8e 6c 6d bd
       -0.04192863 -0.02591041 -0.041445795 -0.057964854
0001d0 8f d4 49 bd 2d e6 3a 3d e1 33 c9 bc 8d 6e 4f 3c
       -0.049274977 0.04562967 -0.02456087 0.012660635
0001e0 0f 0c c7 3c 0b 21 db 3a bb 99 b3 bc 79 a8 c9 3d
       0.024297742 0.0016718222 -0.02192389 0.09846587
0001f0 31 13 36 3c 88 bd 08 bc fe f4 1d bd 42 be e5 bc
       0.011112974 -0.008345969 -0.03856372 -0.028044824
000200 60 0c 6b 3c ca 79 ba bd c3 3b a1 bd 14 f9 18 3c
       0.014346212 -0.09105261 -0.07872727 0.009336729
000210 6b 99 98 ba 7e d4 79 3c 76 60 e5 bb 1d b2 28 bd
       -0.0011642402 0.015248416 -0.0070000244 -0.041185487
000220 66 f4 bf 3c 34 91 31 3d 4f cf 41 3c 88 5a 83 bd
       0.023431968 0.043351367 0.011829211 -0.06413752
000230 01 db 97 bd ab 64 d7 bb 32 43 2e 3c 77 b4 28 38
       -0.074148186 -0.00657328 0.010636138 4.0222392e-05
000240 3c 42 88 bd ef ac 42 bc 62 5d 89 bc dc 33 a2 3b
       -0.06653258 -0.011882051 -0.016768161 0.00495003
000250 b9 ff 17 bd 02 92 5f 3d 1f bc 52 3d 81 7c 36 bc
       -0.03710911 0.054582603 0.051448938 -0.0111380825
000260 da 6f 99 ba 0f 22 a6 bd 1a 5e bc bc cf 60 31 bd
       -0.0011706308 -0.08111965 -0.02299409 -0.043305214
000270 cb 8a 34 3c 77 ef ad bd 6a c9 1f 3b 24 50 97 3c
       0.011019419 -0.0849294 0.0024381527 0.018470831
000280 ee 9b fb 3c 0f 90 7d 3d 2f 44 01 bd 12 57 66 bd
       0.030714002 0.061904963 -0.031559166 -0.05623538
000290 e8 60 ae bc e7 ea cb bc 1c 46 92 bd e8 21 ec bc
       -0.021286443 -0.024892284 -0.071422786 -0.028824762
0002a0 69 b4 85 bd fe d5 48 bd 75 49 9b 3c 60 60 61 bc
       -0.06528551 -0.049032204 0.018955925 -0.013755888
0002b0 40 c5 6d 3d 17 cf 42 bd d3 9d 87 bd 6b 68 15 3d
       0.05804944 -0.047560778 -0.066218995 0.036476534
0002c0 27 a7 3f 3d bd a2 70 bc 97 e5 43 3d b0 37 fc 3b
       0.04679027 -0.014687237 0.047826376 0.007697068
0002d0 ef 32 00 bd 63 cb 74 bd 97 09 d9 bd 35 dc 7f bd
       -0.031298574 -0.059764277 -0.10597532 -0.062465865
0002e0 34 e8 4b 3d 9a de 3f bd b8 cf a5 3c 10 b4 e4 bd
       0.049781993 -0.04684315 0.02024065 -0.11167157
0002f0 48 94 d7 3c 5d b2 e5 bb 49 b5 36 bc 37 3d 7d 3d
       0.026315823 -0.007009788 -0.01115162 0.061825957
000300 57 3d b4 3d 22 9c 7a bc bc e1 87 3d 5c 68 be 3c
       0.08800762 -0.015296014 0.06634852 0.023243122
000310 e1 a4 66 bd 38 e9 8e bd bf a4 03 3d c6 3f d1 bc
       -0.056309585 -0.06978077 0.032139536 -0.025543105
000320 b7 19 90 3d f3 70 07 3c 51 68 ce bc 94 90 f1 bc
       0.07036155 0.008266675 -0.025196226 -0.029487886
000330 3c 15 85 3d 95 d7 35 3d 18 20 f8 3c 9b 83 c9 bc
       0.06498191 0.04439505 0.030288741 -0.024598887
000340 88 4c b9 bd e4 97 9f 3c a5 ff ac bc 92 ee ac bc
       -0.090478 0.019481607 -0.021117995 -0.021109853
000350 49 0c 06 bc 0d 65 0f 3c e3 b7 85 bd 73 0b 35 3d
       -0.00818164 0.00875212 -0.06529214 0.044200372
000360 3b 66 42 bd 10 08 a0 bd 6a ec f6 bc 13 2b cd 3c
       -0.047460776 -0.07814038 -0.030142028 0.025044953
000370 8a 8b 94 3c 37 f1 a0 bc 41 e4 20 bd fe d7 56 3d
       0.018132944 -0.01964627 -0.03928018 0.05245208
000380 43 f0 85 bc 93 7f b3 bd 4d d0 28 3d 28 24 72 bc
       -0.016349917 -0.08764567 0.041214276 -0.014779128
000390 57 fe 4d bd 2e f3 57 bc c5 6f 12 3d fa 26 88 3d
       -0.050291386 -0.013180537 0.035751123 0.06648059
0003a0 2e e3 50 3d cc 66 53 3c f7 9f 89 bd 91 3f 23 bd
       0.050997905 0.012902927 -0.06719964 -0.039855544
0003b0 bf 41 97 bd af c4 1e 3d 42 45 a1 3d 4e ac 8f bd
       -0.07385587 0.03876179 0.07874538 -0.070152864
0003c0 b4 4c b2 3c 18 19 0c 3d 6a 79 fd 3b f2 20 cb bc
       0.02176509 0.03420362 0.007735421 -0.024795983
0003d0 d4 c8 60 ba de 01 d0 bb ad 3a 71 3d f4 a9 86 bd
       -0.00085748476 -0.006347879 0.05889385 -0.06575385
0003e0 88 17 c5 3c d1 9b db 3b 9a d9 ad bc 51 cf 18 bd
       0.024059072 0.0067019244 -0.021221925 -0.037307087
0003f0 d3 c7 89 bd 73 ea 54 bd 8a 27 a6 3c 50 03 86 3c
       -0.067275666 -0.0519814 0.020282526 0.016359001

encoder.3.bias f4 [128]
000000 b3 d0 09 bd 52 87 49 bc e8 a7 dc 3c 19 0e af bc
       -0.033646297 -0.012300329 0.026935533 -0.021369027
000010 58 db 13 3d 72 8b af 3d b2 22 dc bc de 77 f7 bc
       0.036097854 0.08571519 -0.026872013 -0.030208524
000020 f1 fe b8 3c 23 ec 77 bc 5a fe 1d 3d 1b d5 ed ba
       0.022582503 -0.015131983 0.038572647 -0.0018145175
000030 77 9a 10 3c 05 19 46 bd a8 08 88 3b 38 74 11 3d
       0.00882589 -0.048363704 0.0041514225 0.035511225
000040 8e cf fd 3b 1a cd 83 3d b3 50 05 bd ee fa 2f bd
       0.0077456897 0.064356044 -0.032547664 -0.042963915
000050 82 d1 4c bd 89 de 68 3d f5 79 0b bb bd 78 a0 bc
       -0.05000449 0.05685285 -0.002128241 -0.019588822
000060 3a c5 80 ba 15 79 71 3d ab d1 10 3d f9 8c 22 3d
       -0.0009824403 0.058953363 0.035356205 0.039685223
000070 cc 8d e6 3c 8e 01 2f 3d c4 b0 1c 3c 12 92 67 bd
       0.028143786 0.042726092 0.009563629 -0.056535788
000080 65 fc c1 3b cf 8d 92 bc 1b 74 6f 3b 32 51 97 3c
       0.0059199804 -0.017889885 0.003653771 0.018471334
000090 4a f3 9d bd 33 28 66 3d b3 95 1d 3d 70 f3 1f 3d
       -0.07712419 0.05619068 0.038472842 0.03905052
0000a0 bf 15 fc bb 4e 0a 6c bd 16 4b 71 3d 8d a5 3c 3d
       -0.007693022 -0.057627015 0.0589095 0.04605632
0000b0 a3 9d 7d 3c e4 d4 df bc 61 1f 04 3e e2 c0 8b bd
       0.015479478 -0.027323194 0.12902595 -0.06823899
0000c0 eb bd a4 bc da 4f bf bc 2e bf 78 3d 5d 50 98 bd
       -0.020110091 -0.023353506 0.0607292 -0.07437203
0000d0 c4 aa 85 bd 26 0d 0b bc 6a 13 cc 3d 5e 19 57 bc
       -0.065267116 -0.008487022 0.099646404 -0.013128607
0000e0 c4 27 0f 3c e2 b4 20 bd 8d 28 b0 bd c0 ad c2 bd
       0.008737508 -0.039235003 -0.086014844 -0.095057964
0000f0 18 46 c2 3d 7d da 57 bc 61 e7 09 3d 2a 62 51 bc
       0.094860256 -0.01317465 0.033667926 -0.012779752
000100 12 6e 4f bd 3a 42 5b 3c 3b ab f3 bc 77 d2 d2 bc
       -0.05064208 0.013382489 -0.029744735 -0.025735123
000110 73 a6 50 bd 89 63 37 3d 4c 07 3e 3d 61 34 70 3b
       -0.05093999 0.04477266 0.046393678 0.0036652314
000120 4e 44 60 3d b8 93 22 bd 66 24 eb bc 04 b0 6d bd
       0.05475264 -0.039691657 -0.02870388 -0.05802919
000130 43 05 1e 3c 3c 50 a7 bd 48 eb ad 3d 03 ea 2b bd
       0.009644809 -0.081696 0.08492142 -0.041971218
000140 5d 50 a2 3c a8 08 99 3d 65 c1 28 3d de 72 bd bd
       0.01981371 0.07472354 0.04120006 -0.09250425
000150 d3 84 90 bc 10 9b 23 3b 68 b1 83 3d db c3 fe 3a
       -0.01764146 0.002496425 0.06430322 0.0019437032
000160 bb f4 02 3c 43 15 db 3c f0 30 ec 3c 62 4b 41 bd
       0.007992919 0.026743537 0.028831929 -0.04719103
000170 fb 27 c5 3c 70 9c e1 bb 3c ee f5 3c 34 16 89 bc
       0.024066916 -0.006885104 0.030020826 -0.01673422
000180 07 3c 1e bd 1d a5 d6 3c 3e 7b 0b bd 20 4b 55 3d
       -0.038631465 0.026201779 -0.03405308 0.052073598
000190 34 14 85 bd 2a cc b5 bc 42 4e da 3b 49 ca 89 bb
       -0.06497994 -0.02219208 0.006662161 -0.0042050225
0001a0 ac 06 f8 ba ce 25 70 3a 21 ee 05 3d 1d 9a 9e bc
       -0.0018922887 0.0009160907 0.0326978 -0.019360596
0001b0 3d 00 66 bd b5 81 7d bb 70 5d aa bc f7 00 79 3a
       -0.05615257 -0.0038682048 -0.020796508 0.000949874
0001c0 5a 95 60 3d d0 f9 98 3d 1e 16 b2 3c d2 08 07 3d
       0.054829933 0.07469523 0.021739062 0.032967396
0001d0 59 66 41 bd 2b 98 82 bc 2f f0 92 bd a7 56 b4 3d
       -0.047216747 -0.0159417 -0.07174718 0.0880559
0001e0 57 87 a6 bd 7a 25 98 bc 7c 17 63 3c 55 be d9 bc
       -0.08131283 -0.018572558 0.01386058 -0.026580015
0001f0 82 14 50 bd d8 e5 cc bc 4a a4 53 3c be d9 77 3c
       -0.050800808 -0.025011942 0.0129175875 0.015127597

encoder.4.weight f4 [128]
000000 8a 47 74 3f e4 00 77 3f 13 d3 84 3f 40 1f 80 3f
       0.9542166 0.96485734 1.0376915 1.0009537
000010 19 33 83 3f 4d 83 87 3f 93 cc 7e 3f 6e a0 79 3f
       1.0249969 1.0586945 0.99530905 0.9751042
000020 24 20 80 3f fd e3 77 3f ea b2 6f 3f f6 10 82 3f
       1.0009809 0.9683226 0.93632376 1.0161426
000030 32 7f 89 3f 6a a0 7c 3f 48 52 7d 3f 6a 8e 73 3f
       1.0741942 0.9868227 0.98953676 0.9513918
000040 77 94 7c 3f a4 1c 7d 3f ed b3 7e 3f 03 e0 84 3f
       0.9866404 0.9887183 0.99493295 1.0380863
000050 98 8a 85 3f f5 56 8c 3f 6e dc 7f 3f c6 43 81 3f
       1.043292 1.0964037 0.99945724 1.0098808
000060 67 76 6e 3f 7c 2e 7d 3f 2e da 78 3f db 27 81 3f
       0.9314942 0.98899055 0.97207916 1.0090288
000070 6b 54 69 3f e4 2d 87 3f 99 e6 80 3f 24 17 73 3f
       0.91144437 1.056088 1.0070373 0.94957185
000080 cc 28 7d 3f 6b 25 80 3f ee 1a 82 3f ae f3 6f 3f
       0.98890376 1.0011419 1.0164468 0.937312
000090 aa 08 7a 3f 9a 81 78 3f f5 c9 79 3f 37 17 81 3f
       0.9766947 0.97072756 0.97573787 1.008521
0000a0 05 04 80 3f 93 2d 73 3f da 62 72 3f 5d 64 7f 3f
       1.0001227 0.94991416 0.94682086 0.9976252
0000b0 c4 d9 7c 3f 30 c7 7c 3f b7 3e 8c 3f ec d5 78 3f
       0.98769784 0.98741436 1.0956639 0.9720142
0000c0 af 03 7e 3f 3a 66 7a 3f 00 d6 8e 3f 04 c8 95 3f
       0.9922437 0.97812235 1.1159058 1.1701665
0000d0 96 94 7b 3f 5d 1f 74 3f ee ee 89 3f 5f 4d 71 3f
       0.982736 0.95360357 1.077604 0.94258684
0000e0 64 35 78 3f 02 f6 77 3f da 98 79 3f df 5e 7a 3f
       0.9695647 0.96859753 0.9749886 0.9780101
0000f0 f3 de 8a 3f 47 99 85 3f 95 90 85 3f 08 cc 7e 3f
       1.0849289 1.0437402 1.0434748 0.99530077
000100 3f 6d 7d 3f d0 54 74 3f c7 c1 81 3f 79 26 7f 3f
       0.9899482 0.95441914 1.0137261 0.9966808
000110 b3 1c 76 3f 00 01 81 3f 6a 42 80 3f 48 78 7c 3f
       0.9613754 1.007843 1.0020268 0.98621035
000120 20 8b 76 3f 73 fc 80 3f 63 6d 80 3f 65 97 76 3f
       0.9630604 1.0077041 1.0033382 0.9632476
000130 cd b9 82 3f 2a 59 70 3f 20 c2 79 3f ed 4a 80 3f
       1.0212952 0.93886054 0.97561836 1.0022866
000140 38 74 7d 3f 62 54 84 3f 9d d6 7d 3f 99 32 88 3f
       0.9900546 1.0338252 0.991556 1.0640441
000150 ad 63 7d 3f 55 73 86 3f bb 0d 81 3f 10 07 7b 3f
       0.9898022 1.0503947 1.0082315 0.9805765
000160 f8 e5 6c 3f 2b c7 82 3f d8 dd 76 3f 94 15 79 3f
       0.92538404 1.0217031 0.96432257 0.9729855
000170 b8 56 76 3f 45 36 74 3f cd 1d 7c 3f 86 17 74 3f
       0.9622607 0.9539531 0.9848297 0.95348394
000180 85 96 81 3f dc f5 7e 3f 24 a9 71 3f a8 be 86 3f
       1.012406 0.995939 0.94398713 1.0526934
000190 9e 28 7f 3f c1 6b 8e 3f d7 3b 75 3f 78 54 85 3f
       0.9967135 1.1126634 0.95794433 1.0416403
0001a0 8a 90 82 3f cf ae 82 3f 27 b8 79 3f 43 84 75 3f
       1.020036 1.0209597 0.9754662 0.9590494
0001b0 a7 0d 7b 3f 98 fb 79 3f 5f 40 75 3f 0d df 7c 3f
       0.98067707 0.97649527 0.9580135 0.9877785
0001c0 e2 55 94 3f 40 02 86 3f a2 a1 8c 3f 43 aa 83 3f
       1.1588709 1.0469437 1.0986826 1.0286335
0001d0 5a 09 84 3f 8e 4e 7e 3f 9a 9e 78 3f e0 15 7c 3f
       1.0315354 0.99338615 0.97117007 0.9847088
0001e0 66 bc 7b 3f 68 d7 78 3f 00 be 82 3f ef 02 7c 3f
       0.9833435 0.97203684 1.0214233 0.98441976
0001f0 3f 31 82 3f 3f 6d 7b 3f 90 ed 75 3f 2e 89 7e 3f
       1.0171279 0.9821357 0.96065617 0.9942807

encoder.4.bias f4 [128]
000000 b1 6b 21 bd c6 88 c6 3b 8f 8b ba 3d fe 09 ae 3c
       -0.039409343 0.006058785 0.0910865 0.021244999
000010 5f e3 07 3c 34 7b 91 3d 73 d8 8c bb f5 18 f8 bb
       0.008293956 0.07103577 -0.0042982637 -0.0075713345
000020 dd 7d 03 bd e5 45 3e bc db 9d 93 bd 0d ab 88 ba
       -0.032102454 -0.011613344 -0.07207843 -0.0010426954
000030 32 a3 45 bd ff c7 96 bc 4e 9a 25 ba d8 06 81 bd
       -0.04825134 -0.018405912 -0.00063172437 -0.063001335
000040 04 3e ba bc 51 67 e1 bb ff 96 77 3c 99 50 63 3c
       -0.02273465 -0.0068787714 0.015111684 0.013874196
000050 a1 75 f5 3b 02 01 73 3d da e7 1a bd 90 27 06 bd
       0.007490829 0.059327133 -0.037818767 -0.032752573
000060 ae a0 cf bc a2 8a f5 3c 9f 3c 12 bc 60 79 30 bc
       -0.025345173 0.029973332 -0.008925586 -0.010771126
000070 9d 6d 91 3c 9e b2 49 3d 42 e4 a0 3c f3 ae ff bc
       0.017752463 0.04924261 0.019640092 -0.031211352
000080 45 2f 00 bd d7 cd 38 bc 51 0f 46 3d 99 69 e3 3b
       -0.03129508 -0.011279545 0.04835445 0.0069400785
000090 12 23 8e bc 7f dd 23 3c f3 2d b8 ba e1 27 29 3d
       -0.017350707 0.010001539 -0.001405178 0.041297797
0000a0 7f a7 9c bd 17 04 67 bd 28 62 00 ba 68 76 30 bc
       -0.07649135 -0.056400385 -0.0004897439 -0.010770418
0000b0 8b 07 30 bd e5 a2 7c bc 50 f7 d7 3d 10 6e 2a bd
       -0.042975944 -0.015419696 0.10545218 -0.04160887
0000c0 38 1e 19 bc ba 52 f5 bb de 18 90 3d 58 c2 83 bd
       -0.009345584 -0.0074866684 0.07035993 -0.064335525
0000d0 d9 f1 1b bd 49 2c 28 bd f4 53 ad 3d bb 15 87 bc
       -0.03807244 -0.04105786 0.084632784 -0.016489854
0000e0 16 88 23 bd 60 7a 43 bd 85 35 8e bd 50 6c 40 bd
       -0.039924704 -0.047724128 -0.06943802 -0.046978295
0000f0 d2 7d a1 3d 84 22 9b 3d a7 9a af 3c d4 ea 8b bd
       0.078853264 0.07574943 0.021436049 -0.06831899
000100 f0 40 19 bd 93 4b 95 bc 01 a6 82 ba 05 82 b4 bc
       -0.037415445 -0.018224513 -0.0009967686 -0.022034654
000110 1e 7b a5 bc c0 c3 c0 bb 18 e9 32 bd 91 5a cf bb
       -0.020200308 -0.00588271 -0.043679327 -0.006327935
000120 5a e0 6d 39 f2 6d 2e 3c d4 6c 22 3c 7d 28 1b bd
       0.00022685659 0.01064633 0.009913642 -0.03788041
000130 62 17 95 3d bd 09 47 bd 12 93 56 3d 2c eb 1d bc
       0.072798505 -0.04859327 0.05238635 -0.009638589
000140 6a 76 25 ba f5 6e c3 3c a7 e8 47 bd 24 88 84 bd
       -0.00063118956 0.02385662 -0.04880586 -0.06471279
000150 49 e7 96 ba 1e d8 31 3d c2 d5 f8 3c 08 32 d6 3c
       -0.001151302 0.043418996 0.030375365 0.026146904
000160 92 74 67 3c 59 2e 28 3d a5 ee 49 bd 7b eb a2 bc
       0.014126914 0.041059826 -0.049299855 -0.019887676
000170 36 91 15 bd 02 6f 85 bb 37 f4 11 bd 7e 21 df ba
       -0.036515437 -0.004072071 -0.035633292 -0.0017023531
000180 92 23 cc bb 98 29 35 bc e6 d0 70 bd a8 ac 1c 3d
       -0.0062298262 -0.01105728 -0.05879297 0.038250595
000190 3b 70 56 bd dd 2e 8d 3d be 66 2e bd 42 1f 91 3b
       -0.052353125 0.06893704 -0.04257845 0.004428775
0001a0 6e bd 70 bd c6 7c a0 3c 4d f6 4b bd c9 43 d4 bc
       -0.058774404 0.019590747 -0.049795438 -0.025911229
0001b0 73 46 50 bd f8 95 90 3c 93 26 c4 bd bc 81 8a 3c
       -0.050848436 0.017649636 -0.0957767 0.016907565
0001c0 f4 41 cb 3d 1d ef 37 3c d2 33 75 3d 56 bf 0e bd
       0.09924689 0.011226443 0.059863873 -0.03485044
0001d0 86 5c 72 bd ea 21 c2 bc e6 7e 42 bd 69 16 23 3d
       -0.05917027 -0.023697812 -0.0474843 0.039816294
0001e0 e6 84 dc bd 0e a0 4e bd 7b 23 e4 3c 20 53 04 bd
       -0.10767536 -0.05044561 0.02784895 -0.032305837
0001f0 17 a6 2c bd ae 98 b7 bc 5e b3 b1 bc 62 7f 00 3d
       -0.042150583 -0.02241167 -0.021691974 0.03137148
