Results/FCNN_encoder_confounder_free_plots/trained_model_fold1.pth (torch, 600778 bytes, 34 tensors)

encoder.0.weight f4 [256, 371]
00000000: 4940 de3b 13f8 aebc d0d6 043d 37ed 50bd
00000010: c36c 07bd 4044 4bbd 0dec 43bc 640e 9bbc
00000020: 96f9 0b3d 1338 e33c 1e44 1abd 1c11 383d
00000030: 8eef 8ebd 2348 253b 2284 0f3d 3592 fcbc
00000040: c236 dc3c 9bfc d3bc 71d9 353c 9dd2 32bd
00000050: e0a0 cabb 053c c33c c94f 783d f7d3 5f3d
00000060: 0e97 2abd 3e76 5a3d 8af4 1bbc ecb4 f13c
00000070: b7be 4fbd b595 fbbc d710 dfbd a7a8 753d
00000080: 2167 e939 7ce3 a3bd 22f6 7d3c 83fb f8bc
00000090: 126e bb3b f3ef 02bc 4243 4dbd 6b06 293b
000000a0: fb8b 85bd b398 1b3c d472 13bd 2445 593c
000000b0: a4d6 993d 3459 0e3e 9744 673c 6082 553c
000000c0: 0eb9 343b b873 40bc 4d3f c13c eaef efbc
000000d0: 715a bd3c 265b 123b 6237 c33b 8e1c bcbc
000000e0: 39d4 00bd fcab 09bd d245 bfbd 813b 083c
000000f0: 07c1 9bbc 88a8 df3c 23ed 073c 56f7 ccbc
00000100: 51ea 223d d553 143d bf38 54bd 157f 3d3d
00000110: f6ad 383d 48eb 1f3d 1945 f7bc 101d 043d
00000120: e7f0 57bd c42c 82bd 8139 0bbb 67df a8bb
00000130: 49df 4fbb 9c71 78bd d0bc 693d 1440 773d
00000140: b8aa 283c 63af 713d 3a42 cd3a 74c1 243d
00000150: d163 1d3c 1850 6c3d 5be4 57bd 089d 2e3d
00000160: 40f2 db3c 8f6f 8d3c fc38 e5bc 38d9 6e3d
00000170: f3e2 3f3d 779d 38bc 93a3 eb3c f3ab 9fbd
00000180: cab0 34bd 1e45 76bd ede9 743d 609a b7bc
00000190: d0ca 11bd 2243 70bd d387 6fbc b88d 94bd
000001a0: 9d86 20bd 08cc c0bb b578 49bb e6b7 31bd
000001b0: 2c22 cebc 66af d5bb 7808 41bd b04f 013c
000001c0: 79a6 09bd 1dbf fd3c 7b93 8fbc 0bc1 953c
000001d0: 5f9f ccbb a1ce 64bd 5a20 f93c 1c2e 32bd
000001e0: 04a4 15bd 9723 35bd 372d 04bd 4c43 bdba
000001f0: f6e3 90bd ceae 94bc 0459 c6bc cfe3 c83c
00000200: da6b 4a3d 0006 0fbc bada 66bc df9a 843c
00000210: d5b0 b7bb c278 3f3d b356 afbd 0eee 04bd
00000220: f4d9 9dbd ac48 dc3c d6d0 a03a 339f a13d
00000230: 463c 25bc 5d1f bebc e9e2 3a3b c279 48bd
00000240: b3f8 2a3d ac88 2fbd ba39 803c b879 f53c
00000250: 900c 27bd c336 fabc ed48 be3c a642 4d3c
00000260: 75ea 82bd 6442 163c d96a 893d df40 7cbd
00000270: 2b8d 013d b977 4c3c 4939 a7bc 4e30 883d
00000280: e5c1 debc 791d 193c d518 18bd 61d5 b0bd
00000290: 4a1f 42bc 6b9d 5ebd ba05 8ebb bff7 0c3d
000002a0: 87bd 49bd 7a19 92bd a3f3 3fbd e7f6 433d
000002b0: 93bf 1dbc cc09 1e3d faef 8ebc 9305 efbb
000002c0: 4135 58bd cb4d a33d da71 e53c 1d2d 81bc
000002d0: 0c9e 9f3d 266f 5abd 5fb9 903b 9caa 5bbd
000002e0: 4f76 b8bc 35f2 433d b31d 7f3c 1a7d f73c
000002f0: 3829 24bd 6f36 8ebd 12ac 223d 50b7 99bb
00000300: 1cb2 b7bc 7b99 893d 4da9 513c eb4e 34bd
00000310: 06fa 1d3d 9305 2a3c 0b08 a9bb 7bed 2d3c
00000320: e988 3dbd 5ac7 c33c 64b2 4b3d 9d82 e03c
00000330: b1a5 9c3c e4ab 95bc e902 f33b 3e1e 4e3c
00000340: b842 f83c c058 2abd 17e2 19bb 5ea4 14bd
00000350: b0e2 0ebd c064 e7bc 4f44 54bd 950c 51bd
00000360: 3bc3 363d a003 3a3c 42b2 12bd 9d61 03bd
00000370: 268a 03bc 0fa0 acbc b6f6 abbc a58f d0bc
00000380: ac9f 95bc c3f9 eebb 6b14 da36 8863 bf3c
00000390: f2e6 4e3d 9d81 243d a4f2 90bc 42fc cdbc
000003a0: 1e92 a4bb 88ed 4ebd d311 403d 6623 643d
000003b0: dc96 d7bc cb37 73bd dabb fd3b a813 3a3a
000003c0: 50c4 433d e735 8ebd 0518 723b 42d8 073c
000003d0: faff cbbc 0114 d6bc a56b 6bbc f4ee 5bbd
000003e0: 3f3e 6e3c d894 d1bb 5504 373c 567d d13c
000003f0: c42e 3abc 1395 dc3c 8f7f 173d 4c16 d4bc
0.0067825657 -0.021358525 0.032431424 -0.051007476 -0.033062708 -0.049625635 -0.011958134 -0.01892776
0.03417357 0.0277367 -0.037662618 0.04493819 -0.06979285 0.0025219999 0.03503812 -0.030831436
0.02688158 -0.025877288 0.011099205 -0.043657888 -0.0061837286 0.02383233 0.060622964 0.054645505
-0.041647963 0.05333542 -0.009518752 0.029505216 -0.05071899 -0.030711034 -0.10891884 0.059975293
0.0004451806 -0.080023736 0.015500577 -0.030393368 0.0057199085 -0.007991779 -0.05011297 0.002579118
-0.0652084 0.009496856 -0.03599818 0.013261113 0.075116426 0.13901216 0.014115474 0.013031572
0.0027576122 -0.0117463395 0.023589754 -0.029289205 0.023114415 0.002233216 0.00595753 -0.022962835
-0.03145239 -0.033611283 -0.09339489 0.008314968 -0.019012941 0.027302042 0.008296284 -0.025020283
0.039774243 0.03621276 -0.05181193 0.046263773 0.045087777 0.03904274 -0.030184316 0.03225428
-0.052719977 -0.063561946 -0.0021243992 -0.0051535848 -0.0031718782 -0.06065522 0.05706483 0.060363844
0.010294609 0.059005152 0.0015659996 0.040223554 0.009606318 0.05769357 -0.05270801 0.042630225
0.026848912 0.01726511 -0.027981274 0.058312625 0.046847295 -0.011268011 0.028764522 -0.077964686
-0.04411391 -0.06012451 0.0597934 -0.022412479 -0.035593808 -0.058657773 -0.014619785 -0.07253593
-0.039190877 -0.0058836974 -0.0030742113 -0.04338827 -0.025162779 -0.0065211533 -0.047127217 0.007892534
-0.033606026 0.030974919 -0.017526379 0.018280527 -0.0062445845 -0.05586112 0.030410934 -0.043501005
-0.03653337 -0.044223394 -0.032269683 -0.0014439612 -0.0707473 -0.01814976 -0.024212368 0.02452269
0.04941926 -0.008729458 -0.014090234 0.01618713 -0.005605797 0.046746023 -0.085614584 -0.03245359
-0.07707587 0.026890121 0.0012269269 0.07891693 -0.010085171 -0.023208315 0.0028516597 -0.048944242
0.041741084 -0.04285495 0.015652526 0.029965267 -0.040783465 -0.03054369 0.023228133 0.012528097
-0.063923754 0.009171102 0.06709833 -0.061585303 0.03162877 0.012479716 -0.020413058 0.066498384
-0.027192065 0.009345406 -0.037133057 -0.08634449 -0.01184828 -0.054349344 -0.0043341788 0.034415957
-0.049253013 -0.071337655 -0.04686321 0.047842886 -0.009628194 0.03858356 -0.017448414 -0.0072943657
-0.052785162 0.07973822 0.02800839 -0.015768582 0.07793817 -0.053328656 0.004416629 -0.053629503
-0.022517351 0.04783841 0.015571046 0.03021102 -0.04007837 -0.06943976 0.03971488 -0.004691042
-0.022423796 0.06718727 0.012796712 -0.044020575 0.03856852 0.010377306 -0.0051584295 0.010615702
-0.046273146 0.02389877 0.049730673 0.027406031 0.019121977 -0.01827044 0.0074161184 0.0125804525
0.030305251 -0.041588545 -0.0023480707 -0.036289565 -0.034884155 -0.028246284 -0.051822957 -0.05103739
0.04461978 0.011353403 -0.03581453 -0.032075513 -0.008028543 -0.021072416 -0.020991664 -0.02545912
-0.018264614 -0.0072929575 6.4992832e-06 0.02336289 0.050513215 0.04016267 -0.017693825 -0.0251447
-0.0050223013 -0.050519496 0.046892 0.05569782 -0.026317053 -0.05937938 0.007743341 0.0007098266
0.04779464 -0.06943875 0.0036940586 0.008291306 -0.024902333 -0.026132585 -0.014368926 -0.05369468
0.014541208 -0.0063959174 0.011170466 0.02557246 -0.011363689 0.026926553 0.036986884 -0.025889538

encoder.0.bias f4 [256]
00000000: 2cc5 39bc f610 b2bc 888a 413c 950b 8b3b
00000010: f271 9d3c ea88 783d 13f3 b03c 3e4c 383d
00000020: fc6a 7cbc b50a bbbc 30fc 393d 31b1 d73a
00000030: c07d 56bd 60b7 81bc 9806 87bc da1c 4d3c
00000040: b484 363b e410 e33b 9e49 1cbd 5d7e e53c
00000050: e167 163d 0713 103d 9eac f9bb ca01 8dbc
00000060: 03dd ae3c 74c1 093b 6472 83bd 4447 c2bc
00000070: bd5d 643c 5eaa 2b3c c807 d7ba 7d81 34bd
00000080: b06d 053d 9e41 a2bc b57e 9dbd 9a02 9abd
00000090: 612f 34bd 8295 9a3d 7a62 e1bc 9dc9 7f3d
000000a0: 5ee0 153c d8b6 7bbd b679 033d 1596 3c3c
000000b0: 36aa 87bc af8e 583c ccdc 5ebd 444c 623c
000000c0: bf70 2fbb c06e 5bbc 4d05 cb3c 9c91 d63c
000000d0: 2426 37bc 48b5 71bc 39f0 36bd e424 8fba
000000e0: b55b 123d 2ccd abbd 19a0 673c 1f16 2ebd
000000f0: 853c 7cbd 7b9a 0cbd 89e0 963d 08a1 65bd
00000100: e070 693d 8db9 c7bb 87ec 913c 8679 cdbb
00000110: cce2 313d 4dfe c63c e597 49bc 9532 63bc
00000120: c543 b9bc 7343 4ebc 5c71 2f3d e042 083c
00000130: 4489 18bc 93a6 64bc b21a c4bc afef b5bc
00000140: 06f3 5abd 27b3 e5bb b52d 573d edf6 723d
00000150: b4b1 d7bc 1448 cb3b d854 f3bb 7432 8ebb
00000160: 8141 02bd b8b3 683d 2658 8ebd 7695 d5bc
00000170: 517a 64bd ea77 f23d 64b4 e0bc 4b7b 003d
00000180: 81f8 e2bc 745a dbbc 9bdd 953b 5fac 7dbd
00000190: a6a3 73bd a877 383b a286 7e3c 5b41 6a3d
000001a0: 5e97 043d 89d5 9b3a 2b23 adbb 0277 f8ba
000001b0: bd85 683c 3d58 a7ba 2235 b73c 91fe 6f3d
000001c0: 353a 803c 7d8b a7ba 763a 1fbd 76c2 073c
000001d0: a9f4 7fbd f2b1 22bd e0a6 8fbd e69d 52bc
000001e0: 6a78 e93b f952 de3c b9d8 dd3d 4c6c 9cbc
000001f0: a243 1d3d b094 173d 3eb5 3abd 12cd f13c
00000200: be88 dcbc 71cf 193c 44ea 64bd 7682 65bc
00000210: 7950 1d3c 02ed 53ba 5001 6cba 6c84 323d
00000220: 123e fb3c 82f7 7b3b 6152 90bd aa47 b73c
00000230: 747d 63bd 0106 3dbc aa02 11bd 4460 823d
00000240: cd72 75bd d425 763c 77be db3b df5b cdbc
00000250: fe99 0f3d afb6 14bd c2d2 03bc 3c4f 8f3b
00000260: 664b da3c f28f 3f3b d8ab e33c 4d81 37bd
00000270: ffc3 86bd 191a b2bd b05e 1d3d d8c4 00bc
00000280: 467d 2a3d 0a40 55bd 69db 993c 6ef1 023d
00000290: 6ada 0d3d 2284 81bd c215 823c fbc6 16bd
000002a0: da10 3a3b 5aa1 b2bc 4622 d33c a51f eabc
000002b0: 3765 e7bb 3bf1 b63b 5b05 3cbd 82c8 3e3c
000002c0: 5bac 0a3d 7055 b3bc 2d89 453d 1864 e0bc
000002d0: a357 873d 26d6 a83d a1bd f4ba ef82 f63c
000002e0: 9361 35bc 837b 053b f85a 5b3c 193b b5bb
000002f0: 4b2d e43c 2488 89bd befe 4f3c 6179 903d
00000300: 62e8 f8bc e1ab 09bd 73d0 3bbd 934b 9ebd
00000310: 2a18 543d b6af 73bd e161 e8bb 78e8 6a3c
00000320: d22f 853d 2a29 b5bd fd76 c3bb fd2a 82bd
00000330: 434a 9abc 747b 923d a437 65bd 2a62 203d
00000340: 1098 cc3c bb79 873a c193 a7bc 4eda 0b3d
00000350: 8c82 e53b 8bb9 ad3d 44c9 f5bd bb79 ad3c
00000360: 974c 063d 20c9 f43c 8f51 ce3c 7179 71bc
00000370: 9f7d 693d 8585 123c 7ad5 21bd 847c 10bb
00000380: 479d aa3d 2dfe 0ebd a1f1 273d 3f63 8dbc
00000390: e6cc 3dbc fbf9 96bd cd79 3fbd e9b1 bcbc
000003a0: 2660 40bd 3591 60bd b49e 813b d38f 3a3d
000003b0: 6995 0a3d 816f bb3c af12 15bd f5b8 2fbd
000003c0: a85c 20bc 91b3 f03c d49a 10bd 6227 c2bb
000003d0: d572 913d 8ebf 8fbd a9ed 973c d74c 793c
000003e0: bde4 903d 7fec acbd 10ca f63c 1376 4d3c
000003f0: f11b 793d cefc 02bd c05b 473c e3e6 183d
-0.011338513 -0.021736603 0.011812814 0.004243324 0.019219372 0.060677446 0.021600282 0.044994585
-0.015406366 -0.022832254 0.04540652 0.0016456005 -0.05236602 -0.01583451 -0.016482636 0.012519086
0.0027850093 0.0069295038 -0.038156144 0.028014356 0.03672016 0.035174396 -0.0076194545 -0.017212767
0.021345621 0.0021019848 -0.06418303 -0.023715623 0.013938365 0.01047763 -0.0016405517 -0.044068802
0.03257531 -0.01980668 -0.07690183 -0.075200275 -0.043990497 0.075480476 -0.027512778 0.062448133
0.009147732 -0.06145367 0.032098494 0.011510392 -0.016560655 0.013217612 -0.054409787 0.013812128
-0.0026770083 -0.013393104 0.024782801 0.026192479 -0.011178527 -0.0147526935 -0.044662688 -0.0010921028
0.03573199 -0.08388743 0.014137291 -0.042501565 -0.061581153 -0.03432701 0.073670454 -0.056061774
0.05699241 -0.0060951174 0.01781298 -0.0062705902 0.04342918 0.024291182 -0.012304281 -0.01386704
-0.022615323 -0.012589323 0.042832717 0.0083167255 -0.00931007 -0.01395573 -0.02393851 -0.022209017
-0.05345442 -0.007009882 0.052533824 0.059317518 -0.026329853 0.0062036607 -0.0074258856 -0.0043395106
-0.03180075 0.05681202 -0.06950407 -0.026072245 -0.055780713 0.11839278 -0.027429767 0.03136758
-0.027706387 -0.02677653 0.0045735366 -0.061931964 -0.05948224 0.0028147493 0.015535029 0.057191234
0.032370917 0.00118892 -0.0052837334 -0.0018956366 0.014192042 -0.0012767386 0.022364203 0.058592383
0.015652755 -0.001278266 -0.038874112 0.008286109 -0.062489185 -0.039720483 -0.07014251 -0.012855029
0.00712495 0.027139174 0.10832352 -0.019094609 0.038394578 0.037007034 -0.045583002 0.02951673
-0.026920673 0.009387837 -0.055887476 -0.014008155 0.009601706 -0.0008084328 -0.0009002881 0.04358332
0.030669246 0.0038447087 -0.070469625 0.02237304 -0.055539563 -0.011537076 -0.03540293 0.063660175
-0.059923936 0.015023667 0.006706055 -0.025068222 0.035058968 -0.036307033 -0.008045854 0.004373459
0.02664728 0.0029230085 0.027791902 -0.044801045 -0.06580352 -0.08696384 0.03842038 -0.007859431
0.041623376 -0.052063026 0.01878138 0.031968527 0.034632124 -0.063240305 0.015879516 -0.036810856
0.0028391392 -0.021805454 0.025773179 -0.028579542 -0.0070616263 0.005582956 -0.045903545 0.0116444845
0.033855777 -0.021891326 0.048226524 -0.027391478 0.06608512 0.082439706 -0.0018672236 0.03009173
-0.011070627 0.0020367808 0.013388388 -0.0055307266 0.027853629 -0.0671542 0.012695013 0.07054401
-0.030384246 -0.033611182 -0.04585309 -0.077292584 0.051780857 -0.059493743 -0.007091746 0.014337651
0.065032616 -0.08845742 -0.0059651122 -0.063558556 -0.018834239 0.07152453 -0.055961266 0.039156117
0.024974853 0.0010335961 -0.020456197 0.03414374 0.007004088 0.08482655 -0.12001279 0.02117621
0.032787886 0.02988106 0.025185375 -0.014738427 0.057004567 0.008942966 -0.039510228 -0.0022046873
0.083307795 -0.03491037 0.04100192 -0.017259238 -0.011584496 -0.07371899 -0.046747018 -0.023034053
-0.046966694 -0.05482598 0.0039556865 0.045547318 0.033833895 0.022880318 -0.03639477 -0.042901
-0.009787716 0.029382499 -0.035303906 -0.005925105 0.071019806 -0.07018958 0.018545942 0.015216074
0.07074878 -0.084435456 0.030125648 0.012540358 0.060817663 -0.031979375 0.012167871 0.037329566

encoder.1.weight f4 [256]
00000000: b29b 823f 5b24 7b3f 77f4 7d3f e79d 7f3f
00000010: 697c 7f3f 97e4 873f ff3c 793f b1e7 803f
00000020: 4262 783f 88e3 7b3f 7702 8c3f 727d 813f
00000030: d658 823f a7f8 7b3f 2e72 793f db17 7c3f
00000040: 07db 7b3f cad1 7e3f 0070 873f ad3a 763f
00000050: 570d 803f bc8a 813f d0d3 793f 165a 793f
00000060: 5826 8c3f 1bce 7c3f a0c8 773f 3bd2 783f
00000070: 5e19 823f b72c 813f fc84 853f 3164 843f
00000080: 118e 753f b3b1 753f b3b3 7e3f 6d65 7a3f
00000090: b9ca 823f a5c6 873f 589b 773f b8df 7c3f
000000a0: 5274 7e3f a2ae 7c3f 4c65 803f 88b9 7b3f
000000b0: 52dc 803f d91a 833f 3c6e 753f 9ddd 7d3f
000000c0: 7c03 863f 465f 853f 97dc 7f3f e4de 823f
000000d0: abc0 803f 6c82 813f 3a51 803f f5e5 793f
000000e0: 255a 843f a932 7a3f e29e 7f3f 5aa2 853f
000000f0: b856 893f c723 813f 8a1d 7f3f a4c7 813f
00000100: 6bed 783f 0a86 773f 4b1e 813f ed83 7c3f
00000110: 3611 833f 0376 823f 5641 7d3f b9d0 883f
00000120: ac71 783f 6224 7f3f ecda 813f 60e9 7f3f
00000130: 05f5 7c3f b757 853f ff4a 863f efcf 833f
00000140: 0e70 803f a7b7 823f c1df 7e3f a4f9 893f
00000150: 2681 843f 9ddc 883f e4f4 7d3f 39e3 783f
00000160: 082d 843f 6513 813f 183a 7e3f 03d4 733f
00000170: 89f2 703f 3b3c 833f 5133 7a3f f078 803f
00000180: cc26 7c3f b934 803f 25a3 823f 1878 833f
00000190: 7a8a 773f 3b0e 863f b95e 7f3f 0b04 813f
000001a0: fe19 7d3f 19b2 7b3f d185 7c3f 74d3 773f
000001b0: eb4e 803f 8352 7e3f ceec 803f ea3f 843f
000001c0: 0046 8c3f e42e 873f b291 833f cbb3 7c3f
000001d0: 7c4f 803f 178e 793f 04ed 7c3f df82 863f
000001e0: 0cf2 803f 1fa7 823f 63cb 963f b408 803f
000001f0: e237 813f 347d 7d3f eb72 823f 5162 7b3f
00000200: 3697 7e3f 6189 813f 7fe0 713f 265d 7c3f
00000210: a5ec 7c3f 2a85 753f c742 843f 6101 813f
00000220: 3d63 833f 936c 833f 62fb 813f 3044 7c3f
00000230: 4979 793f da88 783f be76 893f 9c69 863f
00000240: cbb4 853f c040 843f cd7a 813f 3ba4 7a3f
00000250: b10d 783f 12f0 833f 3cfc 7d3f d414 823f
00000260: 8422 823f 49ef 803f 8393 803f 594c 873f
00000270: 8603 823f 3a22 7b3f 0790 7e3f 54b1 743f
00000280: 3520 793f 7c50 813f 5884 7f3f d3a7 813f
00000290: 7780 803f 0ce2 7e3f ba68 7b3f 0c5e 743f
000002a0: 59d0 833f 7415 833f 8bf6 813f 8167 833f
000002b0: fb68 873f a6c4 803f 0539 813f ef6d 803f
000002c0: ee1d 843f 2612 7f3f f63b 833f 127e 703f
000002d0: c904 7b3f faf6 7d3f 3ca0 733f 2376 7f3f
000002e0: 8231 783f 8ea7 753f 0377 843f e917 883f
000002f0: 6fec 803f fde5 743f e34f 743f 7d25 853f
00000300: d962 913f 7ca8 803f fa33 803f ef79 7e3f
00000310: 9481 803f 0d7a 7b3f 2f1e 7a3f e9f5 7b3f
00000320: 232f 7e3f 933c 813f 82d0 823f 6850 7d3f
00000330: b81b 843f 8839 823f 5c28 7c3f f86e 753f
00000340: 4e73 803f 71d0 7a3f 70fc 773f e718 773f
00000350: 5fe9 7c3f ff8d 813f 3b85 703f 8801 7a3f
00000360: b7f6 803f a9f1 7e3f e313 843f a954 843f
00000370: 09e0 843f 0afd 843f f043 763f 8ca8 823f
00000380: 3d51 803f c01b 863f cd9e 793f cc7c 7c3f
00000390: d52d 823f 1112 843f 9046 803f 1a49 813f
000003a0: f901 763f 83fd 853f 5e4c 743f 69fa 803f
000003b0: a83c 883f d0c0 823f a1bb 833f 0786 7a3f
000003c0: 5d1e 793f d52f 873f 9940 7b3f 0e35 823f
000003d0: 7be1 8c3f d03e 813f 3c44 823f dee1 833f
000003e0: 5a9e 853f 0176 7a3f ff04 7c3f 3851 713f
000003f0: b31d 753f 8194 7b3f 96c6 7b3f 62fa 7d3f
1.0203764 0.9810235 0.9920115 0.99850315 0.9979921 1.0616635 0.973587 1.0070707
0.9702493 0.9839406 1.0938252 1.0116408 1.018336 0.9842629 0.9743985 0.984739
0.98381084 0.9953886 1.0581055 0.9618328 1.0004071 1.0120463 0.97588825 0.97403085
1.0949202 0.9875199 0.96790504 0.97195786 1.0163991 1.0091771 1.0431209 1.0343076
0.959199 0.9597427 0.9949295 0.97811013 1.0218116 1.0607497 0.9672141 0.9877887
0.9939624 0.9870397 1.0030913 0.98329973 1.0067236 1.0242568 0.9587133 0.9916628
1.0469813 1.04197 0.9994597 1.0224271 1.0058798 1.0117927 1.0024788 0.9761651
1.034001 0.9773355 0.9985181 1.0440171 1.072959 1.0089043 0.9965445 1.013905
0.9723727 0.966889 1.008737 0.986388 1.0239627 1.0192264 0.9892782 1.0688697
0.9704845 0.9966489 1.0144935 0.99965477 0.9881137 1.0417393 1.0491637 1.0297831
1.0034196 1.0212296 0.9956017 1.0779309 1.0351913 1.0692326 0.992018 0.97221714
1.0326242 1.0084044 0.99307394 0.9524538 0.9412008 1.0252756 0.9773455 1.0036907
0.984967 1.001609 1.0206038 1.0271025 0.96695673 1.0473093 0.9975391 1.0079359
0.98867786 0.9831863 0.9864169 0.96807027 1.0024084 0.9934465 1.0072267 1.0332005
1.0958862 1.0561185 1.0278838 0.9871184 1.0024257 0.97482437 0.9879916 1.0508689
1.0073867 1.0207251 1.1780819 1.0002656 1.0095179 0.9901917 1.019132 0.98196894
0.9944948 1.012005 0.9448318 0.98579633 0.9879859 0.9590632 1.0332879 1.0078546
1.026466 1.0267509 1.0154841 0.98541546 0.9745069 0.9708382 1.0739362 1.050098
1.0445799 1.033226 1.0115601 0.97906846 0.9689589 1.0307639 0.99213004 1.0162606
1.0166783 1.0073024 1.0045017 1.0570174 1.0157325 0.980991 0.9943852 0.9558308
0.9731477 1.0102687 0.99811316 1.0129341 1.0039204 0.9956367 0.98206675 0.95456004
1.0297958 1.0240922 1.0153364 1.0265962 1.0578912 1.0060012 1.0095526 1.0033549
1.0321634 0.9963707 1.0252674 0.9394237 0.98054177 0.9920498 0.95166373 0.9978964
0.9695054 0.95958793 1.034882 1.0632297 1.0072154 0.95663434 0.954344 1.0402066
1.1358291 1.0051417 1.0015862 0.99404806 1.0039544 0.9823311 0.97702307 0.98422104
0.99290675 1.0096611 1.0219882 0.98950815 1.0320959 1.0173807 0.98499084 0.9587245
1.0035188 0.97974306 0.96869564 0.9652237 0.98793596 1.0121459 0.93953294 0.97658587
1.0075291 0.99587494 1.0318569 1.0338336 1.038087 1.0389721 0.96197414 1.0207686
1.0024792 1.0477219 0.97507936 0.98627925 1.0170237 1.0318013 1.0021534 1.0100434
0.9609676 1.0467991 0.9542903 1.0076419 1.0643511 1.0215092 1.0291635 0.9786076
0.97311956 1.0561472 0.98145443 1.0172441 1.1006311 1.0097294 1.0177073 1.0303304
1.043895 0.9783631 0.98445123 0.94264555 0.9574844 0.98273474 0.98349893 0.9921018

encoder.1.bias f4 [256]
00000000: d062 00bc 0bda 0ebd f7b3 21bd b96f 323b
00000010: 2d12 cdbc 1a68 ab3d 7292 ccbc ad2a a63b
00000020: 68f1 3fbd 3770 68bd 5a57 c73c dea1 77bc
00000030: 1e41 13bd 83df 17bd 5f16 04bd 4cf0 863c
00000040: 3b58 96bb 3cb5 e83c da6c d2ba d4d6 10bd
00000050: 45ca 0a3d 1387 933d d2b5 193c dcb6 68bc
00000060: 1a9a 093d a78b 013d 95bb 97bc 789b a2bc
00000070: 7b50 00bc 382c c93a c0df 493d aefc b8bc
00000080: a4d0 56bd 5111 53bc e7ae 35bd 70a8 b2bd
00000090: a5be b6bc 3b13 493d 5ad1 ddbc 4d93 8d3d
000000a0: 57b1 9cb9 71cd 7bbd 05e6 c13c 9363 e1bc
000000b0: 9311 913c 072f b23b dc97 11bd bd34 01bd
000000c0: 13d3 dbbc a3a9 753c 08d0 dbbc 02bc 243d
000000d0: 00f0 b43c c9ae 2cba 2015 19bd 4b7b a3bd
000000e0: 4af6 f3bb 3d46 3cbd 8a3c e1bc 45c1 c0bc
000000f0: f35c 0fbb a3a4 8bbb 2f1d 0fbb 667b e3bc
00000100: 6534 78bc 2d9b 55bd 2121 a5bc b9c6 cebb
00000110: b03d 923c 823b 303c 5efe 283c 8dae 313d
00000120: 2341 4dbd 0d96 22bd 9849 d3bc ad27 71bc
00000130: 0b17 e5bc ec87 5a3c 7f19 f33c 2a6b 15bd
00000140: 2eb0 e4bc 53fa fa3b 183b 3bbb 78c2 243d
00000150: 1e33 e73a 2704 8fbc 0a89 c6bc 17d5 00bd
00000160: 0ced f83c a51d 02bd a8ec 11bd f5c3 2cbd
00000170: 42cf 84bc a6fe a63d 5a2d 11bd 1128 f7bc
00000180: 3b10 73bc aeb2 c3bc 6f50 0d3d 357a 1cbd
00000190: 165c 4ebd 1ac5 62bb ba74 1bbd b3b7 e23b
000001a0: c1c4 19bc ae07 b9bc c131 a5b9 71be 73bc
000001b0: 4a43 52bb af65 74bc aa94 003b 5f37 583c
000001c0: c427 b8bc e93a 593c 4f55 4fbd 338a 603c
000001d0: 6134 b5bc d6bf 1cbb c8e3 26bd 12bd 53bd
000001e0: 8963 dfbc c9ac 3fbc d6e9 a23d a794 9f3c
000001f0: 26c7 debc 7002 49bc 091d 41bd d1f4 0bb8
00000200: 9414 b6bc 5416 933c 3639 2bbd b89a 03bd
00000210: 224b 59bb a6a5 79bd da32 0abb 1358 2cbc
00000220: 0035 bb3c 775e 0a3d c2fa f2bb 106e 18bd
00000230: 80bf 46bc 3e57 21bd 75da b7bc a406 413c
00000240: 5488 c9bc fd00 d6bc 9d9a 1bbd d837 84bc
00000250: 4ea6 f73c e1aa 913b c647 86bd a594 003d
00000260: 037e ab3c d63a f63b 17e0 a639 4fe5 8f39
00000270: e283 ecbc b7c3 7fbd 6fe3 88bc 3d32 e83c
00000280: 65be 1cbc 8277 7bbb 3b28 c8ba 406d 40bc
00000290: b0b0 8e3c d8a0 15bd 087a 0ebc 16b2 72bc
000002a0: d1b8 113d 79fb 75bc bb3e b53c 6ddb 3f3a
000002b0: a42c 053c 571a 053c d2e3 06bd 5f71 093b
000002c0: 3ab7 fdbc e0f5 f83c 0ba2 603c 923c aabd
000002d0: b1a3 b03c 33a0 f83c dc18 61bd e21c 833c
000002e0: a649 3fbd 591b ed3c ae62 213d 0aa3 eabc
000002f0: 499e 90bc 4fea 8dbd a30e 76bd 1de8 a93d
00000300: 7087 923c 1a6f 76bc c965 10bd d94a e0bc
00000310: cf91 8d3c e215 d4bc 6ff9 94bc 0bf8 fdbc
00000320: a694 a53c 156c 6bbd 847c 7ebc 78d8 dcbc
00000330: c067 5cbd 0bbf 9c3c 5153 adbc cf7c d03c
00000340: dcc8 51bb 92c4 a9bd 61ac 33bd f719 99bc
00000350: c0af ccbc 47bc 833d 6d21 01be 2e0d 5ebd
00000360: a85b 353c 6d9c 49bc 85a3 d83b 52d3 7dbc
00000370: 2c6a 403c 9901 90bd c273 0cbd cf9e 27bc
00000380: b463 89b9 3654 873c b16e 0dbd 4dbc 483b
00000390: 4149 443c 8e0f 4cbd d0ca 1abd 9ed4 42bc
000003a0: 4f92 b2bd 365b 3b3c b738 72bc c365 05bd
000003b0: 7af2 01bc 23df 283d 13f8 823c 7958 48bd
000003c0: fa70 febc 0860 a03b dbf1 5abd 430f 57bc
000003d0: 8834 2a3d 7c88 06bd 235c d03c 162d acbc
000003e0: 2389 833d 63aa 6abd a631 00bc 9c12 a3bc
000003f0: 8e2b e63c 3d20 fcbc 91c2 25bd 84ff c13a
-0.007836059 -0.03487591 -0.03947827 0.0027227236 -0.025033081 0.08369465 -0.024972174 0.0050710053
-0.046861082 -0.05674764 0.024333645 -0.015114276 -0.035950772 -0.03707839 -0.032247897 0.016472004
-0.0045881546 0.028406732 -0.0016054169 -0.035361126 0.033884306 0.07203498 0.009381728 -0.014203753
0.03359423 0.031627323 -0.018522063 -0.019849524 -0.007831688 0.0015348261 0.04928565 -0.022581425
-0.05244507 -0.0128825465 -0.044356253 -0.08723533 -0.022307703 0.049090605 -0.027077366 0.06912861
-0.00029886767 -0.06147522 0.023669252 -0.027513301 0.017708575 0.005437735 -0.035545215 -0.031544436
-0.026834046 0.014994058 -0.026832595 0.04021836 0.022087097 -0.00065873243 -0.037373662 -0.07982501
-0.0074451314 -0.045965422 -0.027494688 -0.023529658 -0.002187547 -0.0042615696 -0.0021837463 -0.027768802
-0.015149211 -0.05214994 -0.020157399 -0.0063103107 0.01785168 0.010756375 0.010314552 0.043379355
-0.050110947 -0.03969388 -0.025791928 -0.014718932 -0.02796509 0.01333807 0.029675243 -0.036479153
-0.02791604 0.0076592355 -0.0028569158 0.040224522 0.0017639135 -0.017458035 -0.024235267 -0.03145322
0.03038647 -0.031766552 -0.035626084 -0.042179067 -0.01621211 0.08154039 -0.03544364 -0.030170472
-0.014835413 -0.023888912 0.034500536 -0.038202483 -0.05038079 -0.0034602345 -0.037953116 0.0069188713
-0.009385289 -0.02258667 -0.00031508322 -0.014876948 -0.0032083564 -0.014916821 0.001961986 0.013196795
-0.0224799 0.013258674 -0.050618466 0.013704824 -0.022119703 -0.0023918054 -0.040744573 -0.051693983
-0.027269142 -0.01169891 0.07954757 0.019480063 -0.02719457 -0.012268648 -0.04714683 -3.3368186e-05
-0.02222661 0.017954983 -0.041802607 -0.032129973 -0.0033156355 -0.06094899 -0.0021087439 -0.010519045
0.02285242 0.033781495 -0.0074151466 -0.03721434 -0.012130618 -0.03938984 -0.022443036 0.011781368
-0.02460114 -0.026123518 -0.037989248 -0.01613991 0.030230667 0.004445419 -0.065566584 0.03139176
0.02093411 0.007514338 0.00031828947 0.00027445934 -0.02887148 -0.062442508 -0.016710011 0.028344268
-0.009566878 -0.0038370793 -0.0015270779 -0.011744797 0.017418236 -0.036530346 -0.008696087 -0.014812967
0.035576645 -0.015013569 0.022124639 0.0007318769 0.008128319 0.008123956 -0.03293211 0.0020972115
-0.030971158 0.03039068 0.013710509 -0.08312334 0.02156243 0.030349826 -0.05495535 0.016004983
-0.046701096 0.028943704 0.03940075 -0.028642196 -0.017653601 -0.069294564 -0.060072552 0.08296225
0.017886847 -0.015041137 -0.03525332 -0.02737944 0.017281441 -0.02588934 -0.018185345 -0.031002065
0.020212483 -0.057476122 -0.0155326165 -0.02695869 -0.05380988 0.019134065 -0.021157892 0.025450138
-0.003201059 -0.08289446 -0.043865565 -0.018689139 -0.024986148 0.064323954 -0.12610407 -0.054211788
0.011069216 -0.012305361 0.00661129 -0.015492277 0.011744063 -0.07031555 -0.034290083 -0.010230734
-0.0002620496 0.016519647 -0.03452939 0.0030629814 0.011980356 -0.04981952 -0.037791073 -0.011891512
-0.087193124 0.011435321 -0.01478403 -0.03256775 -0.007931346 0.041228425 0.015987432 -0.0489125
-0.03105973 0.0048942603 -0.053453308 -0.013126197 0.041554004 -0.032845005 0.02543456 -0.021017592
0.06422641 -0.0572914 -0.007824337 -0.019906335 0.02809694 -0.030777091 -0.040468756 0.0014800881

encoder.3.weight f4 [128, 256]
00000000: 518c c6bd 4328 933d 2242 8bbc 1818 013d
00000010: 8908 1fbc 50a7 193e 5762 a43c 2307 cf3d
00000020: c8b6 383c 8efd 9c3d a04b 523e b8b5 adbd
00000030: 511c 143e ea58 9fbb b147 fbbc 9fc7 c13d
00000040: 5a5b a6bb 069f 1a3e d8e5 233e addd 5b3d
00000050: 51fc 7cbd cabc 713c 8542 1fbd 2ccb e6bc
00000060: a236 0a3e 2847 6fbc 4075 2b3d 0b8d 523d
00000070: 71dd 7d3d 3485 c13d 24c4 5c3d 8455 923c
00000080: 54a4 9d3c 2b43 53bd 94f2 f63c 33d9 32bc
00000090: 5047 ff3d 8303 c4bd 306d 893d cf9b 44bd
000000a0: 35df 60bd 830f caba 0c10 73bd ef3b 8f3d
000000b0: 9d66 8ebd 1ca1 b7bd 1422 9bbd 874e 7ebc
000000c0: ae70 553d 16e4 d93a 03c2 da3d 61b2 ec3c
000000d0: 10d7 143d 28b7 cb3d 3158 8ebd 8b9b 13bd
000000e0: bbf4 323e ea7c 473c a43c 7ebd c5c9 edbc
000000f0: 7bb6 243e 5c04 8d3d 8159 88bc 3aba 823d
00000100: fef3 f43c 368d e1bc cf0f dc3c 2d7c 6fbd
00000110: 8a0e 9fbc e119 a0bd 8af9 cfbb 2fa6 a33d
00000120: b86e 883d c92a 9abd e778 a7bc 5490 993d
00000130: 43a2 c93b 4183 0bbe 8398 0d3e faa6 a23d
00000140: 8fbf ca3c 3520 44bd 666a 3cbd 39a3 113e
00000150: 3a19 ce3c 564b 1b3e fd77 913d 1c4d a23d
00000160: 69a9 00bd 80b5 0f3e 21f4 123c 58ae 01bc
00000170: 99f7 bbbc 4725 89bc 913e 9e3d 9f4d 733d
00000180: 1759 66bc 7b0c 1b3d c24c 66bd 5368 d8bc
00000190: 22c7 c13c b2f3 1a3e 4906 1cbd 611a c13d
000001a0: 80dd a23d 32d0 863d 01e5 043d 6d24 d23d
000001b0: 69c6 cc3d be4b c73d a391 53bc 3342 ebbd
000001c0: 41cf f5bc a4d2 2c3e 89a0 e9bc 61df c43c
000001d0: d9ae 853d 8fd5 35bc 3e62 27bb 4113 ed3c
000001e0: d05c 3c3d 8cf7 f3bd 89ee 0fbe 5d58 8abc
000001f0: 0482 473d 5e97 9b3c c9e8 963d aa24 c03d
00000200: 2c83 fa3c 9c90 783d 08a3 f6bc 7831 463d
00000210: 0ce5 a53d 39e7 a53c 07a3 cd3d 6e52 01bd
00000220: e8e7 823d 2aa9 11bd d3c4 cb3d 12a8 09bd
00000230: 3243 06bd 5f2e 7bbc 9e2f b23d 520d ed3b
00000240: 9859 d43d 04ab f63d e415 b2bc 53e4 b6bc
00000250: 9190 323d 3c34 04bd 9e01 94bc 321d afbd
00000260: b3bd bcbd 5ba0 77bc bd55 063d 8857 293e
00000270: 8470 c93d cb3f 943b ae1e a53d f28d a83d
00000280: f07c b5ba a8c9 863d c047 5cbc f905 f63c
00000290: 4bd7 b03d 4886 67bd bc60 ba3d c04e 963d
000002a0: 99f8 f5bd 04f5 903c 8f3c 8f3d 5446 95bd
000002b0: 09dd 6fbd 4118 743d 1156 1abd 8fbd 543d
000002c0: fb55 993d df52 473d a641 0c3e 344c 8b3d
000002d0: 092f 923d 55aa adbc 3a81 ae3b f06d 2dbd
000002e0: 2154 44bc 4d75 f13c 6f45 7ebd fb82 6bbd
000002f0: cefc 773d 8d77 683d 8851 933d 9a61 01bc
00000300: 7d34 203e e6ab b93c eed5 67bd 72b4 2b3e
00000310: f216 993d 123b c13d eb3f 7e3d 9ab7 a5bd
00000320: de1d 4b3c 0ee7 75bd e4a6 ba3d 0922 7a3a
00000330: 5499 a73d 92b8 ddbd ce2f a1bd 5cb8 883a
00000340: 282c 24bd 683f 92bc 1087 85bd d9ea 67bd
00000350: e3c7 f1bd 1089 403b 3e30 99bc c8b4 813d
00000360: 25f8 cb3c 730b 713d 89a2 073e bbbc b83b
00000370: 2c51 d33d e67a a4bd 5266 033d 88b0 033e
00000380: bb27 043e 5e0f ecbd 359f 123d 1142 02be
00000390: f85c be3d 228d 993d 6473 983c 8c9c 41bd
000003a0: 47ce c93c 25e1 973d 62a3 643c 4c1f b63c
000003b0: 95a3 00be d773 f93d a41f 443e 2d47 b43c
000003c0: 2780 9d3d a7ed fc3d d10d 053d 3f9d 8b3d
000003d0: 9b11 cabd ab81 d33d f322 a2bd 90a1 d33d
000003e0: 9be3 75bd 4a59 a43d 1b97 163e feca f0b9
000003f0: 6cdd c73c 7d2d f83c efd1 293d 4f06 97bd
-0.09694732 0.07185414 -0.016999308 0.03151712 -0.009706625 0.15005231 0.020066423 0.10108783
0.011274047 0.07665549 0.20536661 -0.08481926 0.14463927 -0.0048628943 -0.030673834 0.09461903
-0.005076808 0.15099725 0.16005647 0.053678203 -0.061764065 0.0147544835 -0.038881797 -0.028173052
0.13497403 -0.014604367 0.041859865 0.05140404 0.06197876 0.094492346 0.05389799 0.017863043
0.019243397 -0.05157773 0.030144967 -0.010916042 0.12464774 -0.09570982 0.06710279 -0.048000153
-0.054900367 -0.0015416 -0.059341475 0.06993853 -0.06953166 -0.08966276 -0.07574859 -0.015521652
0.052109413 0.0016623761 0.10681536 0.028893651 0.036337912 0.09947044 -0.06950415 -0.03603701
0.1747617 0.012175778 -0.06206955 -0.029026875 0.16085236 0.06885597 -0.016644241 0.06383176
0.0299015 -0.027533155 0.026863007 -0.058468033 -0.019416112 -0.07817436 -0.006346886 0.079906814
0.06661743 -0.07527692 -0.020443393 0.074982315 0.0061533763 -0.13624288 0.1382771 0.079420045
0.024749545 -0.047882278 -0.045999907 0.14222421 0.025158513 0.15165457 0.07102964 0.07924864
-0.031411562 0.1403408 0.008969338 -0.007915102 -0.022945212 -0.016741408 0.07726777 0.059400197
-0.014059327 0.0378537 -0.056225546 -0.026416933 0.023654524 0.15132025 -0.03809193 0.094288595
0.07952404 0.06582679 0.032444958 0.10260854 0.09998781 0.097312436 -0.0129131405 -0.11487236
-0.030006053 0.16877228 -0.028518932 0.024032297 0.0652749 -0.01109828 -0.0025540735 0.028939845
0.04598695 -0.1191245 -0.14055838 -0.016887838 0.048707977 0.018993076 0.07368619 0.09381993
0.030580126 0.060684785 -0.030107036 0.04838702 0.08100328 0.020251857 0.100408606 -0.03157275
0.06391889 -0.035561718 0.099496506 -0.03360755 -0.032778926 -0.01533088 0.087004885 0.007234254
0.10368651 0.120443374 -0.021738954 -0.02232567 0.0435949 -0.032276377 -0.018067177 -0.085504904
-0.0921587 -0.015113915 0.03279661 0.16537297 0.09835914 0.0045242063 0.08062492 0.08230199
-0.0013846438 0.065814316 -0.013444841 0.030032145 0.08634814 -0.056524545 0.09100482 0.07339239
-0.12010307 0.017694958 0.069939725 -0.07288805 -0.058560405 0.059593443 -0.037679736 0.05193859
0.074871026 0.048663016 0.13696918 0.06801644 0.071378775 -0.021199385 0.0053254636 -0.042341173
-0.0119829485 0.029474879 -0.062077936 -0.05749796 0.060543828 0.056754638 0.07193285 -0.007896805
0.15645023 0.022664975 -0.056600504 0.16768053 0.074750796 0.09435095 0.062072676 -0.0809166
0.012397258 -0.060034804 0.09113863 0.0009541815 0.08183542 -0.108262196 -0.07870446 0.001043092
-0.040081173 -0.0178525 -0.06519902 -0.056620453 -0.118057035 0.002937857 -0.018699761 0.063333094
0.024898598 0.05884881 0.13245596 0.005637733 0.10318217 -0.080312535 0.032080002 0.1286031
0.12905781 -0.115263686 0.035796363 -0.12720515 0.09295076 0.07497622 0.01860971 -0.047268435
0.024634494 0.0741599 0.013954969 0.02223172 -0.12562402 0.12180298 0.19152695 0.022006596
0.07690459 0.12350016 0.03248388 0.06817102 -0.09866639 0.103274666 -0.07916822 0.1033355
-0.060031515 0.08024843 0.1470608 -0.00045927608 0.024397574 0.030295128 0.041459974 -0.0737425

encoder.3.bias f4 [128]
00000000: 15c4 883d 697f ae3c eabe 223d c434 143d
00000010: 3bf5 3c3d 214e df3c 902c 073c 9df4 e3bc
00000020: 27b9 7abc 92de 203c 0553 2e39 85dd 6cbd
00000030: fab3 703d 9d91 133d 9579 2e3c 9e2c 10bd
00000040: b1e4 8fbb 2453 21bd abf1 373d 8c9d 0b3d
00000050: 51b3 9fbd 14cf a4bd e62e 65bd 35c0 49bb
00000060: 2fa4 76bd dad5 53bb dfc6 c03a a434 153d
00000070: 9b1e edbb 323f b63d ee29 8a3d ab5f 133d
00000080: 4b12 c7bb c553 d3bc 920e 8bbd 7b3e 253d
00000090: e978 963a 81af 2a3d 5622 b83c 1635 b2bd
000000a0: 744d 43bd dd23 42bd 9608 8a3d 9e9e 8e3c
000000b0: 8bd2 3c3d a7d2 69bd 493e bd3d 43cd cebc
000000c0: 8335 3f3d 210a 673d 8842 5e3d 59d4 3d3d
000000d0: fef5 5f3d 91e3 803d 6983 d2bc 9c3e 953c
000000e0: ef28 053d 1fa4 b8bc 1188 4fbc e84c 2ebc
000000f0: a70d 61bc 13c6 603d 329b 793d 7f8a 4d3d
00000100: f77b 52bc 02f3 e13c ef57 abbb 61dd acbc
00000110: 6aaf 2fbd 499c 103d 6028 db3b 2f5c e83c
00000120: 048d 203b 2383 bebc 4725 59bc a79a ba3d
00000130: 70a4 50bd 101c c8bc b1e6 0b3d d977 5ebd
00000140: 20a5 143d f75e 50bc c46d 18bc 0377 81bd
00000150: 78a6 3f3d d418 a6bc 0759 a6bd a60c 9fbb
00000160: 2c5d 4eba c81d 4dbd d3ed c7bc ede9 24bc
00000170: f801 893d 1c89 0cbc 59f9 213d eb05 073d
00000180: 86ad 133c 957b babb c1db 5bbb 7bec 6fbb
00000190: 4c00 f5bc 79c6 35bd 0122 e4bc c266 573c
000001a0: e50b 56bd 2fde 68ba 9c37 b6bc 042e 5ebd
000001b0: df78 1b3d c707 da3c 2960 a6bb e860 1a3c
000001c0: 4025 103d 0ed9 00bc 3957 c8bc 0d02 0fbd
000001d0: f461 e3bc c7b8 31bd 6285 f83c 6417 2c3d
000001e0: e48f 5f3d 3dbe 2e3d 9e85 953a 7f58 1fbd
000001f0: 6d72 e13b 13d9 6fbc 1b1f f7bc cdf2 283c
0.06678025 0.021300988 0.03973285 0.036183134 0.046132307 0.027258934 0.008250371 -0.027826602
-0.015302933 0.00981869 0.0001662486 -0.057828445 0.05876539 0.03602754 0.010649105 -0.0351988
-0.004391276 -0.03938593 0.044908207 0.034085795 -0.07797874 -0.080473095 -0.05595293 -0.003078473
-0.06021517 -0.003232351 0.0014707706 0.036427155 -0.0072363145 0.08898772 0.06746279 0.035979908
-0.0060751787 -0.02579678 -0.067898884 0.04034279 0.0011480126 0.04167128 0.02247731 -0.087015316
-0.047681287 -0.047397483 0.06739919 0.017409619 0.046099227 -0.05708566 0.092403956 -0.02524436
0.046681892 0.056406144 0.054262668 0.04634509 0.054677956 0.06293405 -0.025697427 0.018218331
0.03250974 -0.022539197 -0.012666718 -0.010638453 -0.013736165 0.0548764 0.06093902 0.05018091
-0.012846938 0.027581695 -0.0052289884 -0.021101655 -0.042891897 0.035305295 0.0066881627 0.028364269
0.0024498114 -0.02325589 -0.0132535165 0.09111529 -0.05093807 -0.024427444 0.03415555 -0.054313514
0.036290288 -0.012717954 -0.009303514 -0.06321528 0.046789616 -0.02027551 -0.08122449 -0.0048538027
-0.000787216 -0.05007723 -0.024405396 -0.010065538 0.06689829 -0.008577611 0.039544437 0.03296463
0.009013539 -0.0056910017 -0.0033547732 -0.003660946 -0.029907368 -0.04437873 -0.027848246 0.013147058
-0.052257437 -0.00088832056 -0.022243313 -0.054243103 0.03795707 0.026615037 -0.005077381 0.009422518
0.035191774 -0.00786425 -0.024455654 -0.034914065 -0.027756669 -0.043389108 0.03033704 0.042014495
0.054580584 0.042661894 0.0011407619 -0.038902756 0.0068800957 -0.014639157 -0.0301662 0.0103117945

encoder.4.weight f4 [128]
00000000: 5b6b 943f 6272 7a3f ccb0 7f3f 4a2d 7a3f
00000010: 27be 813f b86a 7c3f 3091 7f3f 3a67 863f
00000020: 16df 753f 3538 703f 03f7 7c3f d44e 7f3f
00000030: ba30 923f 7bc3 883f 0c8c 7c3f 4013 793f
00000040: 3e47 7f3f 0950 6d3f b429 7c3f 65f1 8e3f
00000050: 3965 803f e251 823f 2c89 783f 84e2 793f
00000060: a8ec 7a3f d9ce 813f 3273 823f 5553 7f3f
00000070: 86ba 7a3f ebf8 8c3f d142 803f 1e55 7d3f
00000080: f354 763f 3e5f 7e3f 4737 7c3f 4df1 713f
00000090: ae4a 783f b6c6 863f 6c40 863f b777 733f
000000a0: 5ddb 833f 21ec 7d3f e02d 823f 609d 7b3f
000000b0: 7617 833f 7552 7e3f d9dc 823f 0e96 793f
000000c0: ead8 7b3f 9a99 7e3f c688 8a3f 7d9b 863f
000000d0: 6c8e 803f 1a1c 8f3f 881d 983f a467 843f
000000e0: 4d10 813f 1c16 7e3f 397f 793f 5b59 853f
000000f0: 68ac 803f e347 8e3f bda7 803f 1a42 7f3f
00000100: 42c3 793f 3149 803f 0e66 7c3f 21a3 863f
00000110: d7f8 7a3f 4bb3 803f 731d 7a3f 123e 7e3f
00000120: 2649 7a3f cdf9 803f 2852 993f b45a 7a3f
00000130: 4f2a 7c3f 7d2d 713f b11e 783f 7936 813f
00000140: a084 7f3f 762e 843f 48cb 7f3f 127f 763f
00000150: 2a31 7e3f 04ad 713f 7dbe 7b3f a582 7f3f
00000160: a284 7c3f 9471 773f c134 7b3f adce 823f
00000170: 7310 7b3f af0b 803f 58f0 7c3f a218 9e3f
00000180: b9b0 773f bb46 753f 42ae 773f cd72 7e3f
00000190: dd69 803f eff7 733f d970 723f d50a 7a3f
000001a0: 6f53 7d3f 9c6d 7a3f d88b 803f 95c8 783f
000001b0: f465 813f 8c43 7f3f 486a 7b3f 190a 7c3f
000001c0: 55a4 823f 7f52 753f b0ef 803f 4fb0 813f
000001d0: 583d 833f 10ab 833f 8849 853f fc08 823f
000001e0: 5295 853f a169 793f 5d78 763f 986c 953f
000001f0: e1ac 743f 244e 8b3f 5a54 7c3f 5c73 7c3f
1.1595262 0.97830784 0.99879146 0.97725356 1.0136155 0.9860034 0.99830914 1.0500252
0.9604353 0.93835765 0.9881441 0.9972966 1.142112 1.0684656 0.98651195 0.97295
0.9971808 0.9270025 0.98501134 1.1167418 1.0030891 1.0181239 0.9708431 0.9761126
0.9801736 1.014125 1.0191405 0.9973653 0.9794086 1.1013464 1.0020391 0.98958004
0.9622337 0.9936408 0.98521847 0.9450882 0.9698895 1.0529392 1.048841 0.95104545
1.0301319 0.9918843 1.017025 0.9828701 1.0241535 0.9934457 1.0223647 0.9749459
0.9837786 0.9945313 1.082299 1.0516201 1.0043464 1.1180451 1.1884012 1.0344129
1.00831 0.99252486 0.9745975 1.0417894 1.0052614 1.1115688 1.005119 0.9971024
0.97563565 1.0022336 0.98593223 1.0518533 0.9803595 1.0054716 0.97701186 0.9931346
0.97767866 1.0076233 1.1978197 0.9779465 0.9850206 0.94210035 0.9692183 1.0094749
0.99811745 1.0326679 0.9991956 0.96287644 0.9929377 0.94404626 0.9833754 0.9980872
0.9863988 0.9665768 0.9812737 1.0219322 0.98071975 1.0003566 0.98804235 1.2351267
0.9675403 0.9581105 0.9675027 0.9939392 1.0032307 0.9530019 0.9470344 0.9767278
0.98955435 0.978235 1.0042677 0.97181064 1.0109239 0.99712443 0.9820905 0.9845291
1.02064 0.95829004 1.0073147 1.013193 1.0253096 1.0286579 1.0413065 1.0158992
1.0436194 0.974268 0.9627741 1.1673765 0.9557629 1.0883222 0.9856621 0.98613524

encoder.4.bias f4 [128]
00000000: a118 b53d 2ed2 e9bc 939b b1bc f288 a53c
00000010: e96e 293b 10b8 cbbc d5e1 d4bc fdb1 083d
00000020: 0b2a 58bd a897 a3bc e3f9 80bc 76df ddbc
00000030: 8392 463d 9fed 69bc 3bb4 babc 3e38 263b
00000040: 47bf 07bd 4944 6bbc 3022 e5bc 93b2 da3c
00000050: 82f8 1bbd db02 54bd 083d 51bd e61f ab3c
00000060: 9ebe d4bc 6d99 92bc 6beb 3a3d 118e a2bc
00000070: 010a c7bc 1f76 a03d 18ff cf3c dc73 12bc
00000080: 5155 6bbd 5d99 85bc d434 67bd b2be 2bbb
00000090: f672 16bd 4812 903c a03d 9bbc db95 07bd
000000a0: d744 77bc 12b7 0fbd d5e3 203b d21d 4abd
000000b0: 5c92 0b3c 700f 84bc 3a10 693d c441 8c3c
000000c0: 32cb fcbb 36c1 a1bb 551b 273d 5ef7 b33d
000000d0: f6aa d83c 4652 453d c3e1 063d 08df 2e3d
000000e0: c785 6d3c 14ef 9dbb 2273 5ebc 3637 64bc
000000f0: 7fa2 933c 0664 a73d 8f13 9ebb f283 f7bb
00000100: 8dde e3bc 8a2e 98bc f331 473c 5665 903d
00000110: da44 aa3b 5fea 323c ec50 2ebd 4e54 87bc
00000120: 86f0 2abc 76e8 3a3b 80fa df3d 960b 343d
00000130: 59e3 15bd 3c8e f13b 35b9 ac3c 7017 2abc
00000140: 0c26 a7bc b2b0 253c 4215 ddbc 1c02 2abd
00000150: aaad 4abc d169 babc 3388 d1bc 5f70 3dbc
00000160: cf87 0fbc 01de 20bd b011 92bb 8738 6fbc
00000170: 7f52 2dbc 10b9 f0bc 4e0d d1bc 8351 ea3d
00000180: 46eb 20bd 0496 30bd b880 0fbd b966 44bc
00000190: 4879 473c a4cb 19bd 1cd6 25bd 9e2b 363c
000001a0: 6eab 37bd 022e 86bd 2f39 dcbc 8714 20bd
000001b0: 9951 eabc ae6f 61bb 91ee 3dbd dcff 8abc
000001c0: 5825 11bc 9762 1b3d 00db f23b cd92 3bbd
000001d0: ef31 24bc 3782 b7bc 7bca 3b3d ec1b f23c
000001e0: 14d0 e93a da10 e4bb bb9f a2bc 5aef f73d
000001f0: fd3f 90bd 1e6d 5f3d 4b87 22bd 6bcc c53b
0.08842588 -0.028542604 -0.021680629 0.020206902 0.002585346 -0.024868041 -0.025986591 0.033372868
-0.05277447 -0.019969776 -0.015744155 -0.027084094 0.04847957 -0.014277845 -0.022791019 0.0025363113
-0.0331414 -0.014359542 -0.027970403 0.026696479 -0.038078792 -0.051760536 -0.051083595 0.020889234
-0.0259698 -0.017895425 0.04563467 -0.019843133 -0.024296762 0.0783503 0.025390193 -0.008938756
-0.05745441 -0.01630848 -0.056446865 -0.0026206193 -0.03673073 0.017586842 -0.018950284 -0.033101898
-0.015092096 -0.0350867 0.002454986 -0.049344845 0.0085187815 -0.016120642 0.05690024 0.017121203
-0.0077146525 -0.0049363626 0.04079755 0.08787416 0.026448708 0.048174165 0.032930147 0.042693168
0.014497227 -0.00481976 -0.0135772545 -0.013929179 0.01802182 0.08173375 -0.004824109 -0.007553571
-0.027816081 -0.018576879 0.012157905 0.07050578 0.005196196 0.010920136 -0.042557642 -0.016519692
-0.010433322 0.0028519905 0.10936451 0.04395636 -0.03659377 0.007371692 0.021084407 -0.0103815645
-0.020403884 0.010112928 -0.026987676 -0.041505918 -0.012370506 -0.022755535 -0.02557764 -0.011562436
-0.008760407 -0.03927422 -0.004457675 -0.0146008795 -0.010578751 -0.02938512 -0.02551904 0.114413284
-0.039286874 -0.043111816 -0.035034865 -0.011987382 0.012174912 -0.037547722 -0.040487394 0.011118798
-0.044841222 -0.06551744 -0.026882736 -0.039082076 -0.028603362 -0.0034398842 -0.046370093 -0.016967706
-0.008859001 0.03793582 0.0074113607 -0.045794297 -0.010021671 -0.022400958 0.045847397 0.02955433
0.0017838501 -0.0069600167 -0.019851556 0.121061996 -0.07043455 0.05454742 -0.039679807 0.0060363314

encoder.6.weight f4 [64, 128]
00000000: b295 893e 10e7 9ebb 0aed 583c a796 94bd
00000010: 4107 37bc 8896 9ebd 1e98 263c 7d75 713d
00000020: 399b fd3c cb87 c5bc d2e4 c23c 6dc4 02be
00000030: 9762 98bd bc9b 123d 055b c53c 23b4 a03b
00000040: 2bb0 3d3c a9d7 51bd 5c52 e9bb 3c48 95bd
00000050: 9015 c3bd 25ce fabc 80ab d6ba 3c08 1e3d
00000060: d835 57bd eb5b 5c3c 2c47 df3c 6a80 e83d
00000070: 3dae f6bb 30fb 863e 4ccd 5c3d 417c cfbd
00000080: a050 2d3b 3b0d 493c c752 983a cd86 8b3b
00000090: 3f38 39bd c2fd 56bd b936 35be ce45 ac3b
000000a0: 6a3c f0ba 283d f8bd a082 873b 8ed1 b8bd
000000b0: 7190 4eba d26b 0a3d d55a 003d 71d5 d23d
000000c0: 12ad 82bc a9e2 193a cbd3 d9bc 5318 ae3d
000000d0: f6c0 4c3d 59fb e43d be40 30be 86f2 503e
000000e0: d304 0f3e 5a93 f3bd 3f96 7e3b b76b 48bb
000000f0: b496 ca3d 2771 5b3e 8506 33bd 2f09 993c
00000100: 17e1 9b3b cfaa d2bc 9210 d9bc 2928 5f3e
00000110: 6645 8c3d 5801 883d 15ab ccbd f1cb 6b3d
00000120: f115 0bbd b32f eb3d 4791 7d3e 209d 963d
00000130: 1749 47bd b137 25bd 5b87 6ebb 613a b2bc
00000140: 15e5 c4bd 46b7 26be f23d 063e 2750 843c
00000150: d665 413c ed55 60bd 8256 cfbc 82af d63d
00000160: 0e37 613d aecb 06bc 0b93 cdbc 3a62 ec3a
00000170: b125 8d3d 28df f5bd b1f1 41bd bd53 9e3e
00000180: eda7 103c b6c0 6fbd 5b23 04be bf91 26bc
00000190: 4ff7 543d cc44 70bd 984e 45bd cd79 203d
000001a0: 20f3 91bd a0c3 12bd 30d0 103b ed7b f4bc
000001b0: 5a75 4b3d 4aa6 3e3d d892 dd3b 6f50 74bd
000001c0: 64a6 c63d e094 c83d 39d2 e33d 00fc a8bd
000001d0: 116c 873c 6d41 adbc 185e 5e3e bc35 433e
000001e0: 33da 853d 753c 8fbb 8836 cabd 7c48 4c3e
000001f0: 1683 9cbd 2827 02be d2e2 81bc baa5 153d
00000200: d996 b6bd 019f 9f3d 91e1 43bb f9e6 513c
00000210: b63f a3b9 eec8 2bbd c4d9 87bd ffea 6bbd
00000220: 365e 60bd 6e88 e4bd 3d43 883c 8650 633d
00000230: 7639 e03d 7ebb d23c cc1f 593c d57e 6e3b
00000240: b7c4 b53d f1fe 8e3d acf6 12bc 6f57 e83d
00000250: 92d5 72bd 2a30 84bb f6f1 d83c 9dd6 cc3c
00000260: 8d42 9fbd c058 d33d ebb5 2b3d 24f9 093e
00000270: 5f15 cb3d 4456 183d 8bcc 3c3d 108e 1f3c
00000280: 881b 613d f86a a3bd cf33 f4bc a04a 0f3d
00000290: f71a 2c3d 3ffe 20bc 5dbc 5c3d 9702 31bd
000002a0: 5fec 203d a234 423d d5c2 183d cc60 36bd
000002b0: d2fe acbc 0f0c 16bd ae12 cd3d e945 c83c
000002c0: ab34 fdbc dd4d 243d 6c03 c43d 879c d3bd
000002d0: 0454 6ebd 1ae2 23bd cfb3 623e 3613 52bd
000002e0: 212b 9dbd 0b99 31bd 3abd 72bd f5a6 0c3e
000002f0: fe4d 8fbc 6f77 0fbd db48 953d 5ab5 08bc
00000300: f0b8 05bd 44ba 293c 05ba 24bd a23d 773d
00000310: fe46 98bd c947 813d d0ea 543d bfad 56bd
00000320: e097 8dbd 1711 923c 7d1b 95ba b5f5 84bd
00000330: 8d99 07bd feaf eabc c680 db3c 9c58 92bd
00000340: 9c73 05bc 790b cd3d c658 713d 839a 1ebd
00000350: 6cff 19bd c5d8 1cbd 89fa 673c f7cc fb3d
00000360: 3a4a a63c bb32 f93c 70b8 d73b 6055 993d
00000370: 5edb a4bb cdbe cf3d 070e 6c3d 6d1f 22be
00000380: 9f72 bf39 4009 4abc b8c8 7c3d 1f5e bebc
00000390: 8087 223d 353f ce3c 0d7f cabd 18d9 f7bb
000003a0: e72f 8dbc 6f13 983d c498 843a a967 883d
000003b0: aad7 a6bd 97d1 123d b054 9bbd 7aa8 4e3c
000003c0: a6b2 2cbd b9ad 1cbd 734e c7bd 4c94 e53d
000003d0: 85cf f13c 3a34 04bd 8193 58bd 2634 ee3c
000003e0: b2c4 b53c c518 8fbd a825 383d bd7e a93d
000003f0: 6bc2 be3c 69f2 273e e299 bcbd 060a 563d
0.2687202 -0.004849322 0.013240108 -0.07255297 -0.011171163 -0.07743555 0.0101681035 0.058949936
0.030957805 -0.024112603 0.02379075 -0.12770243 -0.074406795 0.03579305 0.024091253 0.0049042865
0.011577646 -0.05123106 -0.0071204137 -0.07289168 -0.09525597 -0.030615875 -0.0016378015 0.03858207
-0.052541584 0.013449649 0.027255617 0.11352618 -0.007528095 0.26363516 0.053906724 -0.101311214
0.0026445761 0.012271221 0.0011621349 0.004258013 -0.045219656 -0.052488096 -0.17696656 0.005257345
-0.0018328552 -0.1212104 0.0041354448 -0.090243444 -0.00078798 0.03379423 0.031336624 0.10294617
-0.015951667 0.0005870262 -0.026590249 0.08500733 0.04998871 0.11180753 -0.17212197 0.20405015
0.13966684 -0.118933395 0.0038846878 -0.0030581781 0.098920256 0.21429883 -0.04370739 0.018681137
0.0047570574 -0.025716214 -0.02649716 0.21792664 0.06849174 0.06640881 -0.09993569 0.05756754
-0.03395647 0.11483707 0.2476245 0.07354188 -0.04865369 -0.040336315 -0.0036396596 -0.021756353
-0.096140064 -0.16280851 0.13109568 0.0161515 0.011804065 -0.054769445 -0.025309805 0.10482694
0.054984145 -0.008227272 -0.02509453 0.0018034645 0.06891955 -0.12005454 -0.047349636 0.30923262
0.008829099 -0.058533393 -0.12904112 -0.0101665845 0.051993664 -0.05865936 -0.048170656 0.03917866
-0.071264505 -0.035831094 0.0022096746 -0.029844249 0.049672462 0.046545304 0.00676189 -0.05964702
0.09699705 0.09794021 0.11124081 -0.0825119 0.016531022 -0.021149362 0.21715581 0.19063467
0.06535759 -0.0043712207 -0.09873682 0.19949526 -0.0764219 -0.1271025 -0.015855227 0.036535002
-0.08915491 0.077939995 -0.0029889087 0.012811416 -0.0003113725 -0.04193967 -0.06633332 -0.057597157
-0.054777347 -0.111588344 0.016633624 0.055496715 0.1094846 0.025724169 0.01325221 0.0036391516
0.08875411 0.0698222 -0.008969944 0.11344802 -0.059285708 -0.004034062 0.026482563 0.02500468
-0.077763654 0.10319662 0.041921537 0.13473946 0.099161856 0.037191644 0.046093505 0.00973846
0.054957896 -0.07979387 -0.02980986 0.034983277 0.042017903 -0.009826242 0.053890575 -0.04321536
0.03928792 0.047413476 0.03729518 -0.044525906 -0.021117602 -0.036632594 0.100133285 0.024447398
-0.030908903 0.04011332 0.09570965 -0.103325896 -0.058185592 -0.04001055 0.22138904 -0.051287852
-0.07674242 -0.043358844 -0.05926249 0.13735564 -0.017493244 -0.03502601 0.07289287 -0.008344019
-0.032647073 0.010359351 -0.040216465 0.060361512 -0.07435416 0.0631252 0.051981747 -0.05241179
-0.069137335 0.017830415 -0.001137599 -0.064921774 -0.03310542 -0.028648373 0.026794802 -0.07145807
-0.008145239 0.10011954 0.05892255 -0.038721573 -0.037597105 -0.038292665 0.014158853 0.12294953
0.020299066 0.030419698 0.006583266 0.07486987 -0.0050310334 0.10143814 0.057630565 -0.158323
0.00036515758 -0.012331307 0.061714858 -0.02323824 0.039680004 0.025176624 -0.09887514 -0.0075637214
-0.017234756 0.07425582 0.0010116328 0.066603966 -0.081466034 0.03584441 -0.07584512 0.01261341
-0.04216256 -0.038251612 -0.0973176 0.11209926 0.029517898 -0.03227637 -0.052875046 0.0290776
0.022188518 -0.06987146 0.044957787 0.082761265 0.023286065 0.16401066 -0.09209038 0.052255653

encoder.6.bias f4 [64]
00000000: 929c 8a3c 7423 833d 1902 643d f11f adbb
00000010: f7b0 453d 2294 f73c 861f 8e3d 8328 ce3c
00000020: a2b4 afbc 364d 3b3d 3bc8 353d b42e 9dbc
00000030: 26ee 99bc 9c60 64bd c366 1b3b 2fd2 733c
00000040: 4363 1fbd 68be 27bd b12e 013d 75c5 b6bd
00000050: 3acd 6bbd f7d9 993d 6320 ecba f694 0e3c
00000060: e315 a3bd 144e 4dbd a0f3 b6bc bdd6 b5bd
00000070: 64d8 bd3d 9900 913d 3e97 553d b72b ad3d
00000080: 44d7 46bc 94b1 d43c 40f2 3b3d 3bf9 163d
00000090: ff28 873c aa59 f63b 99bb 35bd 7b08 e43d
000000a0: 22ec f23d 09db c8bc e2a7 59bd d8cf 963d
000000b0: bbbb 493d 3187 4ebd 4868 c93d f62e 7e3c
000000c0: f50a 85bd 4147 6d3d 697a 863d ca92 9b3d
000000d0: d26c ba3c c284 e2bd f97b 80bd fd51 6f3c
000000e0: 3cd5 afbc 1e82 71bd 75ca 9d3d db8f 433d
000000f0: 8eb4 21bd 9462 303d c544 23bd 3b93 ad3b
0.016920362 0.064032465 0.055666063 -0.0052833487 0.04826447 0.030222002 0.06939606 0.025165802
-0.021448437 0.04572793 0.044380408 -0.019187309 -0.018790316 -0.055756196 0.0023712374 0.014881655
-0.038913023 -0.04095307 0.03153867 -0.08924381 -0.057568766 0.075122766 -0.0018015023 0.008702507
-0.07963159 -0.05012329 -0.022332966 -0.08878849 0.09269789 0.07080192 0.05214619 0.084556036
-0.012136284 0.025963582 0.045885324 0.03685878 0.01649904 0.007518013 -0.04436836 0.1113443
0.11861445 -0.024518507 -0.05313862 0.07363862 0.0492513 -0.050421897 0.09834343 0.015514126
-0.064962305 0.05792928 0.06566317 0.07596357 0.022756968 -0.11060478 -0.06273646 0.01460695
-0.021463983 -0.05896198 0.07704631 0.047744613 -0.03947883 0.04306276 -0.039860506 0.0052970923

encoder.7.weight f4 [64]
00000000: ab9b 953f 40d2 833f 9764 8f3f 2138 803f
00000010: 9226 7b3f a701 733f 5ecb 793f 7967 7e3f
00000020: 2285 803f dc7b 7c3f 8301 753f e279 7b3f
00000030: 2dad 7f3f bb4b 7c3f 7c8d 7b3f 41ec 863f
00000040: 91e3 833f dfce 843f fafa 7c3f ef8e 793f
00000050: f7b7 903f d85f 773f a02f 8d3f 84ce 7e3f
00000060: 2d02 7f3f 8bbb 823f 309d 723f f5a8 773f
00000070: b650 7e3f 9b35 823f 4de3 843f e219 7b3f
00000080: 58e7 803f d028 813f 15f0 7e3f eede 6e3f
00000090: cbec 793f fc54 853f 63b4 803f 2b28 8f3f
000000a0: da43 8e3f dda4 7c3f 9f5e 823f d8aa 7b3f
000000b0: a673 733f fe09 803f d1e2 803f 7f74 8c3f
000000c0: 8230 823f 3e66 833f 8c09 823f 6d17 7a3f
000000d0: 8d78 7d3f 872e 833f 9ded 793f ee7c 733f
000000e0: e5fa 813f af24 7c3f daf9 7f3f c81d 833f
000000f0: 20a7 783f 989a 803f 865d 803f 995e 7d3f
1.1688131 1.0298538 1.1202573 1.0017129 0.9810573 0.94924396 0.9757594 0.99376637
1.0040629 0.98626494 0.9570543 0.98232853 0.9987362 0.98553056 0.98262763 1.0540849
1.0303823 1.0375632 0.9882046 0.97483724 1.1306142 0.9663062 1.1030159 0.9953387
0.99612695 1.0213484 0.947711 0.9674218 0.99341905 1.0172609 1.0381867 0.9808637
1.00706 1.009058 0.99585086 0.93308914 0.9762694 1.041656 1.005505 1.1184133
1.1114457 0.9868906 1.0185126 0.9830756 0.9509834 1.0003049 1.0069219 1.0973052
1.0171053 1.0265577 1.0159163 0.97691995 0.9901207 1.0248574 0.97628194 0.951125
1.0154692 0.98493475 0.9999062 1.0243464 0.9713001 1.0047178 1.0028541 0.9897247
